CF/Cora_CF/MLP_encoder.pt (torch, 659608 bytes, 4 tensors)

lins.0.weight f4 [256, 384]
00000000: c509 7c3d 5e5f f2bd 7a64 af3d 0c1b 82bd
00000010: f9cd f5bb 63aa 6ebd b7b5 0d3e 3c83 373c
00000020: acdc abbd 3139 94bd bb5e 393d 3f8d 05be
00000030: 0e6a 143d 17f8 0abe e131 92bc 8ab0 51bd
00000040: 9bd5 b8bd 6372 933d 8520 ea3c c961 313d
00000050: 4a0e 0abe f163 853b 6578 26be 44a9 3abe
00000060: a298 25be 665d 16be 52fb a63d 29af fabd
00000070: 7baf 6c3b ced4 98bd 6cc4 1a3b edb3 a9bb
00000080: 16b9 6dbe 7230 0e3e ab41 01bd 880d 8bbc
00000090: eef3 86bd 5a4f 31bc e201 c5bb efde 9b3d
000000a0: 6f7b 803c 6ea8 a23d e724 883d 4480 76bd
000000b0: 3e42 32bc 5e40 04bd d9a0 cd3d c12c b0bb
000000c0: ce4f a63d 5db5 3fbd 392c 933d ea5d 29be
000000d0: b9e3 783d e1c8 193d ef23 36bd 3e25 02be
000000e0: 955a ce3d 0637 a73d add8 0abd c782 69bd
000000f0: 220b 5abd 4c58 553d ccce 38bc 291e 4a3c
00000100: 4e34 aebd 843f 00be b729 2ebe 6c47 a43d
00000110: c78f b13c 8e39 c0bc 1834 0a3d c2ea 80bc
00000120: 1554 d3bb 6f69 f6bc 5499 b53d 3d3c ecbc
00000130: 351b 1cbe 043c bf3d 55ca 28bd 900e 9abd
00000140: a366 933d df1f 4b3e 5e68 1f3e b960 29bd
00000150: fdb9 813d 68a4 053e 8e88 253d d595 023e
00000160: c264 cb3c e5a8 3a3d 3b60 993d 096b 803c
00000170: 8bab c43c 4937 1bbe 6047 bdbc 287d b4bd
00000180: f90b 5a3e 7d01 393c 1ca5 f93d da37 0e3d
00000190: 7899 b4bd 6f24 66bd 2fd9 263d 7029 d9bd
000001a0: f07c d33d 83dc 6dbc 1d18 bfbd 5b2a 1d3e
000001b0: 1338 cd3c 4cc5 7ebc 5cb6 8cbd fa2d 04be
000001c0: b639 b2bd f2ab 4ebd 910e ba3d 82d0 a93c
000001d0: f2fd 05bd 6657 11bd 7ccd f0bd 30ec 0abe
000001e0: 6fe4 53be 7bc0 9c3d dbd3 133d f421 55bc
000001f0: 028d 083e 3baa 9dbd c13e 1ebc f2b9 34bd
00000200: 0584 9dbc 1702 1f3d da6f 8f3c 5059 5c3b
00000210: eba0 853d 1a43 293d 945f ae3d 7e4f 75bd
00000220: a84d a53d 6c2e 00bd c29f db3d 9f6f 6d3d
00000230: c961 3dbe 9fab ee3c 4a98 6e3d c396 8bbd
00000240: 3559 07bd 0579 c23b 5cd7 a53d de55 ca3d
00000250: a988 b63d 1554 06be da50 afbd 8682 ef3d
00000260: bc2e 55be 3e29 1cbd 2179 0f3e 6fcc 613e
00000270: bac0 19bd 3463 4b3e fcd6 ab3d d1ff 5a3e
00000280: e1f7 a53a 2c18 57bc 07d1 0ebd 31e0 a93c
00000290: 5943 9cbd 51b3 353e ea4c 8dbd d77f 1b3a
000002a0: 96d8 013e 954f aebd 5073 b63c 3c10 24be
000002b0: 6db5 f8bc 6d5c f0bd 321e 8d3e 0309 003d
000002c0: 9a2f 90be 9079 563c c7dd 6fbb ac3b e83a
000002d0: dc79 aebd 6d44 9a3b 6e4a 393e 31e0 9bbd
000002e0: deec 713c 836d c9bc 8492 5f3c d6db 0e3d
000002f0: 8f76 fe3d 2bb3 55be 1c42 8dbd a9c2 66bc
00000300: 9d87 1bbe 396a b1bc c86e ee3c ce77 b53c
00000310: 976c 08bd 6917 51bd 887f a23d 35fe b6bd
00000320: 2829 6f3d 7da3 533d de15 2bbd 3599 6e3e
00000330: 8a9d 843b e2df ebbb d94f ffba 717c 0d3d
00000340: 7d03 82bd 3300 9fbd 596e e23b 812c 81bc
00000350: 5b94 153e db88 4bba bcca 1b3d 26dd 17bb
00000360: 89d1 ddbc d4f4 1a3d 56c8 65bd 9f54 bf3d
00000370: a4b8 1bbe 94cb 2abe cc88 f63c 0680 0cbd
00000380: d710 63bd 76dd 6cbc 6e6c b6bc ad31 6c3d
00000390: 7822 5d3d 9adb a33d 3007 1ebd 806d 283c
000003a0: 0b01 193e 21ce fbbb a74f b1bd 7d67 093e
000003b0: 3212 083e 286a 41bd 0cf6 b1bd af19 85bc
000003c0: b5cb 3d3b 20c4 e53d 3dbc 26be 477f 1ebe
000003d0: 2ad6 20bd 203a adbd 07cd da3a 6ffd cabd
000003e0: 9891 f0bd 1320 7b3d 958c 07bc 07a0 fa3d
000003f0: fd4c 043c d737 e03d 2a0c 3fbc fa74 43bd
0.061532754 -0.11834596 0.08564086 -0.06352815 -0.0075013605 -0.058267962 0.1383885 0.011200722
-0.08391699 -0.07237471 0.045256358 -0.13042162 0.036233954 -0.13571201 -0.01784605 -0.05119375
-0.09025117 0.07199552 0.02857996 0.043306146 -0.13482013 0.004070752 -0.16256864 -0.18228632
-0.16171506 -0.14684066 0.08153404 -0.122404404 0.0036115337 -0.07462464 0.0023615612 -0.0051789195
-0.23215136 0.13885668 -0.031556766 -0.016974226 -0.06589495 -0.010822142 -0.0060121873 0.076108806
0.015683858 0.07942282 0.066476636 -0.060180917 -0.010880051 -0.032287948 0.10040445 -0.005376429
0.0812069 -0.04680382 0.07186169 -0.16539732 0.06076405 0.03754509 -0.044467863 -0.1270952
0.10075871 0.08164792 -0.033898044 -0.057009485 -0.053233273 0.05208616 -0.011279773 0.012336292
-0.0850607 -0.1252423 -0.170081 0.08021435 0.021675004 -0.023464944 0.033741087 -0.015736941
-0.0064492323 -0.030079572 0.08867136 -0.028837318 -0.15244754 0.09337619 -0.041208584 -0.07522309
0.07197311 0.19836377 0.15567157 -0.041352008 0.063343026 0.13050997 0.04041343 0.12752469
0.024828319 0.045571227 0.07489058 0.015676038 0.02400758 -0.15157808 -0.023105323 -0.08812934
0.2129363 0.011291859 0.12189695 0.034721233 -0.08818334 -0.05618709 0.040734466 -0.10603607
0.10326564 -0.014517906 -0.09330771 0.15348189 0.025051152 -0.015549969 -0.0687072 -0.12908164
-0.08702414 -0.05045695 0.090848096 0.020729307 -0.032712884 -0.03548374 -0.11757943 -0.13566661
-0.20692609 0.076539 0.036090713 -0.013008583 0.1333504 -0.076984845 -0.009658516 -0.044122644
-0.01922799 0.038820352 0.01750939 0.003362257 0.06524833 0.04132376 0.08514324 -0.059890263
0.080714524 -0.03129427 0.10723831 0.05796778 -0.18494333 0.02913457 0.058250703 -0.06815865
-0.03304406 0.005934837 0.08097717 0.09879659 0.089127846 -0.13118012 -0.08560343 0.11694817
-0.20818609 -0.03812527 0.14011051 0.22050641 -0.037537314 0.19862062 0.083906144 0.21386649
0.0012662375 -0.013128322 -0.034867313 0.020736786 -0.07630033 0.17744185 -0.06899436 0.00059318304
0.12680277 -0.08511273 0.022271782 -0.16021818 -0.030359948 -0.11736379 0.275621 0.031258594
-0.28161317 0.013090506 -0.0036600695 0.0017717979 -0.085193366 0.004707864 0.18094799 -0.076111205
0.014765946 -0.024588352 0.013645772 0.03487762 0.12424957 -0.20869128 -0.06897375 -0.014084497
-0.15188451 -0.021657096 0.029105559 0.022151854 -0.033306684 -0.051047716 0.07934481 -0.08935205
0.05838886 0.051669586 -0.0417689 0.23300631 0.0040471004 -0.00719832 -0.0019478753 0.034542505
-0.063483216 -0.0776371 0.006910127 -0.015768291 0.14607374 -0.00077642285 0.03803514 -0.0023172586
-0.027077453 0.037831143 -0.05609926 0.09342312 -0.15207154 -0.16679221 0.030094527 -0.03430178
-0.05543598 -0.014457097 -0.0222685 0.057664562 0.05398795 0.0800087 -0.038581073 0.010280013
0.14941804 -0.0076844846 -0.086577706 0.13418384 0.13288191 -0.04722038 -0.08689508 -0.016247598
0.002896053 0.112190485 -0.16282745 -0.1547824 -0.039266743 -0.08458352 0.0016693183 -0.0991162
-0.1174652 0.061309885 -0.008273263 0.12237554 0.008074996 0.109481506 -0.011660615 -0.04771898

lins.0.bias f4 [256]
00000000: 26e7 3ebd dd08 693c 61ee 403c 6117 47bd
00000010: a977 353d dad5 1bbc 5990 e8bc 4af1 70bc
00000020: e38e 26bc 12fc d3bb 433b e7bc 4a87 c8bb
00000030: 7324 0abb 2c35 c4bc 3a90 abbc fdbe 9bbc
00000040: cecf c43c a1d0 29bc a687 c33c 4b84 6ebc
00000050: 7a8a 3bbc 6fb8 14bd ddae 183d 0e83 14bd
00000060: 1c22 8dbc 39c1 91bc 4a1a 3e3d e04d ac3c
00000070: 650f 773d a110 b13c ffe1 05bb d537 46bb
00000080: 8839 273d c90d 22bc 6f68 2c3d b572 483c
00000090: 63cb ad3c 2738 6c3c c0fc a93c 5f3f 5a3c
000000a0: 92c2 51bd 2a7b e4bc 8159 f3bc 82a2 063d
000000b0: 3072 583d 91af 41bc 9fe8 4c3d 1ccc fc3b
000000c0: da71 67bd b821 173d 1953 81bc 5957 b53c
000000d0: 71a4 aa3c e095 15bb 2fe0 a33c dcc9 89bd
000000e0: 1872 f23c 32b4 2e3c 8c10 373d 07bd a23c
000000f0: c723 0ebd da4c 37bd a15e d7bb 590d 3f3d
00000100: c724 0f3d c4eb c6bb c546 f0bc cde2 bbbb
00000110: 4b0b 183d 7927 22bd 8ae5 bc3b bca8 a1bc
00000120: e3cd 14bd e086 c2bc 3046 e4bc 5ebf e43c
00000130: a312 9e3c 56d8 1a3d 7c8f 913c 5302 e43b
00000140: d9f2 10bd 0921 87bc c788 62bb 7526 e93b
00000150: 7c23 97bc 7aff 633b 6e8a f2bc 5149 0bbd
00000160: 2d90 4f3c b7cd 09bc dcb9 cfbc d7ae a8bc
00000170: 17f1 db3c 4251 38bb 6ae3 433c c12e 73bc
00000180: 7094 b3bb 8284 703c 5980 8abc ccaf 373c
00000190: 546b c6bb a313 603c cf98 b43c 0d97 a2bc
000001a0: d7c1 2c3d 0e30 05bc 3946 80bc 7e64 2d3c
000001b0: b8e3 b73c 3789 3b3c a3ff 633d e5a9 bfbb
000001c0: 073e ffbc e099 2dbd 4b51 09bd 6786 083d
000001d0: 5b35 833d 3380 20bd 29ee 993c f7a3 163d
000001e0: 23b0 aa3c d364 21bd a8ff 453c a48c 663c
000001f0: 6dfd 223c 2979 873c 0f2c 093b 1b26 baba
00000200: f1e6 fe3c 95df 9b3b b858 26bc 25e1 03bb
00000210: e253 253d a97a 7fbc 969c 513c 6203 1d3d
00000220: 6d1c 013d cb8d abbc 4197 d73c beec 123c
00000230: 0de2 debc 7bb0 833b c405 6c3d 2cf8 d23c
00000240: 4a0a d43a 294d c7bc 809c 1a3c d74e 0e3c
00000250: 313e fbbb 7910 1f3d 7f46 25bd d6a0 173d
00000260: f8e3 113d d655 36bc 03a6 9bbc e0a7 263c
00000270: fc0c 093d d791 c43c 25d7 c6bb 03d1 14bd
00000280: 871c e1bc 2cc0 df3b dd01 51bc c1f2 5d3c
00000290: 5c79 a63c 07ba f43c 0c00 d4bb be35 11bd
000002a0: 8419 e73c 8b78 4d3c bb08 66bd f18f ef3c
000002b0: 6890 2c3d 13f5 d6bc 4a68 bc3c 1f55 8e3d
000002c0: 6c77 3c3d a3f3 d33c e64e bf3c 906f dcba
000002d0: db60 713d f36f 63b8 a023 293d e408 3cbd
000002e0: 2c2f 8b3a 88ce 6f3c 194a f33c 5cff 44bd
000002f0: 088d 3a3b 8007 153d 91bd 7dbc 41b7 703c
00000300: 97a3 d2bc dccf f63c 9b12 13bd b634 74bc
00000310: 5694 873c 461c ddbc 6e36 9f3a 00b9 1f3d
00000320: 6e65 f5bc 865c 133d 2d77 20bd f9c7 4dbd
00000330: 3381 1e3d a35d 4dbb 39bd 593c 4007 13bc
00000340: faba 16bc 2747 183d f62f 55bc 30d4 1abd
00000350: 3e09 eabb 2f74 eebc ec98 583d 2bdd 8f3c
00000360: c650 693d bfdc 803b b9c6 25bd 3857 c33c
00000370: 1e60 25bd 1a55 7c3b d624 2f3d 51ad 77bc
00000380: 8c8a 153d e94f 0ebd 2dfd 283a 0e16 2a3c
00000390: c171 ba3c a577 dd3c 405b 5bbd 066b db3c
000003a0: 914c 8e3c 4571 fbbc 879a 69bd 122f b8bc
000003b0: de4c febc 514a 383c 40a0 d7bc dcbc d83a
000003c0: 6528 913b 4917 243d 4ffc 7d3b 48aa 963d
000003d0: cb62 2a3d 7e4d 10bd 96e0 0dbc 548c c73c
000003e0: fb7c 9ebc 923a ae3c c28e 00bd 5444 e1bc
000003f0: 1f36 01bd 9347 813b 2f7e f3bc b464 2bbc
-0.04660716 0.014223305 0.011775584 -0.04860628 0.04430357 -0.009511435 -0.028389143 -0.014705965
-0.010165903 -0.006469258 -0.0282265 -0.0061196433 -0.0021078854 -0.023951136 -0.020942796 -0.019011969
0.02402487 -0.010364682 0.023868393 -0.014557908 -0.01144659 -0.036308702 0.037276138 -0.036257796
-0.017228179 -0.017792331 0.04641179 0.021033227 0.060317416 0.021614375 -0.0020428894 -0.003024568
0.04082635 -0.009890982 0.042091783 0.01223438 0.021215146 0.014417685 0.020750403 0.013320773
-0.051210947 -0.02789076 -0.029705765 0.032869823 0.052843273 -0.011821643 0.050026532 0.0077147614
-0.05650506 0.03689739 -0.015786694 0.022136377 0.020830365 -0.0022824928 0.02000436 -0.06727955
0.02959542 0.010663079 0.044693515 0.019865526 -0.03470209 -0.044751026 -0.00657256 0.04664359
0.034947183 -0.006070586 -0.02933062 -0.005733824 0.037120145 -0.039588425 0.005764668 -0.01973378
-0.03632916 -0.023745954 -0.0278655 0.027923282 0.019295996 0.03780397 0.017768614 0.006958285
-0.035387848 -0.016495245 -0.003456639 0.00711518 -0.018449537 0.0034789727 -0.029607024 -0.034005467
0.0126686515 -0.008410863 -0.02535718 -0.020591183 0.026848359 -0.0028124605 0.011956075 -0.01484269
-0.0054803416 0.01468003 -0.016906904 0.011211347 -0.006055275 0.013676557 0.022045521 -0.019847417
0.042177048 -0.008129133 -0.015658485 0.010583041 0.022447452 0.011446289 0.055663716 -0.0058491104
-0.031157507 -0.042383075 -0.033524793 0.0333313 0.06406661 -0.03918476 0.018790321 0.036777463
0.020835942 -0.039402794 0.012084879 0.014071617 0.009948117 0.016537266 0.0020930802 -0.001420203
0.03111598 0.0047568777 -0.010152988 -0.002012321 0.0403632 -0.015593209 0.012793681 0.038333304
0.03152125 -0.020941636 0.02631724 0.008967577 -0.027207399 0.004018841 0.057622686 0.025753103
0.0016177383 -0.024328785 0.009436727 0.008685789 -0.007667326 0.03883407 -0.040350433 0.03701862
0.0356178 -0.011128863 -0.019000059 0.01017186 0.03345965 0.023995323 -0.0060681277 -0.03633214
-0.027479423 0.0068283286 -0.012756792 0.013546647 0.02032154 0.029873861 -0.006469732 -0.035451643
0.028210409 0.012540947 -0.05616067 0.029243441 0.042129904 -0.026239907 0.022998948 0.06949829
0.046012327 0.025873011 0.023353051 -0.0016817916 0.05893026 -5.422528e-05 0.04129374 -0.045906916
0.0010618917 0.014636643 0.029698418 -0.048095092 0.0028465409 0.036384106 -0.015487091 0.014692129
-0.025712771 0.030128412 -0.035906415 -0.014905145 0.016550224 -0.02699102 0.0012146959 0.03899479
-0.029955592 0.03597691 -0.039176155 -0.050239537 0.038697433 -0.003133633 0.013289743 -0.0089738965
-0.009199852 0.03717723 -0.013011923 -0.037800014 -0.007142215 -0.029108135 0.052880213 0.017561516
0.056961797 0.003932565 -0.04047272 0.0238453 -0.040374868 0.0038502873 0.04275974 -0.015117005
0.03650908 -0.034744177 0.00064464175 0.010381235 0.02275932 0.02703459 -0.05355382 0.026784431
0.017370494 -0.03069366 -0.057032134 -0.022483382 -0.031042513 0.011248187 -0.02632153 0.0016535777
0.004429864 0.04006127 0.0038755124 0.07356697 0.041598123 -0.035230152 -0.0086595025 0.024358906
-0.019346705 0.021268163 -0.031386144 -0.027498402 -0.031545755 0.0039453 -0.029723255 -0.010461021

lins.1.weight f4 [256, 256]
00000000: 7bd5 2b3d f48e 5bbb a396 2c3e 3c76 3dbd
00000010: eef3 dabd c4e0 f3bd c4f5 2ebc 4b75 1b3d
00000020: b978 673d cd12 fa3c 43f8 453d 7949 a1bd
00000030: 53fb 4f3c e727 9dbc b7cf 3bbe c09b 5cbd
00000040: fcf1 dcbd cd86 1a3e 62c0 233e 678f 5dbd
00000050: 59d1 5a3c c111 9cbd af12 253e 3532 84bd
00000060: 18ee a3bd d530 263d 42c1 0d3d 8f4c 2c3e
00000070: 7e0a 68bc 24b8 b73d 18da a63d cf1e 2ebd
00000080: 648b 333d 06d0 d83d 706e ccbd 3649 97bd
00000090: 6217 a5bd 78e4 af3c 10bb 68bd c218 1d3d
000000a0: b80a 043e 8f7e 2b3e 964b ad3d 73f1 153d
000000b0: 1832 303e 9bd7 0f3d a11c 1e3c e513 3f3d
000000c0: a91c 5abd 3fca eb3c 72e0 263e 29eb bd3c
000000d0: 4aa5 583b 05e4 61bc 4e07 6cbd 849a 5f3c
000000e0: b3ba b9bd 8471 c2bd 897b 20bd 9b41 e1bd
000000f0: 6ded 653d 9637 a9bd d1b4 493d 4e28 813b
00000100: d033 bd3d 334e 2cbd 49b7 3a3d 503e 8bbd
00000110: 8a0b 4ebd c87b 373e fb8a e9bb a7ef 4e3b
00000120: b9b7 b73d 0e12 2d3d bbe0 213d a203 a73d
00000130: 72da 26bd cfe0 7c3d 0e3a 9dbd cb2a b63d
00000140: 087a 893d edae 2d3e aae7 f1bd 3500 82bc
00000150: c6b7 0fbc fde2 9d3d 27b5 e33c 15a6 b83d
00000160: 1732 eb3d 5614 a93d 3671 8dbd 4694 833d
00000170: be15 8dbd 090d 8ebb 1a46 a3bd 1a58 013d
00000180: ffeb 493d 3ac6 6f3d c593 053e f601 2ebd
00000190: 2850 423d 0c39 95bd 8618 afbd 7c3e f73c
000001a0: 37f4 bcbd 8e7c cfbd 9eb3 68bd 0ea3 f7bd
000001b0: 01e7 853c c182 16bc 7327 51bd 92e4 b6bd
000001c0: 29ad 0abd 5b8d 443e 8002 d9bc 0184 ab3c
000001d0: 600c 3d3c 059c 66bd 398f f8bd ea55 d0bd
000001e0: 62c7 dfbd 1d29 e03d 51f1 ecbd 4511 093b
000001f0: 9c71 6ebc 2455 023e 898e 403e 4dc5 7fbc
00000200: 0708 a1bd 3e19 603d e543 8c3d 4e1f 42bd
00000210: a225 5c3c 113e acbd 44a1 81bd b704 10bc
00000220: 32bc 69bd 80ba aa3d 0f5c bf3c b2b0 c23c
00000230: 7da2 85bc 8d21 003e ea54 1f3e 87cd 4abd
00000240: 0df8 e3bc 1376 0ebd 9215 8d3d 0bcf b53d
00000250: aef7 9f3d 1f64 abbd 682b 443e 7b20 9e3c
00000260: 1d77 acbd 2225 32be 86b7 c63d 801c 0f3c
00000270: cb50 f73d c558 60bc a4cc 21bd 8456 8abb
00000280: 1394 19ba 27da 9c3d 15c9 e5bc faa3 9a3d
00000290: 986e 1d3d 99e6 b83d 52b3 cd3d 639d 78bd
000002a0: 816d 7c3d 9653 8ebc fb24 2e3e 38ed 13bc
000002b0: 1657 05be 3c00 943d 52ed 71bd 7dc5 803c
000002c0: 593c 0f3e 2aab c7bc 3506 4dbc d406 9e3d
000002d0: b666 afbd aba0 213e 9e72 823c 7d9b 803e
000002e0: 14cc a1bd 72f9 093d 5b31 5b3c 2c84 ec3b
000002f0: 00e2 be3d 6d1a 473e 549c f1bd dea1 bfbd
00000300: 98cf a3bd e7f5 61bd 58e8 133e 4500 ccbd
00000310: 996f 13bc f998 1a3c ca4a 293e d9f0 c73d
00000320: d4c9 10bd 8018 96bd 4569 0cbd ca6a b3bb
00000330: 427b 98bb cf69 883c 080c 203c 5083 df3d
00000340: a889 bd3d 6ba9 b1bd 22e0 423d b594 91bd
00000350: cd77 ab3d e59f afbd f89d 9dbd 33b6 003c
00000360: 6bb3 20bd 243b 6fbc cc6c 803d 2cae 2dbd
00000370: cd43 11bc b180 103d eb0a 6bbd de22 8dbd
00000380: ecf0 18bd a4ed b43b dff2 c8bd 28aa 96bd
00000390: 5037 1cbd bb97 18bd 93c6 263d af46 1e3d
000003a0: 2e23 6fbd 6ba8 cebd d2ce 7e3d 9ab3 8bbd
000003b0: cc70 4d3d d513 1bbd 5ec4 f3bc 193a e4bc
000003c0: 39f1 17bd 3025 3bbd fe84 dfbd 79bd cbbd
000003d0: ef2b fd3d e52f 603d 95ba 9e3d cfae debd
000003e0: 6843 b43d 7525 c6bd 5bb8 f0bd abbc d93c
000003f0: 99d0 e63d 2a6a 293e 8f56 7cbd 8d8c 2abd
0.041951638 -0.0033501955 0.16854338 -0.046255335 -0.10691057 -0.11908105 -0.010678712 0.037953656
0.056511614 0.030526543 0.048332464 -0.07875342 0.012694198 -0.019184066 -0.18340956 -0.053859472
-0.10788342 0.15090485 0.15991357 -0.054091837 0.013355576 -0.07620574 0.16120408 -0.06454889
-0.08004397 0.040573914 0.034608133 0.1682608 -0.014162658 0.08970669 0.08147067 -0.04250985
0.043834105 0.10586552 -0.09982002 -0.07387011 -0.080611005 0.021471247 -0.05681902 0.03835369
0.12894714 0.16747497 0.084616825 0.036607217 0.17206609 0.035117727 0.00965038 0.046649832
-0.05324999 0.028782962 0.16296557 0.023183422 0.0033057504 -0.013787274 -0.057624154 0.013647679
-0.09068813 -0.09494308 -0.039180312 -0.109988414 0.05613463 -0.08262555 0.049244706 0.0039415723
0.09238398 -0.042066764 0.04558495 -0.067989945 -0.050303973 0.17918313 -0.0071271635 0.003157595
0.08970589 0.042253546 0.03952096 0.0815499 -0.04073567 0.06173783 -0.07677089 0.08894881
0.06712729 0.1696126 -0.118117645 -0.01586924 -0.008771842 0.0770931 0.027796341 0.09016053
0.11484163 0.08255832 -0.06906359 0.06424765 -0.068889126 -0.00433505 -0.07972355 0.03157816
0.04929733 0.058538653 0.13044651 -0.04248234 0.047439724 -0.072862715 -0.08549599 0.030181162
-0.09226268 -0.10131179 -0.05681192 -0.12091647 0.016345503 -0.009186448 -0.051063012 -0.08930315
-0.033856545 0.19194548 -0.02649045 0.020936968 0.011538595 -0.056301136 -0.121366926 -0.10172637
-0.10926701 0.10945342 -0.11569465 0.0020914834 -0.014553454 0.12727791 0.18804373 -0.015611005
-0.07862859 0.054711573 0.06848887 -0.047393136 0.013436707 -0.08410276 -0.06329587 -0.008790187
-0.057064243 0.08336353 0.023359327 0.023765896 -0.016312832 0.12512799 0.15559736 -0.049512412
-0.02782824 -0.034780573 0.0688888 0.08877381 0.07810913 -0.08368706 0.19157183 0.019302597
-0.084211566 -0.17396978 0.09702973 0.008734822 0.12075957 -0.013693039 -0.0395018 -0.0042217392
-0.00058585516 0.07658797 -0.028049985 0.07550807 0.03843555 0.09028358 0.10043968 -0.06069697
0.06162787 -0.017373841 0.17006294 -0.009028725 -0.13021502 0.07226607 -0.059064217 0.01571917
0.13987865 -0.02437361 -0.012513687 0.07716146 -0.085645124 0.15783946 0.015923794 0.25118628
-0.07900253 0.033685155 0.0133784665 0.0072179046 0.0932045 0.19443674 -0.11797395 -0.093570456
-0.0799858 -0.05516615 0.14444101 -0.09960989 -0.008998775 0.009435886 0.16532436 0.09762735
-0.03534873 -0.07328892 -0.03428008 -0.0054753767 -0.0046533654 0.016652016 0.0097684935 0.10913718
0.092547715 -0.08674892 0.04757703 -0.07108442 0.083724596 -0.08575419 -0.07696146 0.00785594
-0.039233606 -0.014601503 0.06270751 -0.04240243 -0.008866263 0.03527898 -0.05738346 -0.06891416
-0.037339136 0.005521493 -0.09811949 -0.073566735 -0.038138688 -0.037254076 0.04071672 0.038641628
-0.05838316 -0.10090717 0.062208958 -0.06821366 0.0501564 -0.03786071 -0.029756721 -0.027859734
-0.037095282 -0.04568976 -0.10914038 -0.099482484 0.12361895 0.054733176 0.077504314 -0.10873186
0.08801919 -0.09675113 -0.11753913 0.026579222 0.112702556 0.16544405 -0.061605986 -0.041637946

lins.1.bias f4 [256]
00000000: 006e 0f3c cddb 7dbd 7c8d 0bbd 7102 b1bd
00000010: a3cf 833c 3104 82bd 7de8 0dbd b8e1 d2bd
00000020: d007 8a3d 29fb cc3c bca9 a6bd f8c3 213c
00000030: 05d6 babc 1b9b 92bc 2327 943d 6520 98bd
00000040: 2d44 e6bc 0913 69bd 4da5 51bd 4923 5e3c
00000050: ae41 1dbd ffc4 2d3d 59fa 82bd 4243 e53c
00000060: 618a 81bc 6562 4f3b 6fd4 b0bd 71d1 71bd
00000070: 3903 973d dbac 01bd 23fb ab3d f4c7 4abd
00000080: 2dd4 f5bc c47e babd fdca d53c 58fe 7bbd
00000090: 13b7 293d 4c56 d43d 263d f0bb 45dd e2ba
000000a0: ce01 903d 7413 6c3d d49c bbbc 0a47 c83c
000000b0: 5417 863d 7077 62bd d235 433d 308e 16bd
000000c0: 48d6 adbb 6ca2 a4bc 6de6 6dbc 1f79 8f3c
000000d0: 337d 2f3d fe47 34bc 3f55 a5bd 4e44 263c
000000e0: ed14 b9bb 000b 8f3d 9f86 773d 7651 13bd
000000f0: 916c 383d 8233 a3bd 87a9 88bd d023 50bd
00000100: 7a7c 443d 21e1 68bd a5ad 2fbd 9ed4 7cbd
00000110: 2a48 cebc cddc 2dbd 3def 9a3d 0ea2 8b3d
00000120: adf6 803d 710c 7f3d 5ce4 2abd 52c3 833d
00000130: 84a4 9ebb d456 b9bd f794 41bd 3a46 43bd
00000140: 970d b5bb e817 babb 7ae3 57bd 49d4 ff3c
00000150: 3a25 9c3d 1ee3 7f3d 4eed 23bd 49de 0ebd
00000160: 419f 3a3d d2d6 0b3e dbf0 f63b 148e 9ebb
00000170: c150 19bd da4d 933d 68c5 253e 4f9e 3f3d
00000180: b3f6 30bd 5673 e6b9 4b69 10bd 4316 013e
00000190: 002b 8dbd 82f7 abbd 2a27 443d c5d1 b0bd
000001a0: 73e8 493d c5d5 183d 52c5 003d df75 943d
000001b0: 8432 8ebc fbd2 9c3d f592 d1bc 60fe 193d
000001c0: 9c2f f7bc ae2d 333d 5ca7 673c 9608 723d
000001d0: e23b 793d d7a4 52bd cf62 68bd 8220 09bd
000001e0: 80c4 b03d 31b6 0a3c 8f6c 523d 132b d0bc
000001f0: 1fdb d33c bc12 57bd a0d2 65bd 1222 b53d
00000200: 9c32 38bd da4b 853d 111d 163d 4c3f 92bc
00000210: f9b0 00bd 646d 34bd e3d6 f33c 50e8 2a3d
00000220: ef63 553d 306f 3fbb 800a 883c b684 c83d
00000230: d4c5 443d 52cd 59bd ca03 f2bc 5307 abbd
00000240: 54fb 0cbe e07d b9bc 2620 983c d0ae 933d
00000250: bfa0 85bc 592a 5ebd c237 99bd 4fdf d9bc
00000260: b919 10bc c9fc 86bd 6e91 ab3c 597a bc3c
00000270: 975a bdbb fb34 5ebd 8f32 13bd 1697 2c3c
00000280: e213 e33d 0db5 c33c a72d 10bd a483 56bd
00000290: 98c9 923c 347d 86bb 95fa b43c aabe 76bc
000002a0: c6ae 91bd 48ec 893d 7c13 243d 8405 963d
000002b0: bb3c a0bd 69f4 92bd b91f f53c ccd2 963d
000002c0: 859c ce3d 30bd 3c3d ec14 0cbd 9195 673d
000002d0: a476 bebc ee9b babc c391 7f3c 0ab9 703c
000002e0: 5800 853d da8e 6cbd b41c ccbd 3215 98bd
000002f0: 897b f93d feae 18bc 5e21 203d c476 fdbc
00000300: 4df2 d3bb e3ce 923d cfe1 88bc d082 7d3d
00000310: 6dfd edbc 91c9 c2bc e0d2 693d 522c 07bd
00000320: 41a0 5f3d 4a79 793d 7fb0 b13b 2db3 2b3d
00000330: 8ed4 2cbd a74b 6d3d 1b40 7d3d 6cbb 343d
00000340: f92d 10bd 07e9 8dbd e68a 0fbd d3c6 8fbd
00000350: f23a f0bc 44f4 a4bd b8d8 38bd 306c a7bd
00000360: bbdf 5e3d 28b2 183d 57cf 10bd bd9b b1bd
00000370: ad94 c13c e9af 393d e6b2 90bc d58b b4bd
00000380: e6dd 5abd 0a64 fbbc c9cb c23c eccb 213e
00000390: 07ff 4bbd b40e 96bd c280 a4bd d968 263c
000003a0: ccde cb3d 5278 68bd 2493 273b 01d5 8dbd
000003b0: 31af 01be 1d28 87bd acb7 3a3d be3b 883d
000003c0: 3a5b 8abd 317b 373d 266f 9dbd 3806 d9bd
000003d0: ad6b 3bbd d401 0a3d b0d7 363d 3f0e 1bbd
000003e0: 68d1 a63d 8795 1ebd 5e45 563d 98a9 eb3c
000003f0: 4b8e 19bc 9734 9ebd 71ee 3b3d c075 cc3d
0.008754253 -0.061977196 -0.034070477 -0.08643044 0.01609022 -0.06348456 -0.034645546 -0.10296959
0.06739771 0.025022106 -0.08137843 0.009873383 -0.02280713 -0.017896226 0.07234027 -0.07428054
-0.02810868 -0.05690292 -0.051183034 0.013558217 -0.038392715 0.0424242 -0.06395406 0.027986173
-0.015813055 0.003164434 -0.086342685 -0.05903763 0.073736615 -0.03165899 0.0839751 -0.049507096
-0.0300084 -0.0910621 0.026097769 -0.061521858 0.04143436 0.10368022 -0.007331508 -0.0017308375
0.07031594 0.05763574 -0.02290193 0.024447937 0.06547418 -0.055289686 0.04765875 -0.036756694
-0.0053050853 -0.02009698 -0.01452027 0.01751381 0.04284401 -0.011003492 -0.080729 0.010148121
-0.0056482465 0.0698452 0.06043112 -0.03596636 0.045025412 -0.07968809 -0.0667296 -0.050815403
0.047970273 -0.056855325 -0.04289021 -0.061726205 -0.025180895 -0.0424469 0.07565162 0.06818019
0.0629705 0.062267724 -0.041721687 0.06433739 -0.004841389 -0.09049764 -0.047261205 -0.047674395
-0.0055253017 -0.0056791194 -0.052707173 0.031229155 0.07624288 0.062472455 -0.040021233 -0.034879956
0.045562033 0.13656166 0.0075360364 -0.0048387144 -0.03743053 0.071925834 0.16188586 0.046781834
-0.04320402 -0.0004395495 -0.035256665 0.12606148 -0.06892967 -0.08396818 0.047888912 -0.0863376
0.049293946 0.03731324 0.03143818 0.072490446 -0.017358072 0.07657429 -0.02558277 0.037596107
-0.03017407 0.043744735 0.014139023 0.05909022 0.060848124 -0.051426735 -0.056734856 -0.033478267
0.086312294 0.008466289 0.05137306 -0.025411164 0.025861321 -0.0525081 -0.05610907 0.08844389
-0.04497014 0.06508608 0.036648814 -0.017852448 -0.031418774 -0.044049636 0.029765552 0.041725457
0.052097257 -0.002921056 0.01660657 0.097909376 0.048040226 -0.053174324 -0.029542822 -0.08351006
-0.13767749 -0.02264303 0.018570017 0.07211077 -0.016312001 -0.054239605 -0.07481338 -0.02659574
-0.008795195 -0.06591184 0.02094337 0.023007559 -0.0057786214 -0.054249745 -0.03593689 0.010534069
0.11087777 0.023890043 -0.035199787 -0.052371636 0.017918393 -0.004104281 0.022092143 -0.015060106
-0.071134135 0.0673452 0.040057644 0.07325271 -0.078240834 -0.07175524 0.029922353 0.07364425
0.100884475 0.04607886 -0.03419964 0.056539122 -0.023249932 -0.022779431 0.015598717 0.014692554
0.06494206 -0.05775342 -0.09966412 -0.07425918 0.121817656 -0.009319065 0.03909432 -0.03094042
-0.0064680935 0.07168367 -0.016709236 0.06189233 -0.029051507 -0.023777755 0.05708587 -0.03300125
0.05459619 0.060906686 0.0054226513 0.041918922 -0.042194895 0.057933476 0.061828714 0.044124052
-0.035200093 -0.06929212 -0.035044573 -0.070203446 -0.029324982 -0.080544025 -0.045128554 -0.08174932
0.054412585 0.037279278 -0.035353985 -0.08672283 0.023630464 0.045333777 -0.01766343 -0.08815733
-0.053434275 -0.03068735 0.023778813 0.15800446 -0.04980376 -0.07327023 -0.08032371 0.010156834
0.099546045 -0.05675537 0.002556988 -0.06925393 -0.12664486 -0.06599448 0.04558532 0.0665202
-0.06755681 0.04479522 -0.076872155 -0.10596889 -0.045756985 0.03369315 0.04463929 -0.037855383
0.0814541 -0.03871682 0.052312247 0.028767392 -0.009372304 -0.077248745 0.045881692 0.099833965
