CF/Cora_CF/MLP_predictor.pt (torch, 266408 bytes, 3 tensors)

lins.0.weight f4 [256, 256]
00000000: 9825 383d 1fcf 443d 540f 0e3d 276c 403c
00000010: 630c 5e3c b5ad 8b3d 4900 1c3d ad95 c83d
00000020: e9bc f63c fe4f f2bc 9c2d 813c faf5 ddbc
00000030: f50f a73d 8656 923d 9bb5 b03d cdc9 103e
00000040: 329f bf3b a426 583d dc5a a03d 3e6c e93d
00000050: 38ec 143d ae88 b6bb b3b8 243d 0dba d23d
00000060: 3b43 ac3d 70de fe3c 0f4c 86bd 6ec9 b53d
00000070: f70a ee3d 1c28 943d 1854 ce3c af8b 48bc
00000080: 7cf4 753d c3f2 cf3c da02 813d 7e7b 043e
00000090: 95a2 07bb c5ff 113d 9761 e43c c52b a13d
000000a0: 1141 883c f552 ab3c 2afb 65bc e7be 063d
000000b0: 9bab 813d c2df b53d 4001 203d d1ec 373e
000000c0: 8284 483d eaaf ad3c 9617 93bc 2e58 563d
000000d0: 5887 433c 8174 62bb 8da2 413d 2290 26bd
000000e0: 538a 21bd 1239 ca3d 4acb 093c d479 633b
000000f0: 59b7 80bd 1995 31ba 5ef8 b83d 518e c33d
00000100: 0168 bb3d 3101 743c 8bbc 2a3e 5c93 d9bc
00000110: ce25 8b3d f959 033d 4ef1 b23d c668 b93d
00000120: d4c5 10bd a072 393d 8469 f13c dc4b ae3e
00000130: 94cb a63c 474f b93d 8cfa df3d 582b 173d
00000140: 186e 6d3d 2487 c3bc d1ab c33a 61c4 c93d
00000150: 9bf9 773d 059f 4b3a 258a 9cbc c91f db3d
00000160: 84ec 92bd 8545 4a3e 00cc 833d 397e 46bc
00000170: 20c7 c53d effa 5e3d 84dd 8a3e e62d a83d
00000180: bdeb 953d db3d 893d 306f 613d 74d5 703d
00000190: e0e3 9b3c 8f28 c13d e8ad 123c ba78 1a3e
000001a0: b853 bb3c 1f80 36bd 0acc 363d 83eb d4bc
000001b0: c793 303e 28cc 8cbd bc41 ecbb 7776 693e
000001c0: 26be 3dbd bd05 ed3d 69ea 8cbc 508d 1f3d
000001d0: b1e1 8f3d dd18 2a3d 76d5 483e 2546 913d
000001e0: 1288 473d 9d41 183d b48a 0b3d 7538 003d
000001f0: ef24 34bc de87 62bd 8191 3b3d a1e3 9d3d
00000200: 63d6 a63d 507f b03d 3c12 b03d 35ea 313e
00000210: e5cb 983d 23ca 423d 6718 3dbc 8b14 8f3c
00000220: fc38 b93d 1c51 503e d0a7 bb3c d578 363e
00000230: d4e1 2b3e d351 263e 7a6e 47bd 68e7 243e
00000240: f298 323d 4773 e3bd 5a3f 723e 3072 cc3c
00000250: db55 983d 9890 ef3d 89a4 eb3d def3 caba
00000260: 4cac 4d3c a112 353e 874e e23b 97c2 31bc
00000270: f7d3 bc3b 1e2c c73b beda 7e3c 528a 213d
00000280: 24fc 063e 2dc9 bf3d 20c6 f23d 002b 523e
00000290: ded0 d93d 9187 a33e d89f 3cbd 5828 1d3d
000002a0: 00de 62bd 3dd6 d23d 3aee 1b3b 62d3 dbbc
000002b0: 6bbd 833d 298e c73d 3f13 063e d886 273e
000002c0: f1c2 1d3e 89f0 6b3e ddb9 d83d 9a36 45bc
000002d0: f8b1 583e 62c2 b73c ce70 ae3d ba1e 733c
000002e0: 7b73 7a3b c6a5 223b 59d2 d23d cd07 aebb
000002f0: 1a87 603e 16de cf3c 9175 7a3d aff9 ae3d
00000300: 37fa 9f3d 96cb a03b 9cbe 033d 0a16 013e
00000310: 7512 373e 73fd c3bc b334 2cbc f433 ee3d
00000320: 1eda a73d d87d 87bd 45f7 08b8 beb7 903d
00000330: 5b3b e33d 2d3c 4bbc ff8e 243d d4b3 a33d
00000340: 326f 953d fb42 af3c fbcf 8a3d e8a5 c23d
00000350: 91b5 8f3c 2f82 c63d 1730 8e3d 6223 02bd
00000360: fea8 343d 03c0 303d 952e 32ba 987a ae3d
00000370: b93b 0d3e bda5 103d 5473 ca3d 5894 103e
00000380: 6488 c33d 980d 683d 1c68 cb3d 1cae 313c
00000390: fcda 41bc 754d e53d 1eb9 323a 0efe 39bc
000003a0: 7c5f 8b3d d9f7 803d 3711 84bc 27ea 683d
000003b0: 8403 7c3e 9066 91bd 4fd1 3cbd 512a 2f3e
000003c0: fcfd 00bc 0ed0 c73c f07e ff3d 1d4e 2b3e
000003d0: 22ed 1b3c 5bf8 193e f7a8 febc 3e59 ee3c
000003e0: 30af 4e3d 5615 053e 223e 6b3d dbc4 cb3d
000003f0: 2c46 3c3d 9206 7f3d 8a57 69bd a753 153d
0.044957727 0.04804909 0.034682587 0.0117445355 0.013552758 0.06820241 0.03808621 0.097941734
0.030119376 -0.029579159 0.015768819 -0.02709483 0.081573404 0.07145409 0.086283885 0.14139481
0.005847835 0.052771226 0.0782983 0.11397599 0.03635809 -0.0055704927 0.040215205 0.102893926
0.08411261 0.031111926 -0.06557476 0.0887631 0.11623185 0.07234213 0.025186583 -0.012240334
0.06004761 0.025384312 0.06299372 0.12937734 -0.0020696272 0.03564431 0.027878566 0.078696765
0.016632589 0.02091358 -0.014036933 0.032896902 0.06331559 0.08880569 0.039063692 0.17961432
0.048954494 0.021202046 -0.017955583 0.05233019 0.011934124 -0.0034554305 0.04727416 -0.0406648
-0.039438557 0.098741665 0.008410284 0.0034710066 -0.06284971 -0.00067742314 0.09031747 0.09548629
0.091506965 0.014892862 0.16673486 -0.026559524 0.0679432 0.032068226 0.087374315 0.09053187
-0.035344914 0.04527533 0.02946926 0.3404225 0.020360745 0.09048324 0.1093646 0.03690657
0.05796632 -0.023868151 0.0014928525 0.098519094 0.060540777 0.0007767531 -0.019108841 0.10699422
-0.07174018 0.19753082 0.06435394 -0.012115055 0.09657121 0.054438528 0.27122128 0.082118794
0.07320354 0.06701251 0.055037677 0.058797315 0.019029558 0.09431564 0.008952595 0.15085116
0.022867069 -0.04455578 0.04462818 -0.025991207 0.17243873 -0.06874877 -0.0072099846 0.22799097
-0.046323918 0.1157336 -0.01720162 0.038953125 0.07025469 0.041527618 0.19612679 0.07093457
0.04871375 0.03717195 0.034067824 0.03130384 -0.010995134 -0.055305354 0.04579306 0.077094324
0.0814636 0.08618033 0.08597228 0.17374499 0.07460765 0.047556054 -0.0115414625 0.01746585
0.09044072 0.20343441 0.022907168 0.17819531 0.16785365 0.16242151 -0.048689343 0.161039
0.04360289 -0.11105972 0.23656979 0.024956793 0.07438251 0.11697501 0.11505992 -0.0015484055
0.012553286 0.17682888 0.006906334 -0.0108496165 0.005762573 0.006078257 0.015555082 0.039438553
0.13182122 0.09364543 0.118541956 0.20524216 0.106355414 0.31939366 -0.046050876 0.038368553
-0.055387497 0.10294769 0.0023793117 -0.026834194 0.06432613 0.09743912 0.1309328 0.16360033
0.15406395 0.23040976 0.105823256 -0.012036944 0.2116164 0.022431556 0.085176095 0.014838869
0.0038215804 0.0024818047 0.10294027 -0.0053109885 0.21926537 0.025374454 0.061147276 0.08543717
0.078113966 0.004907082 0.0321642 0.12606063 0.17878135 -0.023924565 -0.010510611 0.11631003
0.081958994 -0.066158 -3.2655214e-05 0.07066296 0.110953055 -0.012404484 0.040175434 0.07993284
0.072965994 0.021394243 0.067779504 0.095043 0.017542632 0.09692799 0.06942766 -0.031772025
0.044106476 0.043151867 -0.00067971024 0.08519477 0.13792314 0.03531431 0.09885278 0.14119089
0.09547499 0.05665359 0.09931967 0.010844734 -0.011831995 0.111964144 0.0006817746 -0.011352075
0.068053216 0.06297273 -0.01612149 0.05686393 0.24610716 -0.0709964 -0.04609805 0.17105986
-0.007873055 0.0243912 0.12475383 0.16729017 0.009516986 0.15036146 -0.031086428 0.029095288
0.05046004 0.1299642 0.0574323 0.099496566 0.04596536 0.062262125 -0.05696825 0.03645673

lins.0.bias f4 [256]
00000000: 5d25 1d3e abc1 873c 9f9d cdbd d540 d4bd
00000010: 84dd 37bd 6c80 393e 7ad5 5c3e ea23 84bd
00000020: fff0 4abd 81cb 283e 97a3 edbc d135 9d3d
00000030: c436 5abd 101d 223e a563 81bd 28af 3c3e
00000040: 8bfb 443e 6919 343c 2fdf cfbd a5dd 873e
00000050: 7e6b 5d3e c8b2 11be 3d15 db3b 32df 8a3d
00000060: 58a5 633e 0afa d2bd f268 623e 2ff8 d7bb
00000070: 7817 3dba b2f6 733e ebeb 77bd e0c1 403e
00000080: ad8a 8bbd f9a0 babc 81cf 29be 9098 5abd
00000090: cdd3 febd d363 cb3c a4dc 64bb 056e 243d
000000a0: 6f3a 86bc 90a7 1f3e 87d6 7e3d d232 083c
000000b0: 017e fe3d 50d8 83bd 974f 553e 1bfc 1e3d
000000c0: 5513 59bd 8d58 09be 8fe1 7abd 737d 783d
000000d0: 8fbc 8bbc f82e 113e e574 04be 2f5e 8c3d
000000e0: 9fcd 273e b84e 353e d387 3c3d a304 41be
000000f0: 3f22 863d 0d20 c8bd 8836 9f3d bd31 55be
00000100: 22ff 693e 0c88 40bd 9ee2 373e a54f 813d
00000110: 4be1 243e b5cf 0ebc 8b4a 333e 29d9 2cbe
00000120: eff0 70bd c998 993d fbcd 1dbe 6b6d 7bbd
00000130: 8362 483e afd6 4ebd bf77 b7bc c9e5 763d
00000140: 2f5c 8d3d c5aa 273e eee3 16bd dfa8 6b3e
00000150: 4096 b93c 298c dbbc f32f 18bd 46fd 5eb9
00000160: 4281 453e 3511 a7bd c7fc 6bbd d487 5b3e
00000170: 87b3 e0bc 8b8b 693e 7969 6dbd 4969 483d
00000180: 08df 4d3d 91be b0bd c4cc 65bd ed66 f53c
00000190: 08c1 363e 3942 773e 0bb1 283e 5bdd 733d
000001a0: 89ea 683e 0c5f 7ebc ceb0 4e3e 08d2 90bd
000001b0: 2c78 83bc 3b3c 403e d924 63bd bdae 4e3e
000001c0: a3cd 583e c8ca ab3d f375 393e 03a3 093d
000001d0: 6cab 4f3e 7f29 743e 817b 503e 5527 833d
000001e0: e8fc 963d 4a86 783d a6e7 f63c 409a ba3c
000001f0: 9ace 5fbd 9b7f 44bd 50b8 a3bd d328 643e
00000200: a93c 983d f9e3 a23b fd2e 0ebc 4c73 ccbc
00000210: ee2f 423e 8fc0 81bc 98b4 04bc d12d 21bd
00000220: 17e7 493c 63cf 773e 1f4f 54be cbdf 493e
00000230: 4c69 9ebd d88c 73bb 8a97 353e d84c 1c3e
00000240: a165 093e 6182 5f3e 8c10 313e 1edb 5f3e
00000250: 4c01 b53d e946 873d bfea 763e da7c 66bd
00000260: 6dd9 2abd f5a4 243e 2880 59bd 4871 dfbc
00000270: 23bb 333e 0e58 353e 18ec 6ebd 91bc 053e
00000280: 34cd 153d daee 3ebe 1e08 963b 6998 453e
00000290: 8bb8 243e 930d 00be fba8 2d3d 3e06 5dbd
000002a0: c21c a43d e455 87bd 9ded 623e 8588 4f3e
000002b0: 60ee 723e 2002 423e 6ebf 6ebd e24e 5b3e
000002c0: a0f4 563d 71eb 423e ff92 29bd ff28 4f3d
000002d0: ce78 0cbe 7014 ccbc 17a3 4e3d 4653 973d
000002e0: 962c 523d 6993 4f3e 399a 573e 8d50 85bd
000002f0: dd7c eb3c 6bc9 1bbe 9912 543e 289e 46bc
00000300: 2f9e dc3c 738f 23be 0bbf d0bc cd7e 4e3e
00000310: 76a8 25be ec7f 05bd 60c1 6b3d 23b2 febd
00000320: 901e 763e b1c5 9f3d fbd8 593d 3a2b 37bd
00000330: 8b6f 1a3e b91e 173d 36d8 9a3d 4e45 55bd
00000340: 861a a13c 890d 6ebc 192b 263d 1c80 05bd
00000350: f72c 46bd ab75 8fbd ceac a9bc a13d 733e
00000360: 91d7 b8bd d57d 90bd 00bc 7dbd 9129 4e3e
00000370: c585 aa3d 7afb 0ebd 6da6 313e fa05 3abe
00000380: 3a53 71bd 42c6 70bd 6643 673e ca7a 7dbd
00000390: 4c53 10bd 46a5 6dbd 9e6e 5f3e dd5c 18be
000003a0: 9e3c 5d3e a753 8bbd dcc9 693e 85ad 4ebc
000003b0: 96e4 8a3d 756e d0bc 31d9 ea3d 6972 ab3d
000003c0: 7c24 153d 1947 f8bc f7ff 393e 6dcd 5ebd
000003d0: cc46 ab3d 6bc8 f5bc c952 9b3d 4f58 1abe
000003e0: 8380 223d 363a 823d 7497 bebd 465a 9f3c
000003f0: 3aad 483e 31fe dfba b10c 7bbd 0af8 9ebc
0.15346284 0.01657184 -0.100398295 -0.10363928 -0.044888988 0.18115395 0.2156581 -0.064521626
-0.049546238 0.1648388 -0.02900867 0.0767628 -0.053274885 0.15831399 -0.06317834 0.18426192
0.19236581 0.010992386 -0.10149991 0.2653629 0.21623036 -0.14228356 0.0066858814 0.067808524
0.22231042 -0.103015974 0.22110346 -0.006590865 -0.0007213275 0.23824576 -0.060527723 0.18823957
-0.0681356 -0.022781836 -0.16583063 -0.05336815 -0.124427415 0.024827873 -0.003492155 0.040143985
-0.016385285 0.15591264 0.062216308 0.008312898 0.12426377 -0.06437743 0.20831142 0.038814645
-0.052996952 -0.13412686 -0.061250266 0.060666513 -0.017057685 0.14178073 -0.12935217 0.068539016
0.16387032 0.1770581 0.04602797 -0.18849425 0.06549501 -0.09771738 0.07774073 -0.20819755
0.22851232 -0.047004744 0.17957541 0.06314019 0.16101567 -0.008716513 0.17508905 -0.16879715
-0.058823522 0.074998446 -0.15410607 -0.061383646 0.19568829 -0.050497707 -0.022395967 0.060277734
0.06902348 0.16373737 -0.036838464 0.23013638 0.022654653 -0.026800232 -0.037155103 -0.00021265922
0.19287589 -0.08157579 -0.057614114 0.21438533 -0.027429355 0.22807138 -0.057961915 0.048928533
0.050261527 -0.08630098 -0.056103483 0.029956305 0.17847073 0.24146356 0.16473787 0.059537273
0.22745718 -0.015525591 0.20184633 -0.0707131 -0.016048513 0.18772976 -0.055455063 0.20183845
0.21172194 0.08388287 0.181114 0.033602726 0.20280236 0.23843955 0.20359613 0.06403986
0.07372457 0.060674943 0.030139755 0.02277863 -0.05464039 -0.047973257 -0.07994139 0.22281198
0.07433445 0.004971024 -0.008678195 -0.024957322 0.18963596 -0.01583889 -0.0080996975 -0.039350335
0.0123231625 0.24200206 -0.20733307 0.19714276 -0.077349275 -0.0037162807 0.17733589 0.15263689
0.13417675 0.2182708 0.17291468 0.2186093 0.08838138 0.06605322 0.24112986 -0.05627141
-0.04171126 0.16078551 -0.053100735 -0.027275696 0.17551856 0.17709371 -0.058330625 0.13060214
0.03657265 -0.18645802 0.0045786044 0.19296421 0.16086023 -0.12505178 0.04239748 -0.05396103
0.080132976 -0.06608179 0.22160955 0.20266922 0.23723745 0.18946123 -0.05828803 0.2141681
0.052479386 0.19035126 -0.041399952 0.050576206 -0.13717958 -0.02491209 0.050448503 0.0738893
0.05131205 0.20271076 0.21054925 -0.065095045 0.028746063 -0.15213554 0.2071022 -0.012122668
0.026930897 -0.1597269 -0.025481721 0.20165558 -0.16177544 -0.0325927 0.057557464 -0.12436321
0.24035096 0.078013785 0.053185444 -0.04471896 0.15081613 0.036894534 0.0756077 -0.052068047
0.019665968 -0.014529594 0.040568445 -0.032592878 -0.048382726 -0.07004865 -0.020712283 0.23753978
-0.09025491 -0.070552506 -0.06194687 0.20133044 0.08326296 -0.034907795 0.17348643 -0.18166342
-0.05891726 -0.058782823 0.22584304 -0.06188468 -0.035235688 -0.058018945 0.21819541 -0.14879175
0.21605155 -0.06803065 0.2283091 -0.0126146125 0.067818806 -0.025443295 0.11467207 0.083714314
0.036411747 -0.03030734 0.18164049 -0.054395128 0.08363113 -0.030002793 0.075841494 -0.1507275
0.03967334 0.06358759 -0.09306231 0.019452225 0.1959733 -0.0017089305 -0.0612914 -0.019405384

lins.1.weight f4 [1, 256]
00000000: f477 223e 0725 ecbe e47f abbe 84c3 cbbe
00000010: f0c3 03bc 6cd7 233e 3bfb 443e 4876 a23c
00000020: f4dc 483c 8da0 133e 74d6 2a3d afb4 33bf
00000030: c11e 9c3c 1323 003e f2da d0bb d40d f63d
00000040: 6fbd 073e 2c9e f1be f64b 7ebe d6ee 3e3e
00000050: 113a 333e 204a 61be a393 fabe b557 fbbe
00000060: c523 213e 930b dcbe 4fc3 ea3d dba4 c3be
00000070: 6508 39bf e4df db3d c4ee e03c bdeb 143e
00000080: 18d2 66bb fe13 01bf 8cc4 44be a0c5 bbbb
00000090: ea4c abbe 775b a8be c064 b9be 50dc cebe
000000a0: cb0a 64be 525d c03d 6aca 1abf f18c b6be
000000b0: 1e9c e73d df5e 253d 20c3 c63d e5a2 afbe
000000c0: 2401 d6bc cb96 86be c0f1 7e3b bbae f7be
000000d0: 2c6c a0bc 7618 e13d eeba 92be 795d 02bf
000000e0: bd34 083e 9d8c 0f3e ddac cfbe e547 90be
000000f0: 6bae dfbe c414 babe 107d 2bbf a6bb 4bbe
00000100: 4913 3d3e ee73 9dbe 831e f73d cafd 3fbf
00000110: d2ba 1f3e 0f29 50bf b98d 2c3e 6970 77be
00000120: 2ab6 033d 98fc d0be ece8 1fbe b9ad a5be
00000130: 1d4e 0b3e 46af 65be b79f 283d 5a36 ddbe
00000140: 431e e0be de79 c03d f60a 803b 6a01 073e
00000150: 2543 b4be e0d6 e33c 9c95 323d 2dc6 95be
00000160: 87d0 243e c785 6ebe 4d9e a2bb def3 e43d
00000170: 15c8 523c 134d dc3d 1784 22bb 65b4 b1be
00000180: c238 d3be e07c 43be 98e2 debb b080 c2be
00000190: 633f d23d bf6d 3e3e 2633 063e 0d23 d9be
000001a0: 7e2f 003e d4d1 dabe 8571 eb3d a999 c63a
000001b0: 9862 99be eff4 d63d 8e8e c3be 31e4 ec3d
000001c0: 3be7 263e 7923 2ebf 9069 013e 69f8 aebe
000001d0: dfc2 113e 4b8f 1c3e 2c8d 163e 86ca 05bf
000001e0: 73e2 0ebf 6cb5 d3be 5cf4 bbbe ec17 11bf
000001f0: c0c8 27bd aefe 593d 6277 97be f094 103e
00000200: 5e19 fcbe 8a7f 56bf ce94 c1be ed3b 3fbf
00000210: 2e24 f33d 8be8 17bc 60fc f5be 32bc b5bc
00000220: 18f3 82be d7b4 433e 0465 57be 2b2c f63d
00000230: 2fac 823c 9fa7 ffbe 7c4e f83d e6a8 cf3d
00000240: 535d be3d 882d 193e 49e6 e63d 0d18 2c3e
00000250: ce1c 1ebf 1aeb c8be a25a 0b3e 041a 303d
00000260: 2ae4 acbb 8c45 003e 431b e93c a4ca 07bf
00000270: e368 bb3d bd23 163e 45cd 1a3d 0963 f53d
00000280: e8ce d2be 6c22 90be ce5d 1abf bda6 163e
00000290: 547e 133e c107 9abe 6e60 dcbe d0da ab3b
000002a0: 92a7 3bbf 5c29 533d 246e e93d af71 f23d
000002b0: 1727 273e b29c fa3d 7c41 243d 6578 de3d
000002c0: 296d d9be 9f9f eb3d 162f 4bbe 1b25 c5be
000002d0: d3cc 3fbe ed09 b1be a274 a2be c8be 2ebf
000002e0: 19b1 e2be cdc0 123e 137c db3d e587 55bb
000002f0: 75c8 c2be 1305 68be b8bf 0b3e 7001 14bd
00000300: 493e abbe 3aa5 86be 6f66 373a db2c 343e
00000310: a3d1 96be 40db 0a3b 7daa 08bf 5931 4ebe
00000320: 886e 163e 9f23 33bf b116 20bf 406f 13bc
00000330: e062 253e 63de e7be d1e2 14bf 1956 febe
00000340: 075a 41bf 5c7b b0be bcf5 0dbf 24a0 f5be
00000350: 6386 2ebd e13d 963b 3b2d ac3c c984 173e
00000360: 530a 51be 8e07 eb3c ef3d b6bc cf01 e93d
00000370: c981 21bf 87cf d5be e291 0b3e ee85 75be
00000380: 7b0d 253c c00b 833a 4652 0e3e 1332 103d
00000390: a37c 1c3d bcad f8be 8916 ea3d 3bf0 48be
000003a0: 79e8 c83d a3df 513d 5768 e13d c0a4 95be
000003b0: f1a1 e7be a93b bbbe b531 bf3d 4613 21bf
000003c0: 1dfb d8be 1473 dcbb 4934 df3d 58bf 123d
000003d0: f209 28bf dcb5 aa3c 4671 ebbe e680 9bbe
000003e0: cbdb e6be 73bb 46bf ec70 9bbe ea3c e2be
000003f0: 0754 053e e7dd e2be e994 febc 28d4 93be
0.15866071 -0.46122 -0.3349601 -0.39797604 -0.008042321 0.16000146 0.19236462 0.019831792
0.012259711 0.14416714 0.041708425 -0.70197576 0.019057633 0.1251338 -0.0063737566 0.12014356
0.13255857 -0.47190988 -0.24833664 0.18645796 0.1750262 -0.22000933 -0.48940763 -0.49090353
0.15736301 -0.4297758 0.114630334 -0.38211712 -0.72278434 0.10736063 0.027457602 0.14543052
-0.003522044 -0.5042113 -0.19215602 -0.005730346 -0.33457118 -0.32882282 -0.3620968 -0.4040246
-0.22269742 0.093927994 -0.6046511 -0.35654405 0.11309074 0.04037368 0.09705186 -0.34303966
-0.02612359 -0.2628692 0.0038901418 -0.48375496 -0.01958283 0.10990994 -0.2865824 -0.5092388
0.13301368 0.14018483 -0.40561572 -0.2817985 -0.43687758 -0.36343968 -0.66987705 -0.19895801
0.18464388 -0.3075251 0.120663665 -0.74996626 0.1559861 -0.8131265 0.16850938 -0.24163975
0.032156147 -0.40817714 -0.15616196 -0.32359102 0.13604017 -0.22430143 0.04116794 -0.4320553
-0.43773088 0.09398244 0.0039075566 0.13184133 -0.35207477 0.027812421 0.04359971 -0.2925276
0.16095172 -0.2329322 -0.0049627186 0.111793265 0.012865086 0.10756888 -0.002479797 -0.34707943
-0.4125424 -0.19090605 -0.0068019144 -0.37988806 0.10265996 0.18596552 0.13105449 -0.42409554
0.12518117 -0.4273821 0.114962615 0.0015151995 -0.29958034 0.10495936 -0.38194698 0.115669616
0.16299145 -0.68022877 0.12637925 -0.34173897 0.14234494 0.15289037 0.1470229 -0.5226215
-0.55814284 -0.4134935 -0.3670987 -0.56677127 -0.040962934 0.053221397 -0.2958327 0.14119315
-0.49238104 -0.8378836 -0.3780884 -0.74700814 0.11872135 -0.009271751 -0.4804411 -0.022184465
-0.2557609 0.19111954 -0.21034628 0.12020143 0.015951244 -0.49932572 0.12124345 0.10139637
0.09295144 0.14958775 0.11274392 0.1680605 -0.617627 -0.39241868 0.13608792 0.04299356
-0.0052762227 0.1252653 0.028455382 -0.5304358 0.09150865 0.1466207 0.037793417 0.1198178
-0.41173482 -0.28151262 -0.60299385 0.14712043 0.14403659 -0.3008404 -0.4304232 0.0052445903
-0.73302567 0.051553115 0.11397961 0.1183809 0.16323505 0.122369185 0.040101513 0.10862807
-0.42466095 0.11505055 -0.1984218 -0.38504872 -0.18730478 -0.34577885 -0.3172961 -0.6825986
-0.4427574 0.1433136 0.10717025 -0.003258222 -0.38043562 -0.22658186 0.13647354 -0.036134183
-0.33445957 -0.26297933 0.000699616 0.17595236 -0.29456815 0.0021187812 -0.53385144 -0.20136012
0.14690602 -0.6997623 -0.62534624 -0.008998692 0.16150999 -0.45286855 -0.58158594 -0.49675062
-0.75527996 -0.34469116 -0.55453086 -0.4797374 -0.04260863 0.0045850133 0.021017661 0.14796747
-0.20414095 0.028690126 -0.02224633 0.11377298 -0.6308866 -0.41759893 0.13629869 -0.23976871
0.010074015 0.0009998009 0.13898572 0.035204004 0.0382048 -0.4857005 0.114300795 -0.1962289
0.09809966 0.051238667 0.11006229 -0.29227257 -0.4524074 -0.36568955 0.09335653 -0.62920034
-0.42379084 -0.0067275856 0.108986445 0.03582701 -0.65640175 0.02083867 -0.45984858 -0.3037178
-0.45089564 -0.77629775 -0.3035959 -0.441871 0.13020335 -0.44309923 -0.031076865 -0.288728
