CF/Photo_CF/MLP_predictor.pt (torch, 266408 bytes, 3 tensors)

lins.0.weight f4 [256, 256]
0	0x3e9567e0	0.29180813
1	0xbf2df410	-0.67950535
2	0x3e873c35	0.26413122
3	0xbe3df53e	-0.18550584
4	0xbe8c083b	-0.2735003
5	0xbe061bf1	-0.13096596
6	0xbdb9dbd0	-0.09075129
7	0xbd19b28f	-0.037523802
8	0xbf476cfd	-0.7790068
9	0xbe277ea5	-0.16356905
10	0x3f8e001f	1.1093787
11	0xbf325afa	-0.6967007
12	0x3e9d93ed	0.3077692
13	0xbef93381	-0.48672107
14	0x3da945a7	0.08265238
15	0x3f2013b8	0.6253009
16	0xbea31e74	-0.3185917
17	0x3d5e37f4	0.05425258
18	0x3f8432b7	1.0327977
19	0x3d831dae	0.06402145
20	0xbc998c58	-0.018743679
21	0xbe413cf8	-0.18870914
22	0xbea15474	-0.31509745
23	0xbf046e20	-0.5173054
24	0x3e497096	0.19671854
25	0xbea7be51	-0.32762387
26	0xbe873ce0	-0.2641363
27	0x3e09043c	0.13380522
28	0xbc9e3dd7	-0.019316597
29	0xbe03ca26	-0.12870082
30	0xbed71041	-0.42004588
31	0xbf43e372	-0.7651893
32	0xbe59d47f	-0.21272467
33	0xbf299cba	-0.6625477
34	0xbc9be4ba	-0.019029964
35	0xbc826e50	-0.015921742
36	0x3f18439d	0.5947817
37	0xbe6d9a09	-0.23203291
38	0xbe648a28	-0.22318327
39	0x3ec64497	0.38724205
40	0xbf90c55c	-1.1310229
41	0xbea7c159	-0.327647
42	0xbe9c6a52	-0.30549866
43	0x3ea4d530	0.321939
44	0x3e198efe	0.14995953
45	0xbf084f7a	-0.5324627
46	0xbea7d3d6	-0.32778805
47	0x3f059927	0.52186817
48	0x3ee572d0	0.44814157
49	0xbe4dac5f	-0.20085286
50	0x3e97b166	0.29627532
51	0xbf685a12	-0.90762436
52	0x3c89a9cc	0.016804598
53	0xbe8dcb74	-0.27694285
54	0x3f6e99c4	0.9320338
55	0x3e06076d	0.1308877
56	0x3e850bcb	0.2598556
57	0xbebc6547	-0.36796018
58	0x3e1031ae	0.14081451
59	0x3f05b811	0.5223399
60	0xbf64c1a0	-0.8935795
61	0x3ecd1010	0.40051317
62	0x3eec8cad	0.46201077
63	0xbe13f821	-0.14450122
64	0xbf034160	-0.5127163
65	0xbec0011c	-0.37500846
66	0xbda5664a	-0.08076151
67	0x3e14ff24	0.14550453
68	0xbe4bf4d1	-0.19917609
69	0x3d87f35c	0.06638214
70	0x3cb9a575	0.022661904
71	0xbdaecbb8	-0.0853495
72	0xbf73e88d	-0.9527672
73	0xbf07f694	-0.53110623
74	0xbe13ef37	-0.14446722
75	0x3ddab309	0.106786795
76	0x3d6a77d1	0.057243172
77	0xbef7a714	-0.48369658
78	0x3f5a9bf0	0.8539419
79	0xbdab8de6	-0.08376674
80	0xbdfd5904	-0.12370494
81	0x3e730b4b	0.23734777
82	0xbb8c5313	-0.004282364
83	0xbd41d058	-0.047317833
84	0xbea05d95	-0.31321397
85	0xbf45f601	-0.773285
86	0xbed8ae41	-0.42320445
87	0x3b8343ed	0.0040059
88	0xbf00dd3a	-0.50337565
89	0x3ea95f05	0.33080307
90	0xbdc16dde	-0.09444784
91	0xbf0cb5a1	-0.54964644
92	0xbf1697f4	-0.5882561
93	0xbe4e2b72	-0.2013376
94	0xbe7740a3	-0.2414575
95	0xbda44dda	-0.080226615
96	0xbf0d20f0	-0.55128384
97	0xbf1ef39f	-0.62090486
98	0x3e4d9eb7	0.20080076
99	0x3ea6f4a8	0.32608533
100	0xbf8e738a	-1.112901
101	0x3f0edc21	0.5580464
102	0xbe7cb80b	-0.24679582
103	0x3cc735d7	0.024317665
104	0xbe70b35b	-0.23505919
105	0xbe2a93c7	-0.16657935
106	0xbdaa4520	-0.08313966
107	0x3e6cce25	0.23125513
108	0x3f16fa6c	0.58975863
109	0xbed5d606	-0.4176485
110	0x3e9681fb	0.29396042
111	0x3f069a18	0.5257888
112	0x3eef2fcd	0.46716157
113	0x3ecd5e1e	0.40110868
114	0x3ea34cbc	0.3189448
115	0xbf2342fa	-0.63774073
116	0x3f0b7c7d	0.5448683
117	0xbf2d1ed5	-0.6762517
118	0xbb930899	-0.004487109
119	0xbe7171cf	-0.23578571
120	0x3f2a60cd	0.66553956
121	0xbf8b737f	-1.0894622
122	0xbdd7bd4e	-0.10534154
123	0x3dc8de89	0.0980807
124	0x3f120f02	0.5705415
125	0xbe8baef4	-0.27281916
126	0xbf71547e	-0.9426955
127	0x3ee3222d	0.44362012
128	0xbe6becb3	-0.23039512
129	0xbd86b20f	-0.06576931
130	0xbece4324	-0.402856
131	0xbe76e523	-0.24110846
132	0x3f26513b	0.649677
133	0xbd3c5ff7	-0.045989957
134	0xbf799dd2	-0.9750644
135	0x3f2806ea	0.6563555
136	0x3ead46a9	0.33842972
137	0xbe58e898	-0.21182477
138	0xbe8318e8	-0.2560494
139	0x3f10e3dd	0.5659769
140	0xbeb79315	-0.35854402
141	0x3eb1551a	0.3463524
142	0xbf6bd642	-0.92123806
143	0xbdb38ab4	-0.0876669
144	0x3f942129	1.157262
145	0xbeeccd0c	-0.46250188
146	0xbed97d93	-0.42478618
147	0xbea660ab	-0.32495627
148	0x3ebc8da1	0.36826804
149	0x3cf47a1a	0.029843379
150	0x3db12053	0.086487435
151	0xbd61d0f2	-0.055130906
152	0xbdff57bb	-0.12467905
153	0x3af188bc	0.0018427591
154	0xbef23cc5	-0.47311988
155	0xbe02b3c2	-0.12763885
156	0xbf68d647	-0.9095196
157	0x3f156690	0.5835962
158	0x3ee8ccf3	0.45468864
159	0x3ddf1a48	0.108936846
160	0xbde33cd6	-0.11095588
161	0xbef74ed1	-0.4830232
162	0x3ee29c59	0.4425991
163	0xbf40a20a	-0.7524725
164	0x3b19b123	0.002345153
165	0x3d376ccb	0.044781487
166	0x3f09c320	0.5381336
167	0xbed47240	-0.41493416
168	0x3eaed1f2	0.3414455
169	0xbf7f14f1	-0.9964133
170	0xbed03658	-0.4066646
171	0xbf09f8e3	-0.53895396
172	0x3e0da8e8	0.13833964
173	0xbf1c923d	-0.6116064
174	0xbe608955	-0.21927388
175	0x3eef5c1c	0.4674996
176	0xbf177fe8	-0.59179544
177	0xbf44a150	-0.76808643
178	0x3f247d7a	0.6425396
179	0x3ef4137b	0.47671112
180	0xbdaa6063	-0.083191656
181	0xbe449747	-0.19198333
182	0xbdaf4457	-0.08557957
183	0xbeba9816	-0.36444157
184	0x3ea2400f	0.31689498
185	0xbf55c6a5	-0.8350623
186	0x3f4539b1	0.77041155
187	0xbf981cfd	-1.1883847
188	0x3e87a877	0.26495716
189	0x3f21bb96	0.6317686
190	0xbd5191c6	-0.05116441
191	0xbe18aa1d	-0.14908643
192	0x3e3d1040	0.1846323
193	0xbec91aff	-0.3927841
194	0xbe8780d3	-0.26465473
195	0xbe4f9ed3	-0.2027543
196	0xbf137456	-0.5759939
197	0xbd86affa	-0.065765336
198	0xbef7a9a8	-0.48371625
199	0xbe95bed5	-0.29247156
200	0xbf84bea1	-1.0370675
201	0x3d2d3259	0.042284343
202	0x3caca2bb	0.02107369
203	0x3d8370e3	0.06418016
204	0x3ebaea09	0.3650668
205	0x3e25d842	0.16195777
206	0xbe8e545e	-0.27798742
207	0xbf3ed852	-0.7454883
208	0x3f1f7b39	0.622974
209	0xbef5c2fe	-0.4800033
210	0x3ec93c57	0.39303848
211	0xbef6ee51	-0.48228696
212	0xbea7fe6a	-0.3281129
213	0x3f166243	0.58743685
214	0xbe321c7a	-0.17393675
215	0xbeddd624	-0.4332744
216	0x3f4e19bf	0.80508035
217	0x3e333260	0.17499685
218	0xbd23f9a1	-0.040032987
219	0xbeb9fd2f	-0.36325976
220	0xbe990ce2	-0.2989264
221	0x3e71f181	0.23627283
222	0xbebf95fa	-0.3741911
223	0xbe0ff2db	-0.14057486
224	0x3dd567e5	0.10420207
225	0xbec676c0	-0.38762474
226	0x3dbbbdfa	0.091670945
227	0x3f43d7d3	0.76501197
228	0xbf008481	-0.50202185
229	0xbf4a8942	-0.7911569
230	0x3ea416ce	0.3204865
231	0xbe97714f	-0.29578635
232	0x3ef86a05	0.48518386
233	0xbc833f69	-0.016021447
234	0xbf61d865	-0.88220817
235	0x3f06e3af	0.5269117
236	0x3f0d8a57	0.55289215
237	0xbf00ba1a	-0.5028397
238	0xbea69701	-0.32537082
239	0xbd4d7ce2	-0.050167926
240	0xbe8ce109	-0.27515438
241	0x3e4f360b	0.2023546
242	0x3d2db91d	0.042412866
243	0xbee91fd9	-0.4553211
244	0x3d447547	0.047963407
245	0xbf2ceba1	-0.6754704
246	0x3ebe13bc	0.3712443
247	0xbf328701	-0.6973725
248	0x3e99c2d4	0.30031455
249	0xbf6e5c13	-0.93109244
250	0x3e877d6b	0.26462874
251	0x3d9bdc30	0.07610357
252	0xbe2ff922	-0.1718488
253	0x3ec0bae9	0.376426
254	0xbdfefd4c	-0.12450656
255	0xbe582f6e	-0.21111843

lins.0.bias f4 [256]
0	0xbeef9bc1	-0.46798518
1	0xbe9beedb	-0.3045567
2	0xbfb226b1	-1.3918058
3	0xbf4fae83	-0.8112566
4	0x3e0db7a0	0.13839579
5	0xbfa98ef1	-1.3246747
6	0xc01ee227	-2.4825532
7	0x3f4da206	0.80325353
8	0xbeec3b39	-0.46138933
9	0x3ff7f738	1.937232
10	0xbed1fe92	-0.41014534
11	0x3ea45f6a	0.32104045
12	0x3f84c6a9	1.0373126
13	0x3fd37a78	1.652175
14	0x3f827c89	1.0194255
15	0x3f8d8b24	1.1058087
16	0x3fe0a75c	1.7551074
17	0x3d5d8b6c	0.05408804
18	0xbf35a9bf	-0.70962137
19	0x3ff6be45	1.9276816
20	0x3f93b275	1.1538836
21	0xbefd7bb2	-0.49508435
22	0x3eb387f9	0.35064676
23	0xbf4c4c0d	-0.79803544
24	0x3fb69c08	1.4266367
25	0xbeaa9764	-0.33318627
26	0x3ff8321c	1.9390292
27	0xbfc5ac26	-1.544316
28	0xc00df533	-2.2180908
29	0x3fa5e7cd	1.2961365
30	0xbd0b05bf	-0.033941027
31	0x3f565d55	0.83736163
32	0xbf1cf9b5	-0.6131852
33	0xc00b73fc	-2.1789541
34	0xbeff98f3	-0.49921378
35	0xbf2e31bd	-0.68044645
36	0xbebb1d64	-0.3654586
37	0x3fb571da	1.417537
38	0x3e738a1b	0.23783152
39	0x3ee9cd6e	0.45664543
40	0xbf702777	-0.9381022
41	0xbf8cbf95	-1.0995966
42	0x3ebc1a9a	0.36739045
43	0xbfde58fd	-1.7370907
44	0x3f4b5540	0.79426956
45	0xbfa53456	-1.2906597
46	0xbf25102c	-0.644778
47	0x3f04d909	0.5189367
48	0xbe496e5d	-0.19671007
49	0xbfd78627	-1.6837815
50	0xbf4f75d8	-0.8103919
51	0x3e703b18	0.23460042
52	0xbfa06d12	-1.2533286
53	0xbe5e5553	-0.21712236
54	0xbf6ed1b6	-0.93288743
55	0x3f1906cf	0.59776014
56	0x3f94e89b	1.1633486
57	0x3fab005c	1.3359485
58	0x3d45cf13	0.048293184
59	0xbf825691	-1.0182668
60	0xbf91678a	-1.1359723
61	0xbffc76be	-1.9723737
62	0xbe462ac1	-0.19352247
63	0xbf6acc5d	-0.91718084
64	0x4011e738	2.2797375
65	0xbf13dbdd	-0.5775736
66	0x3f4c84e0	0.7989025
67	0xbca5fbb2	-0.02026162
68	0xbf0a3791	-0.5399104
69	0xbf33d789	-0.70250756
70	0x3f05c3f7	0.52252144
71	0xbf35820d	-0.70901567
72	0xbf9abb8f	-1.2088488
73	0xbda47f22	-0.08032061
74	0xbda9a409	-0.0828324
75	0xbf562e79	-0.8366466
76	0x3fdbb8cc	1.716577
77	0xbef39993	-0.47578105
78	0x3f3b0c27	0.7306542
79	0xbe95c668	-0.29252934
80	0xbf79c3ea	-0.97564566
81	0x3fa41a9c	1.282062
82	0xbf189f02	-0.59617627
83	0x3fda09b9	1.7034217
84	0xbfcbcd8b	-1.5922102
85	0xbfc2b3d6	-1.5211132
86	0xbf8ada45	-1.084786
87	0xbfad3bd6	-1.3533885
88	0xbf6dd79b	-0.9290711
89	0xbf7c85ec	-0.9864185
90	0xc03fa17c	-2.9942312
91	0x3ff2baee	1.8963296
92	0x3facd705	1.3503119
93	0x400e4180	2.2227478
94	0xbfd76e74	-1.6830583
95	0x3eb08044	0.3447286
96	0xbf831ec2	-1.0243762
97	0xc0251bfa	-2.5798326
98	0x3fc3a91a	1.5285981
99	0xbf662fcb	-0.89916676
100	0x3f30a08f	0.6899499
101	0x3f8836e9	1.0641757
102	0x3f317b3e	0.6932868
103	0xbf2367f3	-0.6383049
104	0xbdf173c0	-0.11789656
105	0xbfa56d3f	-1.2923964
106	0x3fc48d18	1.5355558
107	0xbf986c6c	-1.1908088
108	0x3ef194d8	0.4718387
109	0x3f9a75ac	1.2067161
110	0xbc5ea5b9	-0.013589316
111	0xbea55911	-0.32294515
112	0x3faf9fa5	1.3720595
113	0x3f9ff2e8	1.2496004
114	0x3fcebf95	1.6152216
115	0xbdbee3ef	-0.09320819
116	0x3fbace58	1.4594221
117	0x3f8c5730	1.0964108
118	0x40050841	2.0786288
119	0x3f30f928	0.6913018
120	0xbf4226db	-0.7584054
121	0x3eca7d0e	0.39548534
122	0xbf46315d	-0.7741907
123	0xbfbca0bf	-1.4736556
124	0xbfd0b708	-1.6305857
125	0x3fa37c0c	1.2772231
126	0xbe7371ff	-0.23773955
127	0x400bfc45	2.1872723
128	0xbf8891bb	-1.0669473
129	0xbffdb465	-1.9820677
130	0xbf0ba6eb	-0.5455157
131	0xbfb7df59	-1.4365035
132	0x3fca68b8	1.5813208
133	0x3f401f96	0.75048196
134	0xbf7fb624	-0.998873
135	0x3fb029c5	1.3762747
136	0xbe3a5ec1	-0.18200208
137	0x3fbdad80	1.4818573
138	0xbefe1271	-0.49623445
139	0x3fca4efa	1.5805352
140	0x3f5ed0c1	0.87037283
141	0xbfa44485	-1.283341
142	0x3fd9cd6b	1.7015814
143	0x3f30f96b	0.6913058
144	0xbf221a31	-0.63321215
145	0x3fa5e50f	1.2960528
146	0x3fb2cc72	1.3968642
147	0x3f9eabd0	1.2396183
148	0xbc157ac7	-0.009123511
149	0xbe22a6eb	-0.15883987
150	0x3fe3ebb3	1.7806305
151	0xbfabb341	-1.3414079
152	0x3fb99103	1.4497379
153	0x3f9ea275	1.2393328
154	0x3ff5fbde	1.9217489
155	0xbf5da5d9	-0.8658119
156	0x3f4b1e19	0.793428
157	0xbf2e1964	-0.68007493
158	0x3ed94a43	0.4243947
159	0x3fae6cde	1.3626974
160	0x3f38b01b	0.72143716
161	0xbfcdeb89	-1.6087505
162	0xbfb57630	-1.4176693
163	0x3f7a4052	0.97754395
164	0x3f6a3ad8	0.9149604
165	0xc00ff12c	-2.249095
166	0xbe29d9ac	-0.16586941
167	0x3d82030a	0.06348236
168	0x3f584242	0.844761
169	0xbe99dd9a	-0.3005188
170	0x3fc74ca2	1.5570261
171	0x3f758863	0.95911235
172	0x3fc0744c	1.5035491
173	0x3f9d9729	1.2311755
174	0xbf4c2bc5	-0.79754287
175	0x3fcb3938	1.5876837
176	0x3eac79f0	0.3368678
177	0x3fd9beba	1.701133
178	0xbd0252e5	-0.031817336
179	0xc0037d5b	-2.054526
180	0x3f268762	0.6505033
181	0x3ec75973	0.38935432
182	0xbd38426b	-0.044985216
183	0x3fbeeb73	1.4915603
184	0xbe1a087b	-0.15042298
185	0x3fa43298	1.282794
186	0x3fb86d2d	1.4408318
187	0xbfb7c888	-1.4358072
188	0xbf96c822	-1.1779826
189	0xbfe24b0e	-1.7679155
190	0x3fb635ff	1.4235228
191	0xbf529ff8	-0.8227534
192	0x3e2c2eef	0.16814779
193	0xbe96bafb	-0.2943953
194	0xbfab5e17	-1.3388089
195	0x3fdbec1f	1.7181433
196	0x3b53b807	0.0032305734
197	0xbf72ad08	-0.94795275
198	0x3fc0ed0f	1.5072345
199	0xbf222228	-0.6333337
200	0x400554bb	2.0832965
201	0xbf51347d	-0.81720716
202	0xbda4608d	-0.08026228
203	0xbf9e4628	-1.236516
204	0x3ef21b67	0.4728653
205	0x3f00bbf6	0.50286806
206	0x3f9bae07	1.2162484
207	0xbf5d0c51	-0.8634692
208	0x3f3e51af	0.7434339
209	0xbf586996	-0.8453611
210	0x3ef448d3	0.4771181
211	0xbeb81e33	-0.3596054
212	0xbf0c7d08	-0.5487828
213	0xbe5f3780	-0.21798515
214	0xbf86d823	-1.053471
215	0x3fd70eea	1.6801426
216	0xbfc3bed9	-1.5292617
217	0xbf06eb1d	-0.52702504
218	0xbfbfade9	-1.4974948
219	0x3fbcac1a	1.4740021
220	0xc005c1b6	-2.0899482
221	0xbf8a1e9a	-1.0790589
222	0xbeac5c05	-0.33663955
223	0xc00d7aa1	-2.2106097
224	0xbf0fcd30	-0.56172466
225	0xbfc38bdf	-1.527706
226	0x3fc4eab5	1.5384127
227	0xbf81a467	-1.0128297
228	0xbf3ae6b3	-0.7300827
229	0xbeca6d5a	-0.39536554
230	0x40004744	2.0043497
231	0xbf82d08a	-1.0219891
232	0x400826cd	2.1273682
233	0xbfc68e2c	-1.5512137
234	0x3faada73	1.3347915
235	0xbf79423e	-0.973667
236	0x400f1435	2.2356083
237	0xbf5dd01d	-0.8664568
238	0x3f99556b	1.1979192
239	0x3f7d21f8	0.9887996
240	0x3f6d1b10	0.9261942
241	0xbf4ecee5	-0.80784446
242	0x3eb906b5	0.3613793
243	0xbe189659	-0.14901103
244	0x3f758306	0.9590305
245	0x3f2c71eb	0.67361325
246	0x3f730bf3	0.9494011
247	0xbdac072e	-0.08399807
248	0x3fc7a0d8	1.5595961
249	0x3ee8899c	0.45417488
250	0xbf9ec2e7	-1.240323
251	0xbfd1e3a5	-1.6397597
252	0x3eda45ba	0.42631322
253	0xbfa537dd	-1.2907673
254	0xc00391b3	-2.0557678
255	0xbfc496db	-1.5358537

lins.1.weight f4 [1, 256]
0	0xbeca26ff	-0.39482877
1	0x3e5e332b	0.21699207
2	0xbeb8c42a	-0.3608716
3	0x3e975a0e	0.29560894
4	0x3e6547b0	0.22390628
5	0x3e79db2e	0.24400017
6	0xbd88d572	-0.066813365
7	0x3e065adb	0.13120596
8	0x3e4bcbac	0.19901913
9	0x3d7f6995	0.06235655
10	0x3e8b6e98	0.27232814
11	0xbe6ff102	-0.23431781
12	0x3dd3d0a0	0.103425264
13	0x3d61400b	0.054992717
14	0x3d85cbac	0.06532988
15	0x3ddcec46	0.10787253
16	0x3d8ef6b2	0.06980647
17	0xbda1860b	-0.07886895
18	0xbea13967	-0.31489107
19	0x3d703e23	0.05865301
20	0x3e09dd91	0.13463427
21	0xbec2ddf7	-0.3805997
22	0x3eb63ea0	0.35594654
23	0xbe36816c	-0.17822808
24	0x3d525d70	0.05135864
25	0xbe22307a	-0.15838805
26	0x3d5013ed	0.050800253
27	0xbe804e10	-0.25059557
28	0xbd897ad4	-0.06712881
29	0x3d5b028e	0.053469233
30	0xbe4c9c87	-0.19981585
31	0x3d6ddf97	0.05807456
32	0x3e81126a	0.2520936
33	0xbdb1f1c4	-0.08688691
34	0xbe033118	-0.12811697
35	0xbe42930d	-0.19001408
36	0xbdb4d000	-0.08828735
37	0xbe01ed40	-0.1268816
38	0xbd8ae668	-0.06782228
39	0xbda2cb99	-0.079489894
40	0xbe21bb17	-0.15794025
41	0xbe117013	-0.14202909
42	0xbe07490a	-0.13211456
43	0xbdf8958a	-0.12137897
44	0x3d4fcdb8	0.050733298
45	0x3e4727b5	0.19448741
46	0xbd956ae5	-0.07295779
47	0xbda27e60	-0.0793426
48	0x3e3d4162	0.18481973
49	0xbd80d127	-0.06289893
50	0xbec5f0ae	-0.38660187
51	0xbdb18f81	-0.08669949
52	0xbe8232f1	-0.2542949
53	0x3e9cd758	0.30633044
54	0xbebed28b	-0.37270007
55	0xbdca3900	-0.09874153
56	0x3da46b17	0.08028238
57	0x3d973d6e	0.07384764
58	0xbd87f534	-0.06638566
59	0xbe441bcc	-0.19151229
60	0xbd4a4078	-0.04937789
61	0x3ebffe09	0.374985
62	0xbd93db7f	-0.072196
63	0x3e89f6f7	0.26946232
64	0x3de19fb1	0.11016787
65	0xbeadf428	-0.3397534
66	0x3d391aa9	0.04519144
67	0xbd86b3b1	-0.06577242
68	0x3e94a888	0.2903483
69	0xbeb7fca0	-0.35934925
70	0x3dc4a80d	0.09602366
71	0xbf0de7e4	-0.5543196
72	0xbe7d8532	-0.24757841
73	0xbe141631	-0.1446159
74	0xbda6e760	-0.081496
75	0xbeb20753	-0.34771213
76	0x3d44a784	0.048011318
77	0xbe1bd29f	-0.15217064
78	0x3d7961c7	0.060884263
79	0xbdae4f2a	-0.08511193
80	0xbd52452e	-0.051335506
81	0x3d254736	0.040351115
82	0xbe97ca56	-0.29646558
83	0x3d1af29d	0.03782903
84	0xbdb3d42c	-0.08780703
85	0xbe9f28a2	-0.31085688
86	0x3ec77115	0.38953462
87	0xbe4dce23	-0.20098166
88	0x3e9b3459	0.30313376
89	0xbe28e10c	-0.16492099
90	0xbe93797d	-0.28803626
91	0x3d460058	0.04834017
92	0x3d8855af	0.06656968
93	0x3d664e43	0.05622698
94	0x3eb0e177	0.34547016
95	0xbdc52565	-0.09626273
96	0xbdf8e135	-0.1215233
97	0xbe29e21b	-0.16590159
98	0x3d2e7dab	0.042600315
99	0xbd3f70d3	-0.046738457
100	0x3d9fac3e	0.077965245
101	0x3db9fa84	0.09080985
102	0x3e4146e7	0.18874703
103	0xbd58c67d	-0.05292367
104	0xbe49197b	-0.19638626
105	0x3e78b42b	0.24287479
106	0x3d7bc281	0.06146479
107	0x3e562dbf	0.20915888
108	0x3e1a18b6	0.15048489
109	0x3d1e97a7	0.038718846
110	0xbe887a20	-0.26655674
111	0xbda43fb5	-0.08019964
112	0x3dbcf3ee	0.092262134
113	0xbe4654f0	-0.19368339
114	0x3d521a1e	0.05129444
115	0xbd88e378	-0.06684011
116	0x3d6985ce	0.05701237
117	0x3d9961a7	0.07489329
118	0x3e6ffa86	0.23435411
119	0xbe5b024c	-0.21387595
120	0xbd4dad1a	-0.05021391
121	0xbda949cd	-0.082660295
122	0xbd9e1183	-0.07718184
123	0xbd72002b	-0.05908219
124	0xbeaeec69	-0.34164742
125	0x3d40bf1a	0.04705725
126	0xbe963f37	-0.29345104
127	0x3e084636	0.13308033
128	0xbd8205ac	-0.06348738
129	0xbdf8f0ea	-0.12155326
130	0xbe9c389e	-0.30511945
131	0xbe23362a	-0.1593863
132	0x3d397351	0.04527599
133	0x3e0f2f9d	0.13983007
134	0x3ef3d847	0.47625944
135	0x3d54b354	0.051928833
136	0xbd87e079	-0.06634612
137	0x3d8212b6	0.06351225
138	0xbd8b1a9e	-0.06792186
139	0x3d01a812	0.031654425
140	0x3d482452	0.048862763
141	0xbec79501	-0.38980868
142	0x3d62e46b	0.055393618
143	0x3d9f7202	0.07785417
144	0x3e528ca2	0.2056146
145	0x3d23ad52	0.039960213
146	0x3d99bc19	0.0750658
147	0x3d54e698	0.051977724
148	0xbd8ac37d	-0.06775568
149	0xbd85237d	-0.065009095
150	0x3d7aa809	0.061195407
151	0x3ec9ba71	0.39400056
152	0x3d2dd333	0.042437743
153	0x3d3ff059	0.046860073
154	0x3e457856	0.19284186
155	0xbeb3d153	-0.3512064
156	0x3e0351ba	0.12824145
157	0xbdb1c72e	-0.08680569
158	0x3daa55c6	0.08317141
159	0x3d2254ae	0.039631538
160	0xbde31308	-0.11087614
161	0xbe9c5618	-0.30534434
162	0x3e647a31	0.22312237
163	0x3d844dab	0.064601265
164	0x3d530d5a	0.051526405
165	0xbd97747a	-0.07395263
166	0xbd989ef0	-0.0745219
167	0x3ec756da	0.3893345
168	0xbe283145	-0.16425045
169	0x3e6e5e51	0.23278166
170	0x3d57b769	0.052665148
171	0x3d581e0f	0.05276304
172	0x3d68255f	0.056676265
173	0x3d298398	0.041385263
174	0xbe28bf82	-0.16479304
175	0x3d7b7ebb	0.061400156
176	0xbe699bde	-0.22813365
177	0x3d44b4ac	0.048023865
178	0xbe3b4a36	-0.18290028
179	0xbe255b4a	-0.16148105
180	0xbdcc3300	-0.09970665
181	0x3e081c4a	0.13292041
182	0xbe1fd1c9	-0.1560737
183	0xbe3e8452	-0.18605164
184	0x3e835147	0.25647947
185	0x3d4630aa	0.048386253
186	0x3d4898c7	0.048973825
187	0xbdbb41cd	-0.0914341
188	0xbd3be10e	-0.045868926
189	0xbe474ce0	-0.19462919
190	0x3d69122c	0.056902096
191	0x3e592f13	0.21209364
192	0xbdb82503	-0.089914344
193	0xbe9202d3	-0.2851778
194	0x3e71f606	0.23629007
195	0x3d352c19	0.044231508
196	0xbd941ede	-0.0723245
197	0x3e7ee702	0.2489281
198	0xbeb21b26	-0.34786338
199	0xbe85e464	-0.2615081
200	0x3d5e9727	0.05434337
201	0xbd16f602	-0.036855705
202	0xbd6cc77a	-0.057807423
203	0x3e7f201b	0.24914591
204	0x3debf341	0.115210064
205	0xbe75b29c	-0.23993915
206	0xbdb68b73	-0.089133166
207	0x3e770c13	0.241257
208	0xbe4183cf	-0.18897937
209	0xbe4b8b15	-0.19877274
210	0xbe15fccb	-0.14647214
211	0x3eada5b7	0.33915493
212	0xbe50097b	-0.20316117
213	0x3e42b13a	0.19012919
214	0x3ebeecc4	0.37290013
215	0x3d1edeac	0.038786575
216	0xbdc3b146	-0.095552966
217	0x3e1c3b09	0.15256895
218	0xbe99fc81	-0.30075458
219	0x3d46f1eb	0.048570555
220	0xbe00986a	-0.12558141
221	0xbe425289	-0.18976797
222	0x3e68715b	0.22699492
223	0xbdc9f301	-0.098608024
224	0x3e92e391	0.28689244
225	0xbeb54b0f	-0.35408828
226	0x3d8ef3fb	0.06980129
227	0xbe84ad02	-0.25913244
228	0x3e8c641b	0.27420124
229	0xbef42c5d	-0.47690096
230	0x3d6cc3e0	0.05780399
231	0xbdc73f3f	-0.0972886
232	0x3d65adc0	0.056073904
233	0x3e9be02c	0.30444467
234	0x3d6b9066	0.057510756
235	0xbe417a56	-0.18894324
236	0xbebb5079	-0.36584833
237	0xbd9350dd	-0.07193158
238	0x3d4f25e9	0.050573263
239	0xbde229da	-0.11043139
240	0xbdc36c7b	-0.095421754
241	0xbebf0619	-0.3730934
242	0x3e0c9b74	0.13731176
243	0x3e5a7913	0.21335249
244	0xbda807e0	-0.08204627
245	0x3d3e51c1	0.046464685
246	0xbdf81657	-0.12113636
247	0x3e2dbef1	0.1696737
248	0x3d7f9ec6	0.062407278
249	0xbdd8ea88	-0.10591608
250	0xbeec1715	-0.4611136
251	0x3eb58cd8	0.35459018
252	0x3e167ba7	0.14695607
253	0xbe3fd844	-0.18734843
254	0xbe8c05eb	-0.27348265
255	0xbd770cad	-0.060314823
