CF/Photo_CF/MLP_encoder.pt (torch, 659608 bytes, 4 tensors)

lins.0.weight f4 [256, 384]
-0.6522226 -0.089465424 0.09259981 0.36183342 0.28949118 -0.0053119166 0.056580722 -0.5184471
0.6354958 0.45083943 0.34159708 0.15977435 0.25823525 1.1249169 -0.30988777 -0.30124348
0.627305 -0.3125016 -0.04001498 0.53314185 0.39292178 0.034154985 -0.18553908 -0.07711922
0.107042775 -0.2856265 -0.75382024 1.2612273 -0.1823637 0.17954119 -0.13671075 0.09354392
-0.8440212 -0.05094297 0.6159576 0.3389673 -0.25368893 0.706623 0.63240147 -0.09433763
0.08376653 0.24383156 0.2131588 -0.61631423 0.17884697 -0.21376999 0.06881059 0.9260137
-0.13308035 -0.7543159 -0.11455861 -0.6180257 -0.08003839 -0.4365539 -0.39064687 -1.0470177
-0.2724494 -0.7187491 -0.6782821 -0.28616482 -0.11849059 0.63671935 -0.69820964 0.037441913
-0.14970337 -0.15145645 -0.008658412 -0.025834443 -0.027506866 0.27855188 0.024378031 -0.007063089
1.2026442 0.7709139 0.71251434 0.17073533 -0.25510475 0.27006537 -0.109140225 -0.65705377
0.051309794 -0.121399336 -0.033879954 0.18422775 0.62071615 -0.24288823 0.5808688 1.0359437
0.72324824 -0.20967129 0.30211028 -0.5441201 -0.17129374 -0.53656566 0.0855497 -1.0454099
0.034448992 0.2486779 0.090551876 -0.025338147 -0.04241426 0.47821453 0.46200475 0.11230205
0.18049173 1.0737715 0.15439267 0.36661297 -0.31077373 0.6288168 1.0277979 0.04667395
-0.42433533 -0.23804726 -0.0743321 0.2878858 0.3234631 -1.0405754 -0.052144017 -0.73065364
0.42415258 -0.6988236 -0.65530175 1.3055252 -0.11973853 -0.09897152 0.044994436 0.012579687
0.8805294 0.8945794 0.16156013 0.6407403 -0.56304204 0.38880858 -0.24982844 -0.04234484
0.4858443 0.2447091 -0.6233397 0.26581457 -0.2091567 0.11117273 -0.36715123 1.2918513
-0.29474136 -0.8644882 -0.39321405 0.025606494 0.68687654 -0.14576083 -0.27482495 0.032800104
0.9859102 -0.6571781 -1.1026456 0.26637974 0.095453925 -0.1348877 0.19725275 0.14213596
-1.1672726 -0.5371703 -0.87105083 0.41016147 -0.004253118 0.34785402 0.31906465 -0.052526087
0.07875596 -0.19135183 0.3020786 0.10299083 -0.12843478 0.39760244 0.8514662 -0.40866852
0.05020237 -0.24976568 -0.7596345 0.066656046 0.40281403 -0.12292578 0.39521936 0.40601078
0.20600788 -0.116738625 -0.6758698 0.5919321 0.020440033 0.24021953 -0.24838068 0.3479246
0.08100171 -0.3837994 -0.21400812 -0.04752555 0.5921615 0.07077562 -0.4691607 -0.3884728
0.7623871 0.16487011 -0.27734157 1.052146 0.25216445 1.0007904 -0.051935397 -0.7117713
0.057420563 -0.554033 0.67212725 0.6887114 -0.10030067 0.54947025 0.09341101 0.294209
-0.60033196 0.004328382 0.17294846 0.12470969 0.352428 -0.11030193 0.13882199 0.02198811
-0.41934365 1.1107122 -0.6976881 0.37466204 0.43223166 -0.15476876 0.13898721 0.10810366
-0.15075622 0.029738385 0.87757003 0.6469875 -0.6263303 -0.40141878 0.05269514 1.180581
0.09635835 0.261868 -0.42061985 0.1444762 -0.36841664 -0.14924292 0.8819379 -0.42452624
-0.43500838 0.22481975 0.14635934 0.34822395 -0.4172739 -0.85172266 0.05588459 -0.38670707
00000000: 0ff8 26bf a639 b7bd f8a4 bd3d 3b42 b93e
00000010: 3038 943e 960f aebb 30c1 673d f3b8 04bf
00000020: daaf 223f 6dd4 e63e d0e5 ae3e e39b 233e
00000030: 6937 843e 47fd 8f3f 9ca9 9ebe 963c 9abe
00000040: 0f97 203f 3600 a0be bfe6 23bd fc7b 083f
00000050: 0b2d c93e 19e6 0b3d f5fd 3dbe aef0 9dbd
00000060: 3e39 db3d a33d 92be 5dfa 40bf e56f a13f
00000070: 8dbd 3abe a5d9 373e e7fd 0bbe f493 bf3d
00000080: c611 58bf 93a9 50bd 66af 1d3f 1f8d ad3e
00000090: 84e3 81be 3fe5 343f 10e5 213f 1634 c1bd
000000a0: c98d ab3d fbae 793e 4d46 5a3e c5c6 1dbf
000000b0: a923 373e 85e6 5abe 91ec 8c3d 3c0f 6d3f
000000c0: 3746 08be d91a 41bf b49d eabd ef36 1ebf
000000d0: 2beb a3bd fe83 dfbe de02 c8be ad04 86bf
000000e0: 7d7e 8bbe f1ff 37bf e5a3 2dbf 3284 92be
000000f0: 32ab f2bd 0a00 233f debd 32bf b15c 193d
00000100: d74b 19be 6617 1bbe 03dc 0dbc c1a2 d3bc
00000110: 1456 e1bc 5a9e 8e3e 70b4 c73c 7c71 e7bb
00000120: 3ff0 993f 9d5a 453f 5767 363f 3ed5 2e3e
00000130: 179d 82be 0246 8a3e e984 dfbd ad34 28bf
00000140: 382a 523d 37a0 f8bd b5c5 0abd 33a6 3c3e
00000150: 41e7 1e3f b1b7 78be d1b3 143f ce99 843f
00000160: cc26 393f 12b4 56be 33ae 9a3e 744b 0bbf
00000170: a067 2fbe 5e5c 09bf ae34 af3d fecf 85bf
00000180: 631a 0d3d 6ba5 7e3e 4373 b93d f291 cfbc
00000190: 93ba 2dbd 89d8 f43e e38b ec3e 9efe e53d
000001a0: d3d2 383e 5871 893f 1d19 1e3e b2b4 bb3e
000001b0: bc1d 9fbe 23fa 203f e28e 833f 2f2d 3f3d
000001c0: 7b42 d9be a9c2 73be 6e3b 98bd c465 933e
000001d0: f59c a53e 9331 85bf f794 55bd 1e0c 3bbf
000001e0: 872a d93e 1ae6 32bf dbc1 27bf 731b a73f
000001f0: 7939 f5bd 95b1 cabd 164c 383d 081b 4e3c
00000200: 606a 613f 2803 653f 0570 253e 8e07 243f
00000210: 8623 10bf eb11 c73e 07d3 7fbe c871 2dbd
00000220: 96c0 f83e 0695 7a3e 3193 1fbf d918 883e
00000230: 2d2d 56be 87ae e33d 3ffb bbbe 625b a53f
00000240: 57e8 96be 194f 5dbf 5a53 c9be b6c4 d13c
00000250: 24d7 2f3f 5442 15be dbb5 8cbe 6759 063d
00000260: 9c64 7c3f d33c 28bf 7e23 8dbf ed62 883e
00000270: 597d c33d 0020 0abe a0fc 493e 178c 113e
00000280: 3069 95bf fe83 09bf 30fd 5ebf af00 d23e
00000290: bd5d 8bbb ec19 b23e 715c a33e 9825 57bd
000002a0: ce4a a13d bcf1 43be 0caa 9a3e dbec d23d
000002b0: 6884 03be 8c92 cb3e b0f9 593f 003d d1be
000002c0: 00a1 4d3d 93c2 7fbe 6877 42bf f782 883d
000002d0: a43d ce3e 83c0 fbbd 315a ca3e a5e0 cf3e
000002e0: bbf3 523e a914 efbd ce05 2dbf dd88 173f
000002f0: db71 a73c 1cfc 753e 8157 7ebe 2c23 b23e
00000300: 39e4 a53d 5b81 c4be f224 5bbe 27aa 42bd
00000310: e597 173f cff2 903d d535 f0be e8e5 c6be
00000320: cd2b 433f b6d3 283e b7ff 8dbe b8ac 863f
00000330: b31b 813e e619 803f 36ba 54bd a536 36bf
00000340: d331 6b3d 1bd5 0dbf 8810 2c3f 644f 303f
00000350: 706a cdbd 15aa 0c3f 464e bf3d 90a2 963e
00000360: 5baf 19bf 1ad5 8d3b 6719 313e cb67 ff3d
00000370: 7171 b43e fae5 e1bd 5a27 0e3e 6920 b43c
00000380: 36b4 d6be d12b 8e3f b09b 32bf b4d3 bf3e
00000390: 784d dd3e b47b 1ebe aa52 0e3e 7465 dd3d
000003a0: d75f 1abe ea9d f33c 6ea8 603f f9a0 253f
000003b0: 2f57 20bf c386 cdbe dcd6 573d 471d 973f
000003c0: 8757 c53d 9013 863e 7c5b d7be 92f1 133e
000003d0: 1ba1 bcbe 23d3 18be afc6 613f 815b d9be
000003e0: 6bb9 debe 2637 663e 39df 153e 694a b23e
000003f0: eda4 d5be 7f0a 5abf 3de7 643d 78fe c5be

lins.0.bias f4 [256]
-0.22571948 -0.21224713 -0.043015014 -0.020597655 -0.3461018 -0.42000592 -0.35181743 -0.08873091
0.0002911579 -0.31886905 -0.115054585 -0.020666502 -0.26203108 -0.14853759 -0.41895896 -0.28055343
-0.23011209 -0.29548815 -0.4085407 -0.07573687 -0.34368354 -0.04984808 -0.05343711 -0.10336663
-0.21776919 -0.39353597 -0.15523335 -0.24851315 -0.16035786 -0.22657627 -0.03471452 -0.094899125
-0.10366622 -0.24003108 -0.18680906 0.011731963 0.045755304 -0.20538606 -0.4865625 -0.32372266
-0.35143888 -0.38931355 -0.27567834 -0.11915027 -0.34828886 -0.23596913 -0.2846642 -0.09063796
-0.42162693 -0.23571406 -0.018413486 -0.20215683 -0.3539378 -0.11390802 0.17087306 0.049209446
-0.27067545 -0.12850544 0.13628462 -0.2869596 -0.15848356 -0.31874162 0.043649845 0.039377674
-0.0936492 -0.10685281 -0.29664034 -0.0035214168 -0.061826307 -0.25556356 0.01028953 -0.36284196
-0.3361401 -0.24516474 0.01791034 -0.068447664 0.007452903 -0.07494532 -0.20068425 -0.14240777
-0.22857304 -0.18442404 -0.27479213 -0.11743833 -0.13788904 -0.018404853 -0.19187646 -0.4428428
-0.27201223 0.034494247 0.046811577 -0.31281644 -0.16243885 -0.11215143 -0.022165313 0.057785314
0.31225693 -0.511065 -0.27965176 -0.29266912 -0.19386293 -0.27001846 -0.33791262 -0.1432207
-0.3748161 0.0016187602 -0.3240743 -0.19676334 -0.1426539 -0.40391377 -0.38132203 -0.29336774
-0.28164557 -0.2284196 -0.050900146 -0.1070058 -0.011168532 -0.34624076 0.17486176 -0.39253518
-0.35706294 0.13031536 -0.327538 -0.24588238 -0.04278837 -0.052210305 -0.31984222 -0.16274823
-0.047331043 -0.2553363 -0.13065174 -0.13874461 0.036118716 -0.14162546 -0.07213209 -0.31339228
-0.36703098 -0.22180016 -0.21732631 -0.40646407 0.15567704 -0.32162443 -0.05240556 -0.03156063
0.014131243 -0.18294147 -0.45237508 -0.30029055 -0.32076323 -0.5883554 0.004670116 -0.086075224
-0.23852825 0.002071928 -0.12067371 -0.25385788 -0.18307759 -0.11026004 -0.58073574 -0.25864992
-0.32482478 -0.10792168 -0.29391313 -0.2832254 -0.38002223 -0.1930457 -0.19817084 -0.117608055
-0.13120657 -0.28420907 -0.04186837 -0.21724579 -0.30565172 0.006062614 -0.30648696 -0.12824388
-0.20176049 -0.45405683 -0.46268827 -0.17997076 -0.15528765 -0.42230457 -0.51113963 -0.2939632
-0.24235748 -0.09553019 0.06103759 -0.23184034 -0.15672407 -0.32056347 -0.18108113 -0.2320444
-0.2801563 -0.30951774 -0.21709292 -0.17295614 -0.101775795 -0.07589628 -0.12288875 -0.054983597
-0.0927425 -0.07286811 0.21181257 -0.50728774 -0.21711867 -0.18002933 -0.14963612 -0.31703204
-0.4129907 -0.25237292 -0.22847858 -0.42721435 -0.25749868 -0.08145142 -0.058447976 -0.1570117
-0.1371166 -0.22601634 -0.0786653 -0.20093238 -0.13680638 -0.19870107 -0.3600234 -0.23395585
-0.20800789 0.0041818316 -0.095078334 -0.28013068 -0.32773563 -0.22942841 -0.18440558 -0.27228737
-0.2929024 -0.5134663 -0.17205599 -0.34085622 -0.28562063 -0.0774591 -0.12898365 -0.40385327
-0.42873618 -0.3149223 -0.093659356 -0.22305371 -0.19252056 -0.36226377 -0.25914705 -0.31442773
0.031934228 -0.12903981 -0.25048304 -0.3320077 -0.22874139 -0.1757159 -0.18979898 -0.18394393
00000000: 0223 67be 5057 59be 8330 30bd 6abc a8bc
00000010: 4134 b1be 040b d7be 6a21 b4be 8db8 b5bd
00000020: 8da6 9839 ce42 a3be bda1 ebbd cc4c a9bc
00000030: f028 86be 3d1a 18be ca81 d6be b3a4 8fbe
00000040: 81a2 6bbe 394a 97be 3f2c d1be ef1b 9bbd
00000050: 4af7 afbe 802d 4cbd dfe0 5abd e2b1 d3bd
00000060: e3fe 5ebe 8c7d c9be 7ef5 1ebe 3b7a 7ebe
00000070: da34 24be 9c03 68be d030 0ebd 795a c2bd
00000080: f54e d4bd b5ca 75be e04a 3fbe 6b37 403c
00000090: ea69 3b3d b950 52be b81e f9be fabe a5be
000000a0: ccef b3be 1b54 c7be b625 8dbe 0f05 f4bd
000000b0: eb52 b2be e4a1 71be 82bf 91be 65a0 b9bd
000000c0: 7cdf d7be 075f 71be e1d7 96bc 3302 4fbe
000000d0: 5637 b5be 9c48 e9bd 59f9 2e3e d88f 493d
000000e0: f995 8abe ee96 03be 328e 0b3e 5eec 92be
000000f0: 8449 22be 1a32 a3be 2eca 323d 7c4a 213d
00000100: 27cb bfbd a5d5 dabd 3ee1 97be 92c7 66bb
00000110: 953d 7dbd 3ad9 82be 6b95 283c 6cc6 b9be
00000120: 8e1a acbe 770c 7bbe b5b8 923c 4a2e 8cbd
00000130: 7b37 f43b ef7c 99bd 2c80 4dbe 58d3 11be
00000140: 0d0f 6abe a8d9 3cbe 8eb1 8cbe 8283 f0bd
00000150: c932 0dbe c6c5 96bc 437b 44be 4bbc e2be
00000160: 3045 8bbe d749 0d3d 7fbd 3f3d 7a29 a0be
00000170: 5f56 26be a6af e5bd 0894 b5bc 4bb0 6c3d
00000180: 24e0 9f3e 28d5 02bf 842e 8fbe bad8 95be
00000190: 0184 46be dc3f 8abe e202 adbe 72a8 12be
000001a0: e5e7 bfbe 942c d43a 11ed a5be 547c 49be
000001b0: dd13 12be c9cd cebe a43c c3be 4c34 96be
000001c0: d933 90be d4e6 69be ac7c 50bd db25 dbbd
000001d0: 38fc 36bc 7846 b1be f60e 333e 5ffa c8be
000001e0: f4d0 b6be 6471 053e 10b3 a7be 97c8 7bbe
000001f0: dc42 2fbd 79da 55bd 5cc2 a3be 79a7 26be
00000200: 32de 41bd 71bb 82be 92c9 05be 1113 0ebe
00000210: 38f1 133d 4406 11be fdb9 93bd f474 a0be
00000220: 7ceb bbbe 951f 63be ca8a 5ebe 0f1c d0be
00000230: cd69 1f3e f5ab a4be 36a7 56bd b845 01bd
00000240: bb86 673c 0255 3bbe b59d e7be afbf 99be
00000250: 143b a4be 769e 16bf c607 993b 3548 b0bd
00000260: c040 74be 2fc9 073b c723 f7bd a9f9 81be
00000270: b178 3bbe 04d0 e1bd 19ab 14bf c36d 84be
00000280: 6f4f a6be 0b06 ddbd c87b 96be eb02 91be
00000290: 4692 c2be c6ad 45be 4ced 4abe 7edc f0bd
000002a0: 045b 06be da83 91be 2b7e 2bbd ae75 5ebe
000002b0: 627e 9cbe e4a8 c63b dceb 9cbe 5d52 03be
000002c0: 4d9a 4ebe 237a e8be 7ae5 ecbe 414a 38be
000002d0: ba03 1fbe 4e38 d8be 0cda 02bf 5882 96be
000002e0: 8f2c 78be 55a5 c3bd 8d02 7a3d 8e67 6dbe
000002f0: 467c 20be e520 a4be 556d 39be 0c9d 6dbe
00000300: a670 8fbe 1c79 9ebe 9b4d 5ebe 6a1b 31be
00000310: d46f d0bd 826f 9bbd 19ad fbbd 7b36 61bd
00000320: c8ef bdbd e03b 95bd 65e5 583e 9cdd 01bf
00000330: 5b54 5ebe 9c59 38be 363a 19be 0652 a2be
00000340: 8473 d3be 0637 81be 4af6 69be d7bb dabe
00000350: ded6 83be 01d0 a6bd 2567 6fbd adc7 20be
00000360: 4b68 0cbe d470 67be 461b a1bd 38c1 4dbe
00000370: f916 0cbe 4b78 4bbe fd54 b8be 1f92 6fbe
00000380: 0500 55be bf07 893b 6eb8 c2bd 4a6d 8fbe
00000390: f7cc a7be 48ef 6abe d1d4 3cbe 4069 8bbe
000003a0: 4ef7 95be 8772 03bf 722f 30be b584 aebe
000003b0: de3c 92be e0a2 9ebd 4a14 04be dbc5 cebe
000003c0: 4f83 dbbe 7f3d a1be 7ad0 bfbd 3168 64be
000003d0: 1c24 45be a37a b9be ecae 84be acfc a0be
000003e0: 77cd 023d 0323 04be 503f 80be eafc a9be
000003f0: 2f3b 6abe deee 33be aa5a 42be cc5b 3cbe

lins.1.weight f4 [256, 256]
0.39152312 0.0137208225 0.47166905 -0.34367204 0.07118002 -0.41430205 0.14534923 -0.31951204
-0.16217491 -0.39432934 -0.34714046 0.57642764 -0.7629832 -0.1829607 -0.29634497 -1.3079131
0.17932844 -0.3430711 -0.38229343 0.04480048 -0.7663816 0.2809849 0.46867412 -0.58975255
-0.043427847 -0.26395082 -0.1512584 -0.93302876 0.6843433 0.01147751 -0.7883876 0.099656045
-0.45223525 -0.39168635 -0.6105256 0.15374485 0.09676636 -0.45413116 0.24376932 -0.29665065
-0.58384943 0.83834964 -0.6977046 0.3685818 -0.47639984 0.7624532 0.2979067 -0.22786656
-0.4690193 0.67780185 0.13350317 -0.29677206 0.18726121 0.6205667 -0.43258452 -0.15702553
0.41744736 1.4057398 -0.016220141 -0.55887413 -0.46565568 -0.33586067 -0.4659395 0.21841179
-0.37439898 0.071904875 0.005500754 0.1418757 -0.20710064 1.3366427 -0.10210392 -0.36942095
-0.20528023 -0.7412833 0.16743137 0.5365713 -0.09370256 0.048409723 -0.20563468 0.28007358
-0.64540994 -0.36001724 0.12581186 0.23341385 -1.1149266 0.11941799 -0.020251747 1.2425188
0.13812558 -0.08699962 -0.4768995 0.10029245 -0.67756444 0.23082903 0.7922827 0.079137854
-0.5806262 0.43474796 -0.1059654 -0.29221022 0.6464143 -0.48936507 0.29187834 -0.5365421
-0.6114745 -0.5072449 -0.22400565 0.4667023 0.3899884 0.03905227 -0.038627688 0.26589042
-0.4815631 0.360695 -0.17455594 0.111454695 0.051458504 0.2396992 0.12895247 0.9998115
-0.41795608 0.22117616 0.048884764 0.7871957 -0.22333476 0.06529363 0.07146095 -0.3786189
0.3187469 -0.04393906 0.48472017 -0.5184119 -0.8296607 0.51143557 0.01637251 -0.02889378
1.3806478 0.1696126 0.62889814 -0.20207049 0.30947363 -0.21382785 0.4122016 0.1657779
0.36739576 0.2597617 0.42423144 0.281651 -0.11267235 0.010706321 -0.41991845 0.09699064
0.5001891 0.41011828 -0.48858085 -0.65375996 0.127519 -0.19811064 0.14144921 -0.3772694
0.009410648 -0.024437971 0.4696267 -0.38590878 -0.130902 0.3538939 -0.48081586 -0.20324314
-0.17120792 -0.19002785 0.043412823 0.2978616 0.27394444 0.4592807 0.3063055 -0.8530564
-0.3533391 0.6426305 -0.3749485 0.23961066 0.004525993 0.10679728 0.077312894 -0.364803
0.21836364 -0.5501266 -0.2981374 0.109572686 0.54153574 -0.24177772 -1.0705975 -0.49434707
-0.24475722 -0.016884804 0.37266886 -0.06120974 0.21749574 -0.1915442 0.47205532 0.028743856
-0.1917646 -0.13995159 -0.0340978 0.09752449 -0.18065104 0.75048256 -0.51020056 -0.86686575
0.5098338 -0.63178426 -0.086624764 -0.46100163 0.1293008 0.45701757 -0.5212761 -0.34010625
0.48687908 0.08156357 0.55814576 0.39610675 0.30798542 -0.7809942 -0.902534 0.709118
-0.10057387 -0.38724518 0.56536704 0.039497886 0.8340628 -0.6112163 0.4203936 0.3209563
-0.10960406 0.27641344 0.4548317 -0.5898687 -0.032351885 -0.758314 0.17539057 -0.36498904
-0.605228 -0.040325284 0.20279796 -0.24861981 0.56316996 0.68209493 0.370808 0.30090424
0.16163848 0.026398929 0.27877387 0.47934413 0.15268208 0.7543748 -0.61144495 0.14440161
00000000: b875 c83e 4dcd 603c 9b7e f13e c8f5 afbe
00000010: d5c6 913d 661f d4be 6ed6 143e 1597 a3be
00000020: 2e11 26be 89e5 c9be 65bc b1be c390 133f
00000030: de52 43bf 0d5a 3bbe 87ba 97be b269 a7bf
00000040: e0a1 373e 04a7 afbe f7bb c3be b580 373d
00000050: 9631 44bf 41dd 8f3e 0ef6 ef3e 06fa 16bf
00000060: 66e1 31bd 9024 87be 7be3 1abe f9da 6ebf
00000070: 1f31 2f3f 2b0c 3c3c c5d3 49bf 7818 cc3d
00000080: 618b e7be 1d8b c8be 684b 1cbf 4a6f 1d3e
00000090: 712d c63d e183 e8be aa9e 793e 98e2 97be
000000a0: 2877 15bf 159e 563f c59c 32bf c1b6 bc3e
000000b0: aeea f3be 2230 433f 3a87 983e da55 69be
000000c0: 4c23 f0be 6c84 2d3f 0eb5 083e 82f2 97be
000000d0: 67c1 3f3e 76dd 1e3f b87b ddbe 4dcb 20be
000000e0: a9bb d53e 48ef b33f 1ae0 84bc 6012 0fbf
000000f0: 6c6a eebe eef5 abbe 9f8f eebe 57a7 5f3e
00000100: 39b1 bfbe dd42 933d ab3f b43b dd47 113e
00000110: 3112 54be 1c17 ab3f dc1b d1bd be24 bdbe
00000120: fb34 52be bec4 3dbf 2173 2b3e bd5c 093f
00000130: 21e7 bfbd 4649 463d e691 52be ce65 8f3e
00000140: 9639 25bf 2e54 b8be d3d4 003e 0a04 6f3e
00000150: eab5 8ebf 6b91 f43d fee6 a5bc db0a 9f3f
00000160: cb70 0d3e db2c b2bd 2c2c f4be 2166 cd3d
00000170: dd74 2dbf 725e 6c3e 0ad3 4a3f 0713 a23d
00000180: eba3 14bf 4997 de3e 6304 d9bd 949c 95be
00000190: 687b 253f 0f8e fabe 1471 953e d35a 09bf
000001a0: 9889 1cbf cdda 01bf bd61 65be 9bf3 ee3e
000001b0: 8fac c73e 46f5 1f3d 1138 1ebd ca22 883e
000001c0: 708f f6be 04ad b83e cbbe 32be 5c42 e43d
000001d0: 27c6 523d b573 753e 1e0c 043e a5f3 7f3f
000001e0: 57fe d5be 017c 623e 643b 483d a885 493f
000001f0: deb1 64be abb8 853d 1e5a 923d 56da c1be
00000200: cb32 a33e 72f9 33bd 3e2d f83e a4b6 04bf
00000210: a564 54bf 71ed 023f a41f 863c a6b2 ecbc
00000220: 11b9 b03f edae 2d3e 78ff 203f 91eb 4ebe
00000230: 5473 9e3e b0f5 5abe 170c d33e afc1 293e
00000240: 4c1b bc3e 7cff 843e dd34 d93e 8f34 903e
00000250: c3c0 e6bd 9169 2f3c 8dff d6be 07a3 c63d
00000260: 650c 003f 06fb d13e 4527 fabe d05c 27bf
00000270: 5794 023e 84dd 4abe 10d8 103e 7429 c1be
00000280: 1e2f 1a3c 2432 c8bc e972 f03e d695 c5be
00000290: 2d0b 06be 9531 b53e 7f2d f6be f81e 50be
000002a0: 2151 2fbe a996 42be a5d1 313d 5181 983e
000002b0: 7242 8c3e d726 eb3e 13d4 9c3e e761 5abf
000002c0: dde8 b4be 6f83 243f 40f9 bfbe 7f5c 753e
000002d0: c84e 943b 88b8 da3d 3956 9e3d 75c7 babe
000002e0: b89a 5f3e 19d5 0cbf 77a5 98be a567 e03d
000002f0: 16a2 0a3f 9494 77be 5709 89bf 0f1b fdbe
00000300: a3a1 7abe 0052 8abc 74ce be3e 10b7 7abd
00000310: 34b7 5e3e 2a24 44be 3cb1 f13e 3c78 eb3c
00000320: f05d 44be 784f 0fbe 22aa 0bbd ebba c73d
00000330: 96fc 38be a01f 403f 819c 02bf eaea 5dbf
00000340: 7884 023f 9dbc 21bf 5368 b1bd 6808 ecbe
00000350: 6e67 043e 35fe e93e 5a72 05bf 6822 aebe
00000360: 3748 f93e cd0a a73d a4e2 0e3f 81ce ca3e
00000370: 44b0 9d3e 3cef 47bf 780c 67bf c288 353f
00000380: acf9 cdbd 0045 c6be e5bb 103f 89c8 213d
00000390: 2485 553f ac78 1cbf d43d d73e 6254 a43e
000003a0: 1878 e0bd 1086 8d3e b3df e83e a301 17bf
000003b0: 6983 04bd de20 42bf 9699 333e d8df babe
000003c0: 39f0 1abf 202c 25bd 45aa 4f3e 3196 7ebe
000003d0: e82b 103f c69d 2e3f 8cda bd3e 1f10 9a3e
000003e0: 8f84 253e 9142 d83c 73bb 8e3e 986c f53e
000003f0: b158 1c3e b51e 413f a887 1cbf 04de 133e

lins.1.bias f4 [256]
0.5727356 0.0019997968 -0.54043955 0.18865179 0.06150593 -0.053921886 -0.6583033 -0.10324084
0.46243477 0.019889612 0.27413723 -0.33964726 0.20123836 -0.26025873 -0.26196167 0.57112634
0.068932034 -0.02174825 -0.058342535 0.16153261 -0.61476165 0.5577922 0.245692 0.09328848
0.64089674 0.016803619 -0.46705157 -0.84992856 0.4046398 -0.4207547 -0.004722685 -0.26375908
-0.17584091 -0.03302157 0.08430186 0.86188334 0.33537918 -0.49318138 -0.16808824 -0.2865872
0.1696846 0.035834283 -0.8573729 0.42433196 0.307951 -0.3045608 0.28405184 0.05442243
-0.3468216 -0.5276007 0.041315544 -0.20351578 0.5222277 0.4055672 0.29029644 0.38262096
0.35131338 0.26264745 0.55127066 0.042356186 0.253418 0.46335742 -0.07627405 0.00505782
1.0831059 -0.19069676 0.03591818 -0.46020475 -0.09117276 -0.14465927 -0.8249284 0.033824954
-0.08534353 -0.16517687 -0.30641901 0.2560642 0.039725326 0.26185295 0.20822993 0.50507337
-0.01746281 -0.007270584 -0.41958383 -0.39986774 -0.70245266 0.5252896 0.45308766 -0.26734722
-0.11912398 0.4866002 -1.1356369 0.28503308 -0.015101068 0.27374762 -0.74644774 0.038013056
-0.5221413 -0.7859278 0.42501047 -0.4977878 -0.31172055 0.054429293 -0.4881459 0.30760452
-0.21757686 -0.10895119 -0.39148033 -0.34318468 0.38313273 0.5371568 -0.18298908 -0.09194401
0.073405005 -0.1561335 -0.007589244 -0.5802957 -0.2188992 0.08011845 -0.30236724 0.17720287
0.22312996 0.08841284 0.24320959 0.16309875 -0.12234722 0.41994986 -0.60617244 -0.7390201
-0.08740791 -0.6721855 -0.058490828 0.18998364 -0.019461423 0.52773017 1.1092236 -0.56654704
-0.22377515 -0.021493154 -0.23873845 0.13968934 -0.17158005 -0.5115348 0.027430397 -0.088830225
0.44458818 -0.11935836 -0.08104888 0.18649627 0.35527912 0.3557611 -0.02923867 0.115001425
-0.09427309 -0.5287545 -0.41948283 0.5689212 -0.48663318 -0.03395555 -0.72441024 0.02347555
0.5922719 -0.14390674 -0.34377685 0.6458778 -1.2369032 0.19893116 0.23564334 -0.084512286
-0.11783513 0.49780574 0.42815477 -0.23394333 -0.4621216 0.51850975 -0.13969836 -0.14730826
-0.19389878 -0.2282304 -0.6865443 -0.14615005 0.62604916 0.60921407 -0.5198807 -0.4046446
0.041336928 -0.10119431 0.63632584 0.15222329 -0.31851557 -0.15734293 -0.3734848 0.20332482
0.09696186 0.045311853 0.004811311 0.6002858 -0.06564156 0.28437787 -0.25993723 0.0056134276
0.36995563 -0.0010181569 -0.52624243 0.4532714 0.29244524 -0.25889075 0.38695562 -0.28135976
-0.24558438 0.07891772 0.55480665 -0.14762676 -0.19321978 0.16941726 -0.56115973 0.55059195
0.034615666 -0.86498934 -0.13016243 -0.4192482 0.55787736 -0.21213163 0.1607905 -0.00045002782
0.1558319 0.4801854 -0.35275367 0.024805674 0.20198634 -0.2719919 -0.26908237 0.009236235
-0.61044186 -0.11308038 -0.09282833 0.73355794 0.12638362 -0.14071134 0.35703292 -0.65581304
-0.4332194 0.47935233 -0.3745939 -0.46197984 0.45443663 0.4897002 0.813795 -0.32966867
-0.083118305 -0.08623252 -0.31979343 0.33097643 0.37603906 -0.45195422 -0.21199733 -0.3332772
00000000: cd9e 123f 060f 033b 3f5a 0abf ef2d 413e
00000010: a4ed 7b3d 32dd 5cbd 9186 28bf ef6f d3bd
00000020: 40c4 ec3e 8aef a23c b75b 8c3e 3fe6 adbe
00000030: 6e11 4e3e a240 85be d71f 86be 5635 123f
00000040: 3d2c 8d3d 6329 b2bc 95f8 6ebd ce68 253e
00000050: 0561 1dbf 78cb 0e3f af96 7b3e 080e bf3d
00000060: cf11 243f bea7 893c 6221 efbe eb94 59bf
00000070: f32c cf3e 296d d7be c1c0 9abb 6e0b 87be
00000080: a40f 34be a041 07bd 74a6 ac3d 63a4 5c3f
00000090: d2b6 ab3e 4582 fcbe 531f 2cbe 8fbb 92be
000000a0: cdc1 2d3e f8c6 123d ca7c 5bbf 0a42 d93e
000000b0: c1ab 9d3e 65ef 9bbe 3e6f 913e 0eea 5e3d
000000c0: 9a92 b1be d710 07bf 7d3a 293d 7166 50be
000000d0: b7b0 053f 81a6 cf3e bca1 943e e5e6 c33e
000000e0: 59df b33e ba79 863e 1320 0d3f ae7d 2d3d
000000f0: 01c0 813e 2f3d ed3e 9235 9cbd 12bc a53b
00000100: 37a3 8a3f 0346 43be f11e 133d f59f ebbe
00000110: c9b8 babd 8f21 14be 822e 53bf 098c 0a3d
00000120: 97c8 aebd 2024 29be f4e2 9cbe d91a 833e
00000130: 06b7 223d 9711 863e 3a3a 553e 7d4c 013f
00000140: 2b0e 8fbc 143e eebb b1d3 d6be 77bb ccbe
00000150: f0d3 33bf 6179 063f 1bfb e73e bce1 88be
00000160: 46f7 f3bd a923 f93e 8d5c 91bf dbef 913e
00000170: 786a 77bc a628 8c3e 3317 3fbf 94b3 1b3d
00000180: 0dab 05bf 9032 49bf f99a d93e 0bde febe
00000190: d699 9fbe 40f1 5e3d 42ee f9be 577e 9d3e
000001a0: 78cc 5ebe cd21 dfbd 1c70 c8be e7b5 afbe
000001b0: f929 c43e 1c83 093f 7d61 3bbe 244d bcbd
000001c0: 5d55 963d 76e1 1fbe 31af f8bb 428e 14bf
000001d0: 1d27 60be 2415 a43d e1cf 9abe ab74 353e
000001e0: 2e7c 643e cb11 b53d ef0b 793e 5c03 273e
000001f0: 2e91 fabd ab03 d73e 1e2e 1bbf 6c30 3dbf
00000200: eb02 b3bd 5914 2cbf 1494 6fbd 128b 423e
00000210: 906d 9fbc 5319 073f 0afb 8d3f 3a09 11bf
00000220: 5025 65be 6912 b0bc da77 74be b90a 0f3e
00000230: aeb2 2fbe f2f3 02bf b6b5 e03c 9fec b5bd
00000240: 10a1 e33e 2872 f4bd f5fc a5bd e1f8 3e3e
00000250: 25e7 b53e 5226 b63e ef85 efbc de85 eb3d
00000260: 4012 c1bd 745c 07bf 74c6 d6be d2a4 113f
00000270: fc27 f9be fa14 0bbd f372 39bf cc4f c03c
00000280: 229f 173f 4a5c 13be 8503 b0be 3f58 253f
00000290: d852 9ebf 9cb4 4b3e 7d4c 713e c714 adbd
000002a0: 8b53 f1bd 65e0 fe3e 1a37 db3e d78e 6fbe
000002b0: 349b ecbe 0ebd 043f 160d 0fbe fad7 16be
000002c0: 678d 46be 3bb5 69be 5ec1 2fbf 5ca8 15be
000002d0: c244 203f 74f5 1b3f e716 05bf 942d cfbe
000002e0: e950 293d f63e cfbd 40e6 223f 6ce0 1b3e
000002f0: 7914 a3be 811e 21be 6639 bfbe 6234 503e
00000300: f193 c63d ec98 393d 34a8 9d3b 55ac 193f
00000310: 156f 86bd fa99 913e 7e16 85be d8f0 b73b
00000320: d36a bd3e ad73 85ba d3b7 06bf 3013 e83e
00000330: 62bb 953e 548d 84be 0c1f c63e 630e 90be
00000340: 797a 7bbe 9d9f a13d cf07 0e3f 782b 17be
00000350: 68db 45be b87b 2d3e 2aa8 0fbf 98f3 0c3f
00000360: 28c9 0d3d f16f 5dbf 4d49 05be b3a7 d6be
00000370: 0dd1 0e3f 0939 59be 44a6 243e b6f1 ebb9
00000380: 6692 1f3e dcda f53e 219c b4be 4535 cb3c
00000390: 82d5 4e3e 8642 8bbe 2ac5 89be 9453 173c
000003a0: eb45 1cbf b096 e7bd c81c bebd 74ca 3b3f
000003b0: b56a 013e a216 10be 05cd b63e 5de3 27bf
000003c0: efce ddbe ab6d f53e c6ca bfbe 9f88 ecbe
000003d0: ebab e83e fcb9 fa3e de54 503f 55ca a8be
000003e0: ee39 aabd ad9a b0bd f7bb a3be be75 a93e
000003f0: 3188 c03e 8b66 e7be d415 59be 4fa3 aabe
