CF/Computer_LP/MLP_predictor.pt (torch, 266408 bytes, 3 tensors)

lins.0.weight f4 [256, 256]
0	0x3f388c9a	0.7208954
1	0xbfa41926	-1.2820175
2	0x3e81d247	0.2535574
3	0x3e14b1a1	0.14520885
4	0xbf19ded7	-0.6010565
5	0xbf5db5d2	-0.8660556
6	0xbf321533	-0.695636
7	0xbe8eba44	-0.27876484
8	0xbf9b0f51	-1.2114049
9	0x3d4c0395	0.049808104
10	0xbf23f595	-0.64046603
11	0xbe18c4ed	-0.14918871
12	0x3f7609e2	0.9610883
13	0xbf06c78d	-0.5264824
14	0x3f410c38	0.7540927
15	0xbf90133a	-1.1255867
16	0xbf05aaaf	-0.5221357
17	0x3d11a662	0.035559066
18	0xbf0e9120	-0.55690193
19	0x3e3870ef	0.18011831
20	0x3e49655f	0.19667576
21	0x3ea60f83	0.3243371
22	0x3edf50b2	0.43616253
23	0xbec9ab0c	-0.3938831
24	0x3eefcaa7	0.468343
25	0xbecc0ede	-0.39855093
26	0xbd84c613	-0.06483092
27	0xbf13a2b6	-0.5767015
28	0xbf6adda1	-0.9174443
29	0xbed5bde2	-0.41746432
30	0xbe1d3176	-0.15350899
31	0xbeea8e68	-0.45811772
32	0x3e1e02d3	0.15430765
33	0x3edf5ee4	0.43627083
34	0x3e352095	0.1768821
35	0xbedcc352	-0.43117768
36	0xbe41da56	-0.18930945
37	0xbfa9e927	-1.3274277
38	0x3ef2d2d0	0.47426462
39	0x3e087bf3	0.13328533
40	0xbe4db3dc	-0.20088142
41	0xbe3b2131	-0.1827438
42	0xbe5f2a50	-0.21793485
43	0xbf880622	-1.0626872
44	0x3e6d42ca	0.2317001
45	0x3eee992b	0.46601233
46	0xbf2048c2	-0.6261102
47	0x3dedad10	0.11605275
48	0xbf62dae2	-0.8861524
49	0xbf289bcc	-0.6586273
50	0xbcfe732f	-0.031060783
51	0xbf0335f1	-0.51254183
52	0x3edef25d	0.43544284
53	0x3eb0e40f	0.34548995
54	0xbd540aca	-0.0517681
55	0xbe3f3dfb	-0.18675987
56	0xbf8edc5c	-1.1160998
57	0xbf04067f	-0.5157241
58	0x3e09f57c	0.13472551
59	0x3f96a38e	1.1768663
60	0xbf29afbc	-0.66283774
61	0xbcb82927	-0.02248056
62	0xbea16943	-0.3152562
63	0xbf4c7374	-0.7986367
64	0xbd6f6273	-0.058443498
65	0xbd8b7ada	-0.068105415
66	0xbec9682b	-0.39337286
67	0xbf92357c	-1.1422572
68	0xbf088472	-0.53327096
69	0xbdd3769d	-0.10325358
70	0xbe3eaf7f	-0.18621634
71	0x3f122a3e	0.57095706
72	0x3e269c5a	0.16270581
73	0x3ee8c99e	0.45466322
74	0x3ee95b63	0.45577535
75	0x3f2fc1dc	0.6865518
76	0xbe4e3b75	-0.20139869
77	0x3d497356	0.04918226
78	0x3e7da257	0.24768959
79	0x3f4e2419	0.8052383
80	0xbe439a38	-0.19101799
81	0x3e785379	0.24250592
82	0x3eb103b1	0.3457313
83	0xbe88bf5c	-0.26708496
84	0xbf27c6d8	-0.65537786
85	0xbea77f10	-0.32714128
86	0x3ea8d84e	0.32977527
87	0xbf468bb3	-0.77556914
88	0xbe3c00fc	-0.1835975
89	0xbd8bcf50	-0.06826651
90	0xbe89fb9a	-0.2694977
91	0x3f86b2a2	1.0523264
92	0x3ec6d72a	0.38836032
93	0xbedcec37	-0.43148968
94	0xbfd94eaf	-1.6977137
95	0x3e7e9b88	0.24864018
96	0xbfa83d9c	-1.3143802
97	0x3bfea31a	0.007770908
98	0x3ecaa2f9	0.39577463
99	0x3f3095ee	0.68978775
100	0xbf71fd43	-0.9452707
101	0x3f00ad9c	0.50264907
102	0x3bb57916	0.005538116
103	0xbe119e68	-0.14220583
104	0x3d972b82	0.07381345
105	0xbfc6832d	-1.5508782
106	0xbee3b2b8	-0.4447229
107	0xbfdf29c2	-1.7434618
108	0x3f336edc	0.70091033
109	0x3f03eb9b	0.5153138
110	0x3f0c6b2a	0.5485102
111	0x3f5745bd	0.8409079
112	0xbf87162e	-1.0553644
113	0x3da70e5d	0.081570365
114	0xbe92cbb0	-0.28671026
115	0xbd4701ff	-0.048585888
116	0x3dfeea7b	0.12447067
117	0x3dcddaaa	0.100514725
118	0x3f6b3ba7	0.918879
119	0x3f38c277	0.7217173
120	0x3e8b53ec	0.27212465
121	0x3eb9e1f9	0.36305216
122	0x3e46c25f	0.19410084
123	0xbf1acd11	-0.60469157
124	0xbe6690f4	-0.22516233
125	0x3fb8c3f6	1.4434803
126	0x3ea3ca44	0.31990254
127	0xbe757ae6	-0.23972663
128	0xbd92f268	-0.071751416
129	0x3e9fecbe	0.31235307
130	0xbf6c4c81	-0.92304236
131	0x3eb82d3f	0.3597202
132	0xbf3de0ec	-0.7417133
133	0xbf1330dd	-0.57496434
134	0x3e7697ba	0.24081317
135	0xbd185349	-0.037188802
136	0xbf164a62	-0.5870725
137	0xbeff4c36	-0.49862832
138	0xbf14e433	-0.58160704
139	0xbf07344d	-0.5281418
140	0x3e95b26f	0.29237697
141	0xbf5a0ea7	-0.8517861
142	0x3e26eac4	0.16300493
143	0xbc93dd7c	-0.018049948
144	0x3e859fe4	0.2609855
145	0x3deaff17	0.11474436
146	0x3e186e0f	0.14885734
147	0xbedeca2a	-0.43513614
148	0x3ed4a303	0.41530618
149	0xbf249d10	-0.6430216
150	0xbde6ad6b	-0.112635456
151	0xbf6079f6	-0.876861
152	0x3f867e3b	1.0507272
153	0xbd804324	-0.06262806
154	0xbda530c5	-0.08065943
155	0xbf471f7f	-0.77782434
156	0x3f2fe5a2	0.68709767
157	0x3f0dab6b	0.5533969
158	0xbefb1baa	-0.49044544
159	0x3e514674	0.20437032
160	0x3d5e576d	0.054282594
161	0xbe4a0165	-0.19727094
162	0xbd02ae4b	-0.0319045
163	0xbeb526db	-0.35381207
164	0x3cd16e22	0.02556521
165	0xbcded392	-0.027200494
166	0xbfb7a37a	-1.4346764
167	0xbed152c1	-0.4088345
168	0x3d6a9bc1	0.057277445
169	0xbdc666d8	-0.09687585
170	0xbe0cfb3e	-0.13767716
171	0xbf1aeba9	-0.6051584
172	0xbf3692ce	-0.71317756
173	0x3e72c527	0.2370802
174	0xbe8cb584	-0.27482235
175	0xbe840272	-0.25783116
176	0xbe48e274	-0.19617635
177	0x3f19d76f	0.6009435
178	0xbe6c9735	-0.23104556
179	0xbee77060	-0.45202923
180	0x3e356617	0.17714725
181	0x3d81f06f	0.06344687
182	0xbd8a63b3	-0.06757297
183	0x3f479094	0.77954984
184	0xbf312f60	-0.69212914
185	0x3eda7cc4	0.42673314
186	0xbf8bb4f7	-1.0914601
187	0x3e8be359	0.2732189
188	0xbff6f186	-1.9292457
189	0xbf38931b	-0.72099465
190	0x3ee58062	0.4482451
191	0xbe8d917e	-0.27650064
192	0x3e030d2a	0.1279799
193	0xbfaa80a1	-1.3320504
194	0x3f026f54	0.50951123
195	0x3f56676c	0.8375156
196	0xbe87b7ab	-0.26507315
197	0x3d3e65d2	0.046483822
198	0x3dfa41e9	0.122196026
199	0xbd873424	-0.06601742
200	0x3ef64501	0.4809952
201	0xbe64418d	-0.2229063
202	0xbf13bf90	-0.57714176
203	0x3d29bef9	0.04144189
204	0xbeecd638	-0.46257186
205	0xbe672aac	-0.22574872
206	0xbf91b254	-1.1382546
207	0xbd6ea953	-0.05826695
208	0xbdeb56a4	-0.11491135
209	0xbf6a363f	-0.9148902
210	0x3ebf2360	0.37331676
211	0xbf7f9bde	-0.9984721
212	0xbd87e80a	-0.06636055
213	0xbf9fef9d	-1.2494999
214	0xbe551792	-0.20809773
215	0x3f75bcd2	0.9599124
216	0xbefafa41	-0.49019054
217	0xbf1a6ae9	-0.6031938
218	0xbe3c18c9	-0.1836883
219	0x3e6c0266	0.2304779
220	0xbd955ce9	-0.07293112
221	0x3e28eb5e	0.16496035
222	0x3ec1022a	0.37696964
223	0x3f8916bf	1.0710067
224	0xbf39dbc5	-0.72600967
225	0x3d81649c	0.06318018
226	0x39db3c1c	0.0004181572
227	0xbd7f121f	-0.06227314
228	0x3e98997c	0.298046
229	0xbc4439a9	-0.011976638
230	0xbeb55e45	-0.35423484
231	0x3d8c1ed2	0.06841816
232	0xbf09e34c	-0.5386245
233	0xbfd908e9	-1.6955844
234	0x3f81ab21	1.0130349
235	0x3ed02090	0.40649843
236	0x3d571106	0.05250647
237	0x3f00eb65	0.50359184
238	0xbfa49796	-1.285876
239	0xbeba9530	-0.36441946
240	0x3d6eab79	0.058268998
241	0x3c8d056e	0.017214503
242	0xbe06cb65	-0.13163526
243	0xbf476dea	-0.7790209
244	0x3faae633	1.3351501
245	0x3f5e63f3	0.8687126
246	0x3e86768a	0.26262313
247	0x3c83d9e8	0.016095117
248	0xbf8ca924	-1.0989118
249	0xbec1b51c	-0.37833488
250	0xbe9003e1	-0.2812796
251	0x3f4c3717	0.7977156
252	0xbee8d2df	-0.45473382
253	0x3f0ec233	0.55765074
254	0xbf3cf934	-0.73817754
255	0xbd82fc84	-0.0639582

lins.0.bias f4 [256]
0	0xc0262376	-2.5959144
1	0xbfc12d4c	-1.5091949
2	0x3de49fdb	0.111633025
3	0xc0169c39	-2.353285
4	0xc05a3eb4	-3.410077
5	0x3e662a3d	0.2247705
6	0x3f22c381	0.63579565
7	0xc027ad4f	-2.619953
8	0x3f4c7da5	0.7987922
9	0xbe40df7b	-0.18835251
10	0x3f9ebe0f	1.2401751
11	0x3ebaa34e	0.36452717
12	0x3f117728	0.56822443
13	0xbe9a40f4	-0.3012768
14	0xbfc14112	-1.5097983
15	0x3f1be8c6	0.6090206
16	0x3f9d95a2	1.2311289
17	0xc049b396	-3.151586
18	0x3f8530e5	1.0405546
19	0x3fd9df64	1.7021298
20	0x3f497c4c	0.78705287
21	0xbff2db3d	-1.8973156
22	0xc05e45db	-3.4730136
23	0x3f4658ff	0.7747955
24	0x400439ad	2.0660203
25	0xc0147092	-2.3193707
26	0x3fe6f0d6	1.8042247
27	0xbf2f3ec4	-0.6845515
28	0xc046c29d	-3.1056283
29	0x3f4321ad	0.7622326
30	0xbf466255	-0.7749379
31	0x3fce3abf	1.6111678
32	0xc06137a6	-3.5190215
33	0xc005a3d2	-2.0881238
34	0xbf1b3682	-0.6063005
35	0xbf41b622	-0.7566854
36	0xc01af627	-2.421274
37	0x3fbf630e	1.4952104
38	0x3f176e7d	0.59152967
39	0x3e673716	0.22579607
40	0x3f15cece	0.58518684
41	0xc0460a2f	-3.0943716
42	0x400f40a8	2.2383213
43	0xbfa8ef4d	-1.3198029
44	0xc0184acb	-2.379565
45	0xbfc653a7	-1.5494279
46	0x3fcbccea	1.592191
47	0xbf0daada	-0.55338824
48	0xbf7446b7	-0.954204
49	0xbf9254bb	-1.1432108
50	0xbf05044a	-0.5195967
51	0x3feda632	1.8566344
52	0x3f052f88	0.5202565
53	0xbff518cb	-1.9148191
54	0xc05101e0	-3.2657394
55	0x4017bb7b	2.370818
56	0xbf32abc7	-0.6979336
57	0xbe74ddbb	-0.23912708
58	0xbe898d99	-0.26865843
59	0xc04f9325	-3.243356
60	0xbea852dd	-0.3287572
61	0x3fb00e54	1.3754373
62	0x3ec11a5e	0.3771543
63	0xbfe8b43e	-1.8180006
64	0x3f97d071	1.1860486
65	0xbf77fee8	-0.9687333
66	0x3f61a1bc	0.8813741
67	0x3fce5ac5	1.6121451
68	0xc05846ca	-3.3793206
69	0xbff85899	-1.9402038
70	0x3fbb12a1	1.461506
71	0x40387dcd	2.8826783
72	0xc078216f	-3.8770406
73	0x3f93ff84	1.1562352
74	0x3f5b0626	0.85556257
75	0xbfd6d709	-1.6784374
76	0x3fa7fcbe	1.3124006
77	0x3fd770b3	1.6831268
78	0xc03cb354	-2.9484453
79	0xc077b809	-3.8706076
80	0xbe0f82af	-0.14014696
81	0x3f5ddc52	0.8666431
82	0xc05cd0c5	-3.4502423
83	0xbe916901	-0.28400424
84	0xbfd9189e	-1.6960638
85	0xbf378629	-0.7168909
86	0xbfee6078	-1.862319
87	0xbf883c2a	-1.0643361
88	0xc01723e5	-2.3615658
89	0xc00f65c0	-2.2405853
90	0x3fb4afad	1.4116112
91	0x3fe9d3c5	1.8267752
92	0x40326911	2.7876627
93	0x40221ab8	2.5328808
94	0xc01d2c5f	-2.4558332
95	0x401a1bdc	2.4079504
96	0x3f98b2a7	1.192952
97	0xc00e0492	-2.219029
98	0xbf9ccf73	-1.2250808
99	0x3f74f913	0.9569256
100	0x3fadca61	1.3577386
101	0x40259f75	2.5878575
102	0x3f98bd0f	1.1932696
103	0x3f174a79	0.5909801
104	0x3f8d1570	1.1022167
105	0xbfb2ec06	-1.3978279
106	0xbf2b4d11	-0.6691447
107	0xc0375f3a	-2.8651872
108	0xbfe24332	-1.7676756
109	0x3fd1811c	1.6367526
110	0xbef9465b	-0.4868649
111	0xbf5d2b33	-0.8639404
112	0x3fe358bd	1.7761456
113	0x3f2c9c48	0.67425966
114	0xbf82381c	-1.0173373
115	0x3ffe4758	1.9865522
116	0x3f4b90bd	0.7951773
117	0x400360c5	2.0527813
118	0x3f39c8c6	0.7257198
119	0x3ef6172a	0.48064548
120	0x3f64cadc	0.8937204
121	0x3fac3dd4	1.3456368
122	0x400b864b	2.1800716
123	0xbf6e9ecd	-0.9321106
124	0x3ffc10ab	1.9692587
125	0xbfc791d1	-1.5591375
126	0xc003f08a	-2.0615563
127	0x4011f7d1	2.2807505
128	0xbf6429dc	-0.8912637
129	0xc0072008	-2.11133
130	0x3fef4078	1.8691549
131	0xbf17e4f8	-0.59333754
132	0x3f8aadf3	1.0834335
133	0x3ed910bc	0.4239558
134	0x3f1cddcf	0.61275953
135	0xbd1e4b9c	-0.038646325
136	0x3f81125b	1.0083727
137	0x401755af	2.3646047
138	0xbed52e9a	-0.41637117
139	0x3f000567	0.50008243
140	0xbf8569de	-1.0422933
141	0x3ecda86b	0.40167555
142	0x3f5baadb	0.8580758
143	0x3f2c2dde	0.6725749
144	0x402ca9c9	2.6978629
145	0x403619bb	2.8453205
146	0x3f57a8f1	0.8424216
147	0x3e9bc05b	0.30420193
148	0x403b5e32	2.9276242
149	0x401a2e52	2.4090772
150	0x400aaae7	2.166681
151	0xbf94adaf	-1.1615504
152	0xc01d441b	-2.4572818
153	0x3f27d736	0.6556276
154	0xc0197187	-2.3975542
155	0xc00365e5	-2.0530941
156	0x3f827191	1.0190908
157	0x3d90e607	0.07075124
158	0xbff6b002	-1.9272463
159	0x3fb6915c	1.426311
160	0x3fc14a73	1.5100845
161	0xc02c3ece	-2.6913333
162	0xbfd566f6	-1.6672046
163	0xbd532c5f	-0.051555987
164	0x3ec16af0	0.377769
165	0xc020d374	-2.512906
166	0x3fc4661f	1.5343665
167	0xc02fec1b	-2.7487857
168	0x3fcdb787	1.6071633
169	0x3e362822	0.17788747
170	0x400668b8	2.1001415
171	0x4014de10	2.3260536
172	0x40239c88	2.556429
173	0x3e81fea3	0.25389585
174	0xbfe309d6	-1.7737377
175	0x3f98b603	1.1930546
176	0x3f745c9d	0.95453817
177	0x3f477269	0.7790895
178	0x3efd6e1b	0.49498066
179	0x3fa87b50	1.3162632
180	0x3f4a1709	0.789414
181	0xc048a93f	-3.13533
182	0x405450d3	3.317433
183	0x3e9f99e5	0.311721
184	0x3fe608e6	1.7971466
185	0x3ef92fbb	0.48669228
186	0x3fb5d913	1.4206871
187	0xbfac36da	-1.3454239
188	0xbfb55e06	-1.4169319
189	0xc05ad0b6	-3.4189887
190	0x3ff1f563	1.8903011
191	0xbefc112b	-0.49231848
192	0xbec5c760	-0.38628674
193	0xc0524c21	-3.2858965
194	0xbfbcf055	-1.4760844
195	0x3e047f9b	0.12939303
196	0xbfd67e90	-1.6757374
197	0xc016f311	-2.3585856
198	0x3f8dab0a	1.1067822
199	0x3dcde423	0.10053279
200	0x402c3a5d	2.6910622
201	0xbf2d2f39	-0.6765018
202	0x3f82b778	1.021224
203	0xc03353ac	-2.801982
204	0x3ee15403	0.44009408
205	0xbf105bf3	-0.56390303
206	0x402f339c	2.737525
207	0xbfa02bc1	-1.2513353
208	0xc028fdea	-2.6404977
209	0x3f43aa4c	0.7643173
210	0x3fb0b10d	1.3804032
211	0xc05c164c	-3.438861
212	0xbfd5082b	-1.6643118
213	0xc0140784	-2.3129587
214	0xbfc30501	-1.5235902
215	0x3f85a1f2	1.0440047
216	0x3f9b2959	1.2121993
217	0x3f8f32e9	1.1187412
218	0xc067b4c5	-3.6204083
219	0x3f4207c0	0.75793076
220	0xbe74e978	-0.23917186
221	0x3fd21d6d	1.641523
222	0x400507f4	2.0786104
223	0xc071c6a1	-3.7777483
224	0xbf981e2d	-1.1884209
225	0xc05bb558	-3.4329433
226	0x3fbfb140	1.4975967
227	0xc037fb50	-2.874714
228	0xbf7b9c6f	-0.98285574
229	0xc003de1f	-2.0604322
230	0x4039cfca	2.9033074
231	0xbfbc8098	-1.4726744
232	0x3f955f85	1.1669775
233	0x3f8fead6	1.1243541
234	0x3fde8f56	1.7387493
235	0x3f3a81c9	0.72854286
236	0x4026ff13	2.6093185
237	0xbf9f9456	-1.2467144
238	0xbe9d980c	-0.30780065
239	0x3f336fea	0.7009264
240	0x400ba5c6	2.181993
241	0x3fbf04da	1.4923356
242	0x3fc78e4a	1.5590298
243	0xbfe78134	-1.8086305
244	0x3ee24fc5	0.44201484
245	0x3fb97b37	1.4490727
246	0x3f95d6a6	1.170613
247	0xbf29cdc1	-0.6632958
248	0x3f156d8a	0.5837027
249	0xbe914254	-0.28370917
250	0xc04eb63e	-3.2298732
251	0xbfbe95ef	-1.4889506
252	0x401ce2e9	2.4513495
253	0xbfcf1642	-1.6178668
254	0xc01c986b	-2.4468029
255	0x3f18990f	0.5960855

lins.1.weight f4 [1, 256]
0	0xbe1b2d7e	-0.15154073
1	0xbe0ebe89	-0.13939871
2	0x3e3938f8	0.18088138
3	0xbe4028ae	-0.18765518
4	0x3e43b64b	0.19112508
5	0x3d9edfe8	0.077575505
6	0x3d05af08	0.032637626
7	0xbe102f1e	-0.14080474
8	0x3d1d925c	0.038469657
9	0x3d2b621f	0.041841622
10	0x3d6ea139	0.058259223
11	0xbdea7ed5	-0.114499725
12	0x3d21a532	0.039464183
13	0x3d0e9c8f	0.034817275
14	0xbd3cb1fe	-0.046068184
15	0x3d3cfc3f	0.046138998
16	0x3d18d166	0.037309073
17	0xbd5be504	-0.053685203
18	0xbd35282b	-0.04422776
19	0x3d1e7198	0.03868255
20	0x3cfca3a1	0.030839743
21	0x3e0b9941	0.1363268
22	0x3e7b788b	0.24557702
23	0xbd176b45	-0.036967535
24	0x3d7075aa	0.058705963
25	0xbe08426c	-0.13306588
26	0x3d46b241	0.04850984
27	0xbd1cd4f1	-0.038289014
28	0xbe348692	-0.1762946
29	0x3d4ec81f	0.05048382
30	0x3d03b636	0.03215619
31	0x3d5b0bea	0.05347816
32	0xbdea1d12	-0.11431326
33	0x3e243129	0.16034378
34	0xbd223878	-0.039604634
35	0xbd0ae2ba	-0.03390763
36	0x3e1cee89	0.15325369
37	0xbd7cd64a	-0.0617278
38	0xbd8b1c94	-0.0679256
39	0xbd1ff1e0	-0.03904903
40	0xbd214e7d	-0.039381493
41	0x3d6bcbb7	0.057567324
42	0xbdcaaf5b	-0.09896728
43	0xbdcbe688	-0.0995608
44	0x3dcf08de	0.10109113
45	0xbe04efcd	-0.12982102
46	0x3d1adfc6	0.037811063
47	0xbd2aec30	-0.041729152
48	0xbd39c5df	-0.04535472
49	0x3e3e4c61	0.18583824
50	0xbe0dd804	-0.13851935
51	0xbdcadde7	-0.09905606
52	0xbd5f6731	-0.05454177
53	0x3e0cd2d8	0.13752306
54	0x3e344ca3	0.1760736
55	0xbdc6e747	-0.097120814
56	0x3d898d23	0.06716373
57	0x3d040320	0.032229543
58	0xbd1b2b41	-0.037883047
59	0x3e095d05	0.1341439
60	0xbd224b45	-0.039622564
61	0xbdd1fe4d	-0.10253582
62	0xbd30de74	-0.043180898
63	0x3e2cfcd1	0.16893317
64	0x3d24d60a	0.040243186
65	0xbe8b61da	-0.27223092
66	0x3d12b5df	0.035817977
67	0xbd93da6b	-0.07219394
68	0xbda0e5dc	-0.07856342
69	0x3dbc72c7	0.092015795
70	0x3d4bcc39	0.04975531
71	0x3dc38b37	0.095480375
72	0x3df7759f	0.12082981
73	0xbd3f4739	-0.046698783
74	0x3de9cdb7	0.1141619
75	0xbd2c1f9c	-0.042022333
76	0x3d36656f	0.04453033
77	0xbd50c80c	-0.05097203
78	0x3e67f707	0.22652827
79	0xbd8e0690	-0.069348454
80	0xbd53fce9	-0.051754866
81	0x3d1c5e31	0.038175765
82	0xbdb024fd	-0.08600805
83	0x3d043e75	0.032286126
84	0xbd329576	-0.04359957
85	0x3d17e4ba	0.037083365
86	0x3dd6ab11	0.10481847
87	0xbd652bb2	-0.055949874
88	0x3e17152c	0.1475417
89	0x3e427d20	0.18993044
90	0xbd8b3b34	-0.067984015
91	0x3d201700	0.039084435
92	0x3da8e538	0.08246845
93	0x3d4c280b	0.049842875
94	0xbe91182f	-0.28338763
95	0xbd9020a0	-0.07037473
96	0xbd394173	-0.045228433
97	0xbda8c396	-0.0824043
98	0xbd2a2d99	-0.04154739
99	0xbd481874	-0.048851445
100	0x3cfe77b8	0.031062946
101	0x3d4f7c1e	0.050655477
102	0x3d818c5e	0.06325601
103	0xbd3d49f3	-0.0462131
104	0x3d20289f	0.03910124
105	0x3e5ba15c	0.21448272
106	0x3d1d613d	0.03842281
107	0xbe18d3b9	-0.14924516
108	0xbe0816b7	-0.13289915
109	0x3d13d4f6	0.036091767
110	0xbceb4dfd	-0.028723711
111	0x3d1914ad	0.037373234
112	0x3d2fde14	0.0429364
113	0xbd32f1a2	-0.04368747
114	0x3cce0c83	0.02515245
115	0xbd8040ee	-0.06262384
116	0x3d0d97ce	0.0345686
117	0x3d0c8d78	0.034314603
118	0x3d169035	0.03675862
119	0xbd1903e5	-0.03735723
120	0xbd1c25fc	-0.038122162
121	0xbd610ef2	-0.054945894
122	0xbde105ae	-0.109874114
123	0xbd11099a	-0.035409547
124	0xbd8d3f08	-0.06896788
125	0x3dbdd36d	0.09268842
126	0xbd5652d5	-0.05232509
127	0x3d346d8f	0.044049796
128	0xbd115c2c	-0.035488293
129	0x3e6706d5	0.225612
130	0xbd6936ef	-0.056937154
131	0xbd30ab15	-0.043131907
132	0x3d10833b	0.0352814
133	0xbd303320	-0.043017507
134	0xbd2e8d48	-0.042615205
135	0x3e183c3c	0.14866728
136	0x3d2886ec	0.041144297
137	0x3d925b60	0.07146335
138	0xbd637d14	-0.055539206
139	0x3d28ec9c	0.041241273
140	0x3cfa5dd4	0.030562319
141	0xbd484b96	-0.04890021
142	0x3d282c39	0.0410578
143	0x3d36bf50	0.044616044
144	0x3db32f1e	0.08749221
145	0x3d3c4dc2	0.045972593
146	0x3d118bb4	0.035533622
147	0x3d064b5d	0.032786716
148	0xbe314d8b	-0.17314737
149	0xbdc6585c	-0.09684822
150	0x3d04529e	0.032305352
151	0x3dd0739d	0.101783015
152	0xbe1b5c9f	-0.15172051
153	0x3ce95990	0.02848509
154	0xbdd8c005	-0.105835
155	0xbe5b3048	-0.21405137
156	0x3d029430	0.031879604
157	0x3d080519	0.033207987
158	0x3e39bc3f	0.18138216
159	0x3d0318c5	0.032006044
160	0xbd234a6c	-0.039865896
161	0xbd854df1	-0.06509007
162	0xbde48f9c	-0.11160204
163	0x3d364989	0.044503722
164	0x3d10b5e2	0.035329707
165	0xbe420c6e	-0.18950054
166	0xbd375b8c	-0.04476504
167	0xbdb2ee98	-0.087369144
168	0xbd922d84	-0.07137588
169	0x3e04fe75	0.12987693
170	0x3d5f83a9	0.05456892
171	0x3d0f6fd9	0.035018776
172	0x3daaef00	0.08346367
173	0x3d70c496	0.05878123
174	0xbdeafb88	-0.11473757
175	0x3d1516d9	0.036398742
176	0xbd59977b	-0.05312298
177	0x3d03f939	0.0322201
178	0xbd3d882f	-0.046272453
179	0xbd59196c	-0.05300276
180	0xbddce213	-0.10785308
181	0xbe576ea5	-0.21038301
182	0xbdaa636a	-0.08319743
183	0xbd5034d8	-0.050831646
184	0xbd6d9371	-0.05800194
185	0x3d347a26	0.044061802
186	0x3d280084	0.041016117
187	0xbe2832e0	-0.16425657
188	0xbd659ab7	-0.05605575
189	0xbe29068b	-0.16506402
190	0x3d71400b	0.058898967
191	0xbd54a5ea	-0.05191604
192	0xbd33414d	-0.043763448
193	0x3e299178	0.16559398
194	0xbe74a634	-0.23891526
195	0x3d077cc8	0.033077985
196	0xbd9a3182	-0.07528974
197	0xbdad32db	-0.084569655
198	0xbd386ca3	-0.04502548
199	0xbd35b5cf	-0.04436284
200	0x3d521d71	0.05129761
201	0xbd2da19a	-0.042390443
202	0xbd9f3c9b	-0.077752315
203	0xbe39b853	-0.1813672
204	0x3d6d3651	0.05791313
205	0xbd7a0f5c	-0.061049804
206	0xbdb68a16	-0.089130566
207	0xbe81320c	-0.25233495
208	0xbe550bd0	-0.20805287
209	0xbdb74534	-0.08948746
210	0xbd24b8a9	-0.04021517
211	0xbea47e31	-0.32127526
212	0xbe8b0ca8	-0.27158093
213	0xbe94dd3f	-0.29075047
214	0xbe401121	-0.18756534
215	0x3d18560c	0.037191436
216	0xbd735563	-0.059407603
217	0x3d21662f	0.03940409
218	0xbd97b52c	-0.07407603
219	0x3d17c26e	0.037050657
220	0xbd3e2bbb	-0.046428423
221	0xbd73db3c	-0.05953525
222	0x3d4a8cfb	0.049450856
223	0xbe8eb609	-0.27873257
224	0x3d16488f	0.03669029
225	0x3e273cbe	0.16331765
226	0x3d56a8c0	0.052407026
227	0x3e2e93d1	0.17048575
228	0x3ddc6edb	0.107633315
229	0x3e4bf70a	0.19918457
230	0x3d31c8f7	0.043404546
231	0xbd1c6e73	-0.03819127
232	0x3d01032f	0.031497177
233	0x3e36b6e3	0.17843203
234	0x3d30a238	0.043123454
235	0xbd248c5c	-0.04017292
236	0xbdfece44	-0.12441686
237	0xbd3678a3	-0.044548642
238	0x3dedb472	0.11606683
239	0xbd482361	-0.048861865
240	0xbdc9d213	-0.098545216
241	0x3d7e30ca	0.062058248
242	0x3d5e6827	0.054298546
243	0x3e578122	0.21045354
244	0xbd43a6eb	-0.047766607
245	0x3d282806	0.041053794
246	0xbd41aa7f	-0.04728174
247	0xbd2d1866	-0.042259596
248	0x3e4b84a8	0.19874823
249	0xbd29f9bd	-0.041497935
250	0xbe2b2bc0	-0.16715908
251	0xbdd67c1d	-0.104728915
252	0x3d1d71d0	0.03843862
253	0xbe4706f0	-0.1943624
254	0xbe41b1e5	-0.18915518
255	0x3d18ee28	0.0373365
