CF/Computer_LP/MLP_encoder.pt (torch, 659608 bytes, 4 tensors)

lins.0.weight f4 [256, 384]
0	0x3e9218a9	0.2853444
1	0x3f03e818	0.5152602
2	0xbeff730d	-0.49892464
3	0x3e6dc1a6	0.23218402
4	0x3eea674f	0.45781943
5	0xbeefb60a	-0.46818572
6	0xbfb20e9e	-1.3910711
7	0x3f0393a0	0.5139713
8	0x3f496031	0.786624
9	0xbf321b79	-0.6957317
10	0x3f884968	1.0647402
11	0x3e2955f4	0.16536695
12	0xbeac3aac	-0.33638513
13	0xbe2ebe50	-0.17064786
14	0xbe72a687	-0.23696338
15	0xbbb55cef	-0.00553476
16	0xbe863e19	-0.26219252
17	0x3f55d37c	0.83525825
18	0x3ea4018a	0.32032424
19	0x3f126952	0.57191956
20	0x3f6ba3f2	0.92047036
21	0x3e947b46	0.290003
22	0x3c436b6a	0.011927465
23	0xbf7cc5b2	-0.9873916
24	0x3eac9265	0.3370544
25	0xbf140938	-0.57826567
26	0xbe1da705	-0.15395744
27	0x3f10ad2d	0.56514245
28	0xbf20abc9	-0.62762123
29	0x3e845fee	0.2585444
30	0xbbb81e62	-0.0056188563
31	0x3eeeef0d	0.46666756
32	0x3e6e3b3c	0.23264784
33	0xbf46cc83	-0.7765581
34	0xbf963c5e	-1.1737173
35	0x3d81e54f	0.06342565
36	0xbe93bde9	-0.28855827
37	0x3e14987c	0.14511293
38	0xbdff6513	-0.1247045
39	0xbf328c97	-0.69745773
40	0xbf35045f	-0.70709795
41	0xbf05ef8d	-0.5231865
42	0xbe6729e5	-0.22574575
43	0xbf966ee5	-1.1752592
44	0x3ee6a225	0.4504558
45	0xbed0fc31	-0.40817407
46	0x3d80221d	0.062565066
47	0xbef60ea7	-0.48058054
48	0xbe16700f	-0.14691184
49	0xbdde56b6	-0.108563825
50	0x3f66ae47	0.90109676
51	0x3eb2c3f4	0.34915125
52	0x3dce1310	0.1006223
53	0xbf13ab90	-0.5768366
54	0xbf14325d	-0.5788935
55	0x3ec5deb9	0.38646486
56	0x3eaaeb71	0.33382753
57	0x3ce14463	0.02749843
58	0xbede9816	-0.43475407
59	0xbf21745c	-0.63068175
60	0xbecf70cc	-0.40515745
61	0x3f3d872f	0.740344
62	0xbe929a93	-0.28633556
63	0xbf8821a4	-1.0635266
64	0xbde4e900	-0.11177254
65	0x3f0b7714	0.54478574
66	0xbf107df7	-0.5644221
67	0xbe375e2b	-0.17907016
68	0xbf7c662f	-0.9859342
69	0xbe74f0d2	-0.2391999
70	0x3e260e7c	0.16216463
71	0xbe391e0f	-0.18077873
72	0xbf9b4b6c	-1.2132392
73	0xbe721dad	-0.23644133
74	0x3fb48a6e	1.4104745
75	0x3f59e84c	0.8512008
76	0x3ea0d6b2	0.314138
77	0xbf783809	-0.969605
78	0xbf44f815	-0.76941043
79	0x3ed043a0	0.40676594
80	0x3c8ee9f5	0.017445544
81	0xbdf96ec8	-0.12179333
82	0xbefe232c	-0.4963621
83	0xbda20bbc	-0.079123944
84	0xbf4fcf89	-0.8117605
85	0x3ed84f4f	0.42248008
86	0x3f8ccc71	1.099989
87	0xbf3d2715	-0.7388776
88	0x3f0f9ba7	0.5609688
89	0xbead17ad	-0.33807126
90	0x3eaddc30	0.33957052
91	0xbe744956	-0.238561
92	0x3f060c02	0.5236207
93	0xbfb8d1b7	-1.4439
94	0x3d94aa49	0.07259042
95	0x3fa7ba1d	1.3103672
96	0x3f038fe6	0.51391447
97	0x3dd1b0bf	0.1023879
98	0x3e1e3d58	0.15453088
99	0xbf2185ca	-0.6309477
100	0x3f5e2494	0.86774564
101	0xbe7adcf2	-0.24498346
102	0x3f2438fe	0.64149463
103	0x3e86c97f	0.26325604
104	0x3f941ca6	1.1571243
105	0x3da402ff	0.08008384
106	0xbf24b208	-0.64334154
107	0x3e723ab6	0.23655209
108	0x3b62b2c9	0.0034591428
109	0x3f1eccbf	0.6203117
110	0x3ea3775e	0.31927007
111	0x3fabc735	1.3420168
112	0x3bca2c15	0.006169806
113	0xbf49839d	-0.7871645
114	0xbf8e194c	-1.110147
115	0x3f4d9ad3	0.8031437
116	0x3f0f1a9f	0.55899996
117	0x3e9d3644	0.30705464
118	0x3f22a0ce	0.6352662
119	0x3f30ca1f	0.6905841
120	0x3dfadfbf	0.122497074
121	0xbec81a4c	-0.39082563
122	0x3df5a5e0	0.11994529
123	0xbf4c19fc	-0.7972715
124	0xbf73e384	-0.95269036
125	0x3eb05a3d	0.34443846
126	0x3f69d0b3	0.91334075
127	0x3d27d27c	0.040972218
128	0xbecb3278	-0.39686942
129	0x3e2012bc	0.15632147
130	0x3c2d5e36	0.010581544
131	0xbd526f73	-0.051375818
132	0xbd3f258d	-0.04666667
133	0xbd461f96	-0.048369966
134	0x3e98b7c8	0.29827714
135	0x3f688023	0.9082052
136	0x3f8bac53	1.0911964
137	0x3f596ee4	0.8493483
138	0xbcb024e0	-0.021501958
139	0xbf9abb9e	-1.2088506
140	0x3f0efd72	0.55855477
141	0xbf8cf3fb	-1.1011957
142	0xbeb50936	-0.3535859
143	0x3e9c9026	0.30578727
144	0xbf023080	-0.50855255
145	0x3e948e80	0.2901497
146	0x3e913b44	0.2836553
147	0x3eea5519	0.4576805
148	0xbf17c7df	-0.59289354
149	0xbe2d4b7c	-0.16923326
150	0x3f28be26	0.65915143
151	0xbf48a021	-0.7836934
152	0xbdda0248	-0.10644966
153	0xbd96c2cd	-0.07361374
154	0x3e842c0a	0.2581485
155	0xbe269bfd	-0.16270442
156	0xbea1398d	-0.3148922
157	0xbf2a0324	-0.6641104
158	0xbda83a68	-0.08214265
159	0x3f215323	0.6301748
160	0x3e50df94	0.20397788
161	0xbf347636	-0.70492876
162	0xbf8bbed6	-1.0917614
163	0xbd37adec	-0.0448436
164	0xbd12d3b3	-0.035846423
165	0x3dce1f2f	0.100645415
166	0x3ebf01bc	0.3730601
167	0xbf5530b8	-0.83277464
168	0xbe06cd3b	-0.13164227
169	0xbec8f78e	-0.3925137
170	0x3f89fa03	1.0779423
171	0x3e2cb92c	0.16867512
172	0xbe8c9214	-0.274552
173	0xbf4519c6	-0.7699245
174	0x3dbfaecf	0.09359514
175	0x3f2ea0d2	0.6821414
176	0xbe99861e	-0.29985136
177	0xbd9aff40	-0.07568216
178	0x3e42dbd7	0.19029175
179	0xbf249e9c	-0.6430452
180	0x3f07bc11	0.5302134
181	0xbf2623ef	-0.6489858
182	0xbc9f31d1	-0.019432934
183	0x3dafaedf	0.08578276
184	0x3b360302	0.002777279
185	0xbecf5967	-0.40497896
186	0x3f807612	1.0036032
187	0x3e5c8379	0.21534528
188	0xbd21a367	-0.039462473
189	0x3cdbc45e	0.026827034
190	0xbf873dea	-1.056577
191	0x3ebcf356	0.369044
192	0xbf3b6bdb	-0.7321145
193	0xbe881034	-0.26574862
194	0xbeb323b2	-0.3498817
195	0xbe97bf1f	-0.29638
196	0xbecb50c4	-0.39710057
197	0x3e66fc4f	0.22557186
198	0xbe9eb04b	-0.30993876
199	0x3e7ceec4	0.24700457
200	0x3ebd5c73	0.36984596
201	0x3edde19f	0.43336198
202	0xbfa3384b	-1.2751554
203	0x3eac3a10	0.33638048
204	0xbed420c6	-0.41431254
205	0x3fa7e2c5	1.311608
206	0xbe25a42f	-0.16175912
207	0xbe1c56e1	-0.15267517
208	0x3e961701	0.29314426
209	0xbedc3031	-0.43005517
210	0xbea5941f	-0.3233957
211	0xbd9b1188	-0.07571703
212	0x3e9f52b2	0.3111778
213	0x3f68b716	0.90904367
214	0xbe611742	-0.21981528
215	0x3e65ab46	0.22428617
216	0x3f7a866f	0.9786138
217	0x3d7b2d2e	0.061322384
218	0xbf131678	-0.5745616
219	0xbf0ed8bc	-0.5579946
220	0xbe4db16c	-0.20087212
221	0x3fa21147	1.2661523
222	0x3db924a0	0.09040189
223	0xbd3b6b46	-0.0457566
224	0x3f1862fb	0.5952603
225	0x3e98e9fa	0.2986601
226	0xbea9df0f	-0.33177993
227	0xbc1816b1	-0.009282754
228	0x3ea27189	0.31727245
229	0xbe661acd	-0.22471161
230	0xbef01a88	-0.46895242
231	0x3ecec32f	0.40383288
232	0xbc25ac84	-0.010111932
233	0x3d89b234	0.06723443
234	0xbbf243d1	-0.0073933383
235	0xbebb2913	-0.36554775
236	0xbc8f77c1	-0.017513158
237	0x3f3bd459	0.7337089
238	0x3ea20538	0.31644607
239	0xbed88354	-0.42287695
240	0x3ed2fb3b	0.412073
241	0x3f089e4f	0.5336656
242	0xbea56c06	-0.32308978
243	0xbf0c4104	-0.54786706
244	0x3eaa538b	0.33266863
245	0x3d613e0d	0.054990817
246	0xbf015701	-0.5052338
247	0x3eb6768e	0.35637325
248	0x3f16106c	0.5861881
249	0x3f8b6c8b	1.08925
250	0x3fa8275b	1.313701
251	0xbedfe4d2	-0.43729264
252	0x3f0edbf8	0.55804396
253	0xbe871159	-0.26380423
254	0x3e22eea2	0.15911344
255	0x3c363aa0	0.011122376

lins.0.bias f4 [256]
0	0xbe750322	-0.23926976
1	0xbe8bf85a	-0.27337915
2	0xbe022666	-0.1270996
3	0xbeab5a20	-0.33467197
4	0xbee3d640	-0.44499397
5	0xbea52889	-0.32257488
6	0xbe425df1	-0.18981148
7	0xbe3bde2a	-0.18346468
8	0xbdd0b8cc	-0.10191497
9	0xbe2e00f4	-0.16992551
10	0xbed89223	-0.42298993
11	0xbeafaf04	-0.34313214
12	0xbe96d53a	-0.29459554
13	0xbda00898	-0.07814139
14	0xbeef4815	-0.46734682
15	0xbe5d0701	-0.21584703
16	0xbd05e0df	-0.032685157
17	0xbeff993b	-0.49921593
18	0xbed5b794	-0.41741621
19	0xbe1a6d4d	-0.15080757
20	0xbe4d96fc	-0.20077127
21	0x3c417367	0.011807299
22	0xbc6d0301	-0.014466048
23	0xbe906f8b	-0.282101
24	0xbe20d5c5	-0.15706547
25	0xbd840bb2	-0.06447543
26	0xbe5af8ae	-0.21383926
27	0xbd93aa80	-0.07210255
28	0xbee730c5	-0.45154396
29	0x3c44517c	0.011982318
30	0xbd5634ef	-0.052296575
31	0xbe91e23f	-0.28492925
32	0xbec263aa	-0.37966663
33	0xbe441dcb	-0.1915199
34	0xbe201171	-0.15631653
35	0xbe1ef73d	-0.15524001
36	0xbedee563	-0.43534383
37	0xbdaf64fa	-0.085641816
38	0xbe8e625a	-0.2780941
39	0xbede2a37	-0.43391582
40	0x3d6ffcef	0.058590826
41	0xbe78bc89	-0.2429067
42	0xbe896484	-0.268345
43	0x3c99896d	0.018742288
44	0xbeab3461	-0.334384
45	0xbe81d269	-0.25355843
46	0xbf0c7b23	-0.5487539
47	0xbdb33127	-0.087496094
48	0xbe84da76	-0.25947922
49	0x3cf905b6	0.030398231
50	0xbd80a1d0	-0.06280863
51	0xbeed9440	-0.46402168
52	0xbdeadc3b	-0.11467787
53	0xbe6ee132	-0.23328093
54	0xbea9a845	-0.33136192
55	0xbea758aa	-0.32684833
56	0xbeb53735	-0.35393682
57	0xbd842749	-0.064528055
58	0x3cc65a74	0.024213053
59	0xbe648b74	-0.22318822
60	0xbef53e67	-0.47899172
61	0xbf04aa92	-0.5182277
62	0xbecde253	-0.40211734
63	0xbe4ee693	-0.20205145
64	0xbe71f07d	-0.23626895
65	0x3dfc27e2	0.123122945
66	0xbde1f7bc	-0.1103358
67	0xbe265d04	-0.1624642
68	0xbe9f2a98	-0.31087184
69	0xbe81229d	-0.2522172
70	0x3e616dc0	0.22014523
71	0xbda8c551	-0.0824076
72	0xbe9830a5	-0.29724613
73	0xbe815a19	-0.25264052
74	0xbe607605	-0.21920021
75	0xbec11213	-0.37709102
76	0xbe8e9b06	-0.27852648
77	0xbe28a285	-0.16468246
78	0x3cff65fa	0.031176556
79	0xbe50db89	-0.20396246
80	0xbeadce1f	-0.3394632
81	0xbe286dac	-0.16448087
82	0x3cce553a	0.025187124
83	0xbeee92c3	-0.46596345
84	0xbe64c3fc	-0.22340387
85	0xbeeefb9f	-0.46676347
86	0xbdaf5908	-0.08561903
87	0xbd9680d3	-0.0734879
88	0xbe7d9aa3	-0.2476602
89	0xbe3ae21c	-0.18250316
90	0xbf118289	-0.56839806
91	0xbe8050aa	-0.25061542
92	0xbeb2ea2e	-0.3494429
93	0xbe3a679c	-0.18203586
94	0xbebedf19	-0.37279585
95	0xbe90e311	-0.28298238
96	0xbeb68f49	-0.35656193
97	0xbebbeac1	-0.3670254
98	0xbf0033aa	-0.50078833
99	0xbe9bdb21	-0.3044062
100	0xbe17c7d4	-0.14822322
101	0xbe40fb9c	-0.18845981
102	0xbee3f477	-0.4452245
103	0xbe85e2d1	-0.2614961
104	0xbcf0ce6f	-0.02939531
105	0xbec461a1	-0.38355735
106	0xbe1ce45c	-0.15321487
107	0xbe6b20cf	-0.22961734
108	0xbdb10656	-0.086437866
109	0xbe4f352b	-0.20235126
110	0xbf5f85d4	-0.8731358
111	0xbcc46495	-0.023973742
112	0xbd18437b	-0.03717373
113	0xbeae418c	-0.34034383
114	0xbdabd5c4	-0.08390382
115	0x3b20bded	0.0024527267
116	0xbf025a2d	-0.5091885
117	0xbedba1d1	-0.42896894
118	0xbdd87b23	-0.105703615
119	0xbea7b2ca	-0.32753593
120	0xbd895b42	-0.06706859
121	0xb8314ca2	-4.227146e-05
122	0xbd500bc0	-0.050792456
123	0xbef46cda	-0.47739297
124	0x3d5e0d0a	0.054211654
125	0x3cb4a84a	0.022052903
126	0xbe496703	-0.19668202
127	0xbc648872	-0.013948547
128	0xbe860b7d	-0.2618064
129	0xbe102c98	-0.14079511
130	0x3b827ff9	0.0039825407
131	0xbe9babbb	-0.30404457
132	0xbdf73b49	-0.120718546
133	0xbeb9a5bf	-0.36259267
134	0xbe536e09	-0.20647444
135	0xbdd4cc01	-0.10390473
136	0xbecf8517	-0.40531227
137	0xbe67c242	-0.22632697
138	0xbd90d888	-0.0707255
139	0xbe93bce7	-0.2885506
140	0xbdcf9fa8	-0.10137874
141	0xbe81ce66	-0.25352782
142	0xbeca0ec9	-0.39464405
143	0xbe2c335b	-0.16816466
144	0xbe396385	-0.1810437
145	0xbeb510df	-0.35364434
146	0xbdf0f79e	-0.11765979
147	0xbdef1f15	-0.1167585
148	0xbedfdb00	-0.4372177
149	0xbebf6452	-0.37381226
150	0xbe5f5493	-0.21809606
151	0xbe32d08f	-0.17462371
152	0xbe947bff	-0.29000852
153	0xbe2150e0	-0.15753508
154	0xbee4ef70	-0.44713926
155	0xbe7d1e06	-0.24718484
156	0xbe1fe76c	-0.15615624
157	0xbe4ad14b	-0.19806401
158	0xbe979c74	-0.29611552
159	0xbe4cd7da	-0.20004216
160	0xbd19f77a	-0.037589528
161	0xbe8c0068	-0.2734406
162	0xbc1518dd	-0.009100166
163	0xbe7d1a3c	-0.24717039
164	0xbe91f726	-0.28508872
165	0xbdd5ecc1	-0.10445548
166	0xbeb1ba9f	-0.34712693
167	0xbebffc2e	-0.37497085
168	0x3d5895b6	0.05287715
169	0xbe6c6371	-0.23084809
170	0xbe0bc41f	-0.13649033
171	0xbe9af660	-0.30266094
172	0xbf1e2e94	-0.6178982
173	0xbed650f5	-0.4185864
174	0xbec5cd12	-0.3863302
175	0xbe9aff5c	-0.3027295
176	0xbec52d60	-0.3851118
177	0xbebfda30	-0.3747115
178	0xbee11a14	-0.4396521
179	0xbe950b92	-0.2911039
180	0xbf472dcc	-0.77804255
181	0xbe34395a	-0.17600003
182	0xbec518ae	-0.38495392
183	0xbe2d5798	-0.16927946
184	0xbee52b09	-0.44759396
185	0xbdd613c6	-0.1045299
186	0xbe134675	-0.14382346
187	0xbcc17693	-0.02361611
188	0xbe84db05	-0.2594835
189	0xbe3a0146	-0.18164548
190	0xbf1a1c3e	-0.60199344
191	0xbeb56ba8	-0.35433698
192	0xbe869c8e	-0.26291317
193	0x3c9c8df5	0.01911066
194	0xbf129ee4	-0.572737
195	0xbd4b0edf	-0.04957473
196	0xbe324a9b	-0.17411272
197	0x3dda1874	0.10649195
198	0xbe0c471a	-0.13698998
199	0x3d209986	0.03920891
200	0xbed012bc	-0.40639293
201	0x3ce93f43	0.028472548
202	0x3e06ad94	0.13152152
203	0xbec978a1	-0.39349845
204	0xbe59abfb	-0.21257012
205	0x3e26d29a	0.16291276
206	0xbeaa2415	-0.33230653
207	0xbdac0c00	-0.08400726
208	0xbef28ab0	-0.47371435
209	0x3e0a6827	0.13516293
210	0xbe1f0e0b	-0.155327
211	0xbf0eb54e	-0.557454
212	0xbea81ad0	-0.32832956
213	0xbe981c73	-0.29709205
214	0xbdcdc45c	-0.10047218
215	0xbea99ed0	-0.33128977
216	0xbe325936	-0.17416844
217	0xbd6ae8a3	-0.057350766
218	0xbe8ec68b	-0.2788585
219	0xbe90ef89	-0.2830775
220	0xbd599326	-0.053118847
221	0xbeb25122	-0.34827524
222	0xbeb872f5	-0.36025205
223	0xbe6e0be1	-0.23246719
224	0xbe7516b9	-0.2393445
225	0x3d5658e2	0.05233086
226	0xbe9e87c9	-0.3096297
227	0xbe00f953	-0.1259511
228	0x3bf04e09	0.0073335213
229	0x3bbec8a1	0.0058222567
230	0xbec773e6	-0.3895561
231	0xbf655498	-0.89582205
232	0xbe581c2d	-0.21104498
233	0xbef21332	-0.4728027
234	0xbecdbc70	-0.4018283
235	0x3cf6e37c	0.03013777
236	0xbe015bba	-0.12632647
237	0xbe0a4dee	-0.1350629
238	0xbe37aa28	-0.17936003
239	0xbe8dcbaa	-0.27694446
240	0xbeb36bfa	-0.35043317
241	0xbe744f05	-0.23858269
242	0xbe236afa	-0.15958777
243	0xbecf1d63	-0.40452108
244	0xbea1a3d4	-0.31570303
245	0xbe5443d7	-0.20729004
246	0xbedc6a14	-0.4304968
247	0xbe66b25b	-0.22528975
248	0xbe4eea9d	-0.20206685
249	0xbee75ea9	-0.45189407
250	0xbe474a07	-0.19461833
251	0xbec51c22	-0.38498026
252	0xbe879dca	-0.2648757
253	0xbea0d93b	-0.31415734
254	0xbe2e9aec	-0.17051286
255	0xbe8f129a	-0.2794388

lins.1.weight f4 [256, 256]
0	0xbef7f7ba	-0.48431188
1	0xbf96a5c5	-1.1769339
2	0xbda5fa7a	-0.08104415
3	0xbeb7c8ef	-0.35895488
4	0xbf091357	-0.53545135
5	0x3edfa3ef	0.4367976
6	0x3dfae0b5	0.12249891
7	0xbe05f8eb	-0.13083236
8	0x3e7db21c	0.24774975
9	0x3f0b96b6	0.5452684
10	0x3d02c2b0	0.03192395
11	0x3f24d637	0.64389366
12	0xbea73d54	-0.32663977
13	0xbe47f60f	-0.19527458
14	0x3e45661b	0.19277231
15	0x3eef7972	0.46772343
16	0x3e70da94	0.23520881
17	0x3cd7192f	0.026257126
18	0xbdca3df1	-0.09875096
19	0x3f2c8002	0.67382824
20	0xbe81aeab	-0.25328574
21	0xbe453608	-0.19258893
22	0x3f5c17c2	0.8597375
23	0xbe86f80d	-0.26361123
24	0xbd4e8404	-0.05041887
25	0x3f7ab38c	0.97930217
26	0x3c90977e	0.017650362
27	0xbebd05ca	-0.3691848
28	0x3d143809	0.03618625
29	0xbf327792	-0.697137
30	0x3eb3f7b1	0.3514991
31	0xbf0e5e8d	-0.55613023
32	0x3e6f5e88	0.23375905
33	0x3cace253	0.021104014
34	0xbf1dcd30	-0.61641216
35	0x3da767dc	0.081741065
36	0x3de169db	0.110065185
37	0x3de28084	0.11059669
38	0x3e90c47d	0.2827491
39	0x3eb38026	0.35058707
40	0x3f09639d	0.5366762
41	0x3e72dcba	0.23717013
42	0xbe4e4fcb	-0.20147626
43	0xbf1da197	-0.6157469
44	0xbf226cee	-0.63447464
45	0xbea1bd8e	-0.3158993
46	0x3ed1912c	0.4093107
47	0xbdd4fc0b	-0.10399636
48	0x3d3025ba	0.04300473
49	0x3e907151	0.28211454
50	0xbe3916ae	-0.18075058
51	0xbf18df8e	-0.5971612
52	0x3f60d780	0.87828827
53	0x3fb4d801	1.4128419
54	0x3f11963b	0.5686986
55	0x3e857c13	0.26071224
56	0xb9df75df	-0.00042621695
57	0x3ebff1ed	0.37489262
58	0x3e8a24cc	0.269812
59	0xbe7a829d	-0.24463888
60	0xbf2797c5	-0.65465957
61	0x3e8bac88	0.27280068
62	0x3f2c14f1	0.67219454
63	0xbf17ade6	-0.5924972
64	0x3e9b8a1a	0.303788
65	0xbe3e5a5b	-0.18589155
66	0x3dfd2e8a	0.12362392
67	0x3e58265a	0.2110838
68	0x3f08e2cb	0.5347106
69	0xbfab7b7d	-1.3397061
70	0xbea33f89	-0.3188441
71	0xbf396ffc	-0.724365
72	0x3f645ea8	0.89206934
73	0xbc824665	-0.015902707
74	0x3ebf453b	0.37357506
75	0xbe807a52	-0.25093323
76	0x3e43f08d	0.19134732
77	0xbea22d38	-0.31675124
78	0xbdd382fb	-0.10327717
79	0xbe2f9c69	-0.1714951
80	0xbe654ee0	-0.2239337
81	0x3d980d7a	0.074244455
82	0xbec88988	-0.39167428
83	0xbeb9fbd9	-0.36324957
84	0xbef59cad	-0.47971097
85	0xbf161f05	-0.5864108
86	0xbde16cd5	-0.11007086
87	0xbe00bf5b	-0.12572996
88	0x3f176a67	0.5914673
89	0x3da507c9	0.080581255
90	0x3e1d54a1	0.15364315
91	0x3e907975	0.28217664
92	0xbcdc7d9b	-0.026915362
93	0xbf0bed56	-0.5465902
94	0xbee72b6c	-0.45150316
95	0xbf1cd3fe	-0.61260974
96	0xbefded47	-0.4959509
97	0x3df31f30	0.11871183
98	0x3d3e116c	0.046403334
99	0xbdb85800	-0.0900116
100	0x3d82b46c	0.06382069
101	0x3e43f8cd	0.19137879
102	0x3e3c1b67	0.18369828
103	0x3f37381f	0.7157001
104	0xbe3cd835	-0.18441851
105	0x3ca417b6	0.020030838
106	0x3e673a90	0.22580934
107	0xbe8b13e5	-0.27163616
108	0xbe84b788	-0.25921273
109	0x3f345722	0.70445454
110	0xbf88d050	-1.0688572
111	0xbe68e0fc	-0.22742075
112	0xbbcaf3fb	-0.0061936355
113	0x3f6066c7	0.87656826
114	0x3cbb8437	0.022890193
115	0x3cfa54e3	0.030558055
116	0xbe96b2de	-0.2943334
117	0xbf2da987	-0.67836803
118	0x3e9a6558	0.30155444
119	0xbb8f0b61	-0.00436537
120	0xbecde139	-0.40210894
121	0x3ede77dc	0.4345082
122	0x3e789425	0.24275263
123	0x3eacbd1b	0.33738026
124	0xbee2f720	-0.44329166
125	0x3f2e816a	0.6816622
126	0xbe848518	-0.25882792
127	0x3ebcb4c3	0.3685666
128	0xbea8fd87	-0.33005926
129	0x3e9e47ad	0.3091406
130	0x3f266648	0.6499982
131	0xbe0aaaf2	-0.13541773
132	0x3e892b3a	0.26790792
133	0x3fa5b913	1.2947105
134	0xbf0d532c	-0.55205035
135	0xbf2170a8	-0.63062525
136	0xbf0744fd	-0.5283964
137	0xbe41b58f	-0.18916915
138	0xbf14ebc3	-0.58172244
139	0x3f4752e5	0.7786086
140	0xbea768f9	-0.32697275
141	0x3d8ab1ff	0.06772231
142	0x3f3597ca	0.70934737
143	0x3ed1aac3	0.40950593
144	0x3e3242f2	0.1740835
145	0xbea33e23	-0.31883344
146	0x3f39099e	0.722803
147	0xbf3d2080	-0.73877716
148	0x3f59d5a7	0.8509163
149	0x3d132cc3	0.03593136
150	0xbedd6833	-0.4324356
151	0xbe465bff	-0.19371031
152	0xbe44281b	-0.19155924
153	0xbf21b402	-0.63165295
154	0xbf3d7de0	-0.74020195
155	0xbe0bc4bb	-0.13649265
156	0x3dd7317d	0.10507486
157	0x3e45aec2	0.19304946
158	0xbe790a99	-0.24320449
159	0x3e91f0c1	0.28503993
160	0xbe66e371	-0.225477
161	0x3ec47034	0.38366854
162	0x3e64059f	0.2226777
163	0xbef469d2	-0.47736984
164	0x3cfd4dda	0.030920912
165	0xbeb29c90	-0.34885073
166	0xbf2f3d44	-0.6845286
167	0x3e3afd0a	0.18260589
168	0xbeb47097	-0.3524215
169	0xbd563fa5	-0.05230679
170	0x3f698df6	0.9123224
171	0x3ef931e4	0.48670876
172	0x3f1ae2b8	0.60502195
173	0xbf9e7c89	-1.2381755
174	0xbf000a23	-0.5001547
175	0xbe328d3e	-0.17436692
176	0xbde41dc9	-0.111384936
177	0x3e0fca65	0.14042051
178	0xbf244d59	-0.64180523
179	0xbe56475c	-0.20925659
180	0x3ed7287b	0.42023072
181	0xbf482ce0	-0.78193474
182	0xbec4673b	-0.3836001
183	0xbe21e8c5	-0.15811451
184	0xbeafe04c	-0.34350812
185	0x3f5eb687	0.86997265
186	0x3e12dfc4	0.14343172
187	0x3e8e5160	0.2779646
188	0xbd1f5de9	-0.03890792
189	0x3ead7dea	0.33885127
190	0xbe074c86	-0.13212785
191	0x3e2a1e5a	0.1661314
192	0xbf939663	-1.1530269
193	0xbe9bbc70	-0.30417204
194	0xbf20ec52	-0.62860596
195	0x3e5cabfd	0.21549983
196	0xbed51f2b	-0.41625342
197	0x3ac5a842	0.0015080052
198	0x3ead72bc	0.33876598
199	0xbf344d5f	-0.7043056
200	0x3fd2cbed	1.6468483
201	0xbf8993f1	-1.0748273
202	0x3f95eec3	1.1713489
203	0x3f2fcd61	0.6867276
204	0xbee14253	-0.43995914
205	0x3ebac320	0.36476994
206	0x3effd6c1	0.49968532
207	0x3f529f26	0.8227409
208	0x3e546b3f	0.20744036
209	0xbdd425c1	-0.103587635
210	0xbf2cce0d	-0.6750191
211	0xbf1c9059	-0.6115776
212	0x3fa8a686	1.3175819
213	0xbfb6a3fe	-1.4268796
214	0x3f096832	0.53674614
215	0xbef60a32	-0.48054653
216	0x3f16efd5	0.58959705
217	0xbe573a56	-0.21018347
218	0x3ebbcf71	0.36681703
219	0x3d00fd0d	0.031491328
220	0x3f1594fd	0.58430463
221	0x3e5cb4fb	0.21553414
222	0xbeffa59d	-0.4993104
223	0x3d882f23	0.066496156
224	0xbf179c80	-0.59223175
225	0x3de1f163	0.11032369
226	0x3ed5e168	0.41773534
227	0x3f0fc34e	0.56157386
228	0x3e41dcde	0.1893191
229	0x3e87c06b	0.2651399
230	0x3e5bf983	0.214819
231	0xbf7d384d	-0.98914033
232	0x3e2cf243	0.1688929
233	0x3e247e91	0.16063906
234	0x3e94279f	0.28936478
235	0xbed076c7	-0.4071562
236	0xbdb7604c	-0.08953914
237	0xbd813ea6	-0.06310777
238	0x3e3c62ee	0.18397114
239	0xbe303a73	-0.17209797
240	0xbfc8c603	-1.5685428
241	0x3edd1d78	0.43186545
242	0xbf1d5a27	-0.61465687
243	0x3ecaebe5	0.39633098
244	0xbec5b1b1	-0.3861213
245	0x3f33d804	0.7025149
246	0x3f6dea21	0.9293538
247	0x3f24182c	0.64099383
248	0xbe8885b3	-0.26664504
249	0x3e65ede3	0.22454028
250	0x3f02fe07	0.51168865
251	0xbe967960	-0.29389477
252	0xbcaa5566	-0.020792674
253	0x3e4e26b4	0.20131952
254	0xbe83cc99	-0.25742033
255	0x3f4f4ed6	0.8097967

lins.1.bias f4 [256]
0	0xbd51d538	-0.051228732
1	0x3f58cd77	0.84688514
2	0x3d1da135	0.038483817
3	0x3f3558c1	0.7083855
4	0xbf8deae7	-1.1087312
5	0xbe2c0e51	-0.16802336
6	0x3e4b7611	0.19869258
7	0x3e9b49c2	0.3032971
8	0xbdd846c8	-0.105603755
9	0xbf20ddde	-0.6283854
10	0xbfa5d72b	-1.2956289
11	0xbf2ecac2	-0.68278134
12	0xbb6b06e0	-0.0035862252
13	0xbc81cc72	-0.015844557
14	0x3d2162c1	0.03940082
15	0x3e9ed5a6	0.31022376
16	0x3ecebf47	0.40380308
17	0xbf526cf4	-0.821975
18	0x3f2f1962	0.68398106
19	0xbc84e71e	-0.016223487
20	0x3f374deb	0.7160327
21	0x3e8b58ba	0.2721613
22	0xbed8ea5a	-0.42366296
23	0xbf09c606	-0.53817785
24	0xbda3c97a	-0.07997413
25	0x3ed52f25	0.4163753
26	0x3f3b2b61	0.73113066
27	0xbed76380	-0.420681
28	0xbba9824c	-0.0051730033
29	0x3f2a2153	0.664571
30	0x3ee603e3	0.4492484
31	0x3f153512	0.58284104
32	0x3e470022	0.19433644
33	0xbf384bc1	-0.7199059
34	0xbf4b3e58	-0.79392004
35	0xbf884343	-1.0645527
36	0x3f13d783	0.5775072
37	0x3f2cb7ff	0.67468256
38	0x3d879e5b	0.06622001
39	0x3f0a2cb8	0.53974485
40	0x3f1e1dbb	0.61764115
41	0xbec44671	-0.38334993
42	0xbe666685	-0.22500046
43	0xbe71f6d7	-0.23629318
44	0xbd4f5989	-0.050622497
45	0x3eae661b	0.34062275
46	0x3eddbd99	0.43308714
47	0x3f495cb6	0.7865709
48	0x3d44190c	0.04787545
49	0xbe3dc2a4	-0.18531281
50	0xbf9a472e	-1.2052972
51	0x3e74a32e	0.23890373
52	0xbe360f97	-0.17779385
53	0x3e97ada3	0.29624662
54	0x3dca5e7b	0.09881302
55	0x3efefd66	0.49802703
56	0x3e85e369	0.26150063
57	0x3eee2884	0.46515286
58	0xbede4010	-0.4340825
59	0xbfdd51eb	-1.7290624
60	0xbf0ace85	-0.54221374
61	0xbf281f78	-0.6567302
62	0xbdf9a312	-0.12189306
63	0xbe3d7173	-0.18500309
64	0xbc88bb47	-0.016690863
65	0xbdbbc89a	-0.09169121
66	0xbeb622d2	-0.3557344
67	0xbeeb88eb	-0.46002898
68	0x3fa081bd	1.2539593
69	0xbf757e49	-0.9589582
70	0x3ec0616c	0.37574327
71	0x3fbdb257	1.482005
72	0xbf0da003	-0.55322284
73	0x3f1c3ecb	0.61033314
74	0x3e20c20e	0.15699026
75	0x3ed2a5e5	0.41142192
76	0xbf24ef5e	-0.64427745
77	0xbedcc5d3	-0.43119678
78	0xbf35702a	-0.70874274
79	0xbe828850	-0.25494623
80	0x3e128c72	0.14311388
81	0xbe4df6d9	-0.20113696
82	0x3f6d8c10	0.92791843
83	0x3d1d36c9	0.038382325
84	0x3e17e719	0.1483425
85	0xbf00558b	-0.5013053
86	0xbe6a4031	-0.2287605
87	0xbeea25e7	-0.45732042
88	0x3eb55e1a	0.35423356
89	0xbd96e872	-0.07368554
90	0x3e77031d	0.24122281
91	0x3e1a53d5	0.15071042
92	0x3ca0d24f	0.019631533
93	0x3edd5c07	0.43234274
94	0xbf15ad9b	-0.58468026
95	0x3cb26870	0.021778315
96	0x3f7e0a3a	0.99234354
97	0x3e1841f8	0.14868915
98	0x3f2e81b3	0.68166655
99	0xbec96e27	-0.39341852
100	0x3d8cc7a7	0.06874018
101	0xbe9decaa	-0.30844623
102	0x3b866af3	0.004102105
103	0x3e1846a4	0.14870697
104	0xbd543da9	-0.051816616
105	0x3f3ee3b7	0.74566215
106	0xbec51f12	-0.38500267
107	0xbf0da739	-0.55333287
108	0x3ed244c1	0.4106808
109	0xbebfa814	-0.3743292
110	0x3f2e93d6	0.6819433
111	0x3f22d430	0.6360502
112	0xbf228012	-0.6347667
113	0x3f37746b	0.71662015
114	0x3ed835e6	0.4222862
115	0xbe2aca43	-0.16678719
116	0x3f458df1	0.7716971
117	0x3f3afc5c	0.7304132
118	0x3d676983	0.05649711
119	0x3f9f443d	1.24427
120	0x3f61eec2	0.8825494
121	0x3ccdc2ce	0.025117304
122	0x3e2cc522	0.16872075
123	0xbd9ab603	-0.07554247
124	0x3e8e3b3f	0.27779576
125	0xbf8d08c2	-1.1018298
126	0x3eff34e2	0.49845034
127	0xbe085c4b	-0.13316457
128	0x3f261431	0.6487456
129	0xbec07de5	-0.3759605
130	0x3ea634ca	0.3246215
131	0x3f4798b7	0.779674
132	0xbe2fcd98	-0.17168272
133	0x3e0aa774	0.13540441
134	0xbf1776b5	-0.5916551
135	0xbe7fcbda	-0.24980107
136	0xbeedb262	-0.46425158
137	0x3e8fcc7d	0.280857
138	0xbf65ca56	-0.89761865
139	0xbedf21ca	-0.43580467
140	0x3f6e3ef2	0.93064797
141	0x3f4a5897	0.7904143
142	0x3f0fa57e	0.56111896
143	0x3ddde1bb	0.1083407
144	0xbf42bac8	-0.76066256
145	0xbe3379bc	-0.17526907
146	0xbece02f0	-0.40236616
147	0x3d90ea11	0.070758946
148	0xbfc9b69f	-1.5758857
149	0x3f5842fe	0.8447722
150	0xbef4373f	-0.476984
151	0x3dd708d1	0.104997285
152	0x3ccb22bf	0.024796842
153	0x3f092110	0.53566074
154	0xbf707f47	-0.9394421
155	0x3e33d88b	0.17563073
156	0xbf605b6b	-0.8763949
157	0x3dd6ac6b	0.10482105
158	0x3efd6383	0.49489984
159	0xbf18b62c	-0.5965297
160	0xbf404269	-0.75101334
161	0xbf37caac	-0.7179363
162	0xbf8f0502	-1.1173403
163	0x3eeb7767	0.45989534
164	0x3e311a91	0.1729529
165	0x3d0a2fe6	0.033737086
166	0xbf6de791	-0.9293147
167	0xbe58e3a2	-0.21180585
168	0xbf11b3c6	-0.5691494
169	0xbf2d9263	-0.67801493
170	0xbf5da364	-0.8657744
171	0xbd28337b	-0.04106472
172	0xbf0b1ca2	-0.54340565
173	0xbe020696	-0.12697825
174	0x3e9b75d8	0.30363345
175	0x3ec4a642	0.38408095
176	0xbf3220f4	-0.6958153
177	0x3eb8b656	0.3607661
178	0x3f535e17	0.82565445
179	0xbf36baec	-0.7137897
180	0x3ee65c7a	0.4499243
181	0x3dcd6be9	0.10030348
182	0xbe1adcb8	-0.1512326
183	0x3e6bdd36	0.23033604
184	0xbf1f4cdd	-0.6222666
185	0x3cfa1e5b	0.030532053
186	0xbc95a7f1	-0.018268557
187	0x3f4ef531	0.8084288
188	0xbee4395f	-0.4457502
189	0xbcd5a392	-0.026078973
190	0xbdb966a5	-0.09052781
191	0x3d238277	0.039919343
192	0x3f85252c	1.0401969
193	0x3d4de2b6	0.050265037
194	0x3f307438	0.68927336
195	0xbda3e118	-0.080019176
196	0xbdb56434	-0.08857003
197	0x3d557efe	0.052123062
198	0x3e1ee93e	0.15518662
199	0x3d770fc4	0.06031777
200	0xbf14ec6e	-0.58173263
201	0xbe0bdaac	-0.13657635
202	0xbe142399	-0.14466704
203	0xbba1d4c0	-0.004938692
204	0x3decf180	0.115695
205	0xbf04aa7c	-0.5182264
206	0x3eb3885c	0.3506497
207	0x3c8e81fa	0.017395962
208	0x3ed850bd	0.42249098
209	0xbeae219c	-0.34010017
210	0x3ef8be91	0.4858289
211	0x3a0b07b7	0.0005303579
212	0x3dfd98ef	0.123826854
213	0x3e96a23a	0.29420644
214	0x3f438e2c	0.7638881
215	0xbeda722d	-0.42665234
216	0x3e9b5f8c	0.30346334
217	0x3e8df429	0.27725342
218	0xbf03b40b	-0.514466
219	0x3d8b7775	0.06809894
220	0xbed95cbd	-0.42453566
221	0xbec50c48	-0.38485932
222	0x3db47de5	0.08813075
223	0xbf95aa48	-1.1692591
224	0x3e290dc1	0.16509153
225	0x3f078b82	0.5294725
226	0x3fa1a8e7	1.262967
227	0xbb4c0fa9	-0.0031137264
228	0x3ea7f319	0.32802656
229	0xbf5382a4	-0.82621217
230	0xbf41d106	-0.7570957
231	0xbdb514af	-0.08841836
232	0x3f08038e	0.53130424
233	0xbec9259d	-0.3928651
234	0x3f9d1192	1.2270987
235	0x3e91c74b	0.2847236
236	0xbf56093b	-0.83607835
237	0x3ecdce08	0.40196252
238	0xbf208299	-0.62699276
239	0xbf01eb7c	-0.50749946
240	0xbe2224cb	-0.15834348
241	0xbecdcf2f	-0.4019713
242	0xbe9f1dbb	-0.3107737
243	0xbeb36a9f	-0.35042283
244	0xbd36d279	-0.044634316
245	0xbf0d43c6	-0.5518154
246	0x3dbb2d3a	0.09139486
247	0x3dbac19d	0.0911896
248	0x3dbd85c8	0.092540324
249	0x3e945abb	0.28975472
250	0x3fc976c4	1.5739369
251	0xbecb0a42	-0.39656264
252	0x3fccce88	1.6000528
253	0x3f0549ec	0.5206592
254	0xbed199c7	-0.40937635
255	0xbf809613	-1.0045799
