CF/Citeseer_CF/MLP_predictor.pt (torch, 266408 bytes, 3 tensors)

lins.0.weight f4 [256, 256]
0.108312055 0.054929942 0.038872525 0.0019543045 0.022454202 0.08593751 0.07748453 0.078239724
0.005292316 0.0023999978 0.021517416 0.01948217 0.10975239 0.025054717 0.10151054 0.051421914
0.037153862 0.03250683 0.09210125 0.11109913 0.14221099 -0.010958241 -0.010811848 0.07504981
0.111213915 0.06275851 -0.07644083 0.06862333 0.112739086 0.07697675 0.18108709 0.017775739
0.01655051 -0.0237997 0.24638939 0.076881506 0.0030796598 0.0216652 0.026406964 0.10360797
0.10669121 0.0092567215 0.04923476 0.012026564 0.03472584 0.09077842 0.026754545 0.1391368
0.0032644824 0.025943689 0.012644887 0.11743369 0.043122243 -0.062685214 0.03512875 0.15273519
0.0071379635 0.15910193 0.017489552 0.1360653 -0.014821189 0.08962517 0.09889222 0.12541907
0.04837848 0.16568916 0.1117413 0.018223364 0.10730154 -0.00052358443 0.0035627245 0.18021408
-0.0017722697 0.039861187 0.19202211 0.0803643 -0.03476494 0.07436707 0.117771946 0.0050955396
0.094803534 -0.05516067 0.12187188 0.0993351 0.13322565 0.015013615 0.034844533 0.131294
0.028863244 0.11639123 0.05830666 0.021725614 -0.030477136 0.14771396 0.073214926 0.037471768
0.07550724 0.14480618 0.11480388 0.064851016 0.02763339 0.085642755 0.041704003 0.18538569
0.11956901 0.00827097 0.214293 0.06617209 0.019426603 -0.011798441 0.003847935 0.14906918
0.17710803 0.028043369 0.089321144 -0.047094706 0.1063719 0.047967196 0.084598616 0.047984257
0.032731317 0.026972018 0.054715272 0.0074153217 0.036678765 0.15684526 0.12052525 0.14069009
0.23817837 0.11055006 0.0948261 0.17888556 0.08393661 0.09577864 0.039654665 0.023428448
0.09219151 -0.007970341 0.1419444 0.044468086 0.096522905 0.15087675 0.037779268 0.1378177
0.040028993 0.019470295 0.056439903 0.046468455 0.22792143 0.020102989 0.12470829 0.045210786
0.024360854 0.078474 0.13279416 0.029771283 0.10040043 0.01767525 0.06948998 0.027686158
0.12033203 0.13767377 0.1434326 0.020902323 0.046596088 0.3462015 -0.043094672 0.011626759
0.12252418 -0.03963532 0.06101443 0.050186604 0.070850424 0.06504993 0.18080221 0.09603279
0.0852703 0.1368849 0.08812667 -0.07373547 0.15586689 0.12007158 0.05942708 -0.04568402
0.04235483 0.025074283 -0.032505494 0.055637803 0.15129645 0.2886528 0.0539496 0.031958543
-0.0502364 0.20198259 0.0040190327 0.04555061 0.032928515 -0.01016127 0.010372318 0.2097453
-0.034796663 0.09952205 -0.011737921 0.060178474 0.073070735 0.007151211 0.04159114 0.06669641
0.07563142 0.01647593 0.037646823 0.012285727 0.0861699 0.15112816 0.094490826 0.08790184
0.04501805 0.06979409 0.1313405 0.13513069 0.05379356 0.08657745 0.0630308 -0.020587819
0.04995968 0.13683495 0.03632579 0.18540536 0.094466425 0.14239198 8.755638e-05 0.1268545
0.055863168 0.041096855 0.0115657095 0.028067494 0.15371428 -0.07260534 0.07730628 0.013120464
-0.013765879 0.0516226 0.10927585 0.14594714 0.008151474 0.089678064 -0.011309408 0.06281103
-0.038244538 0.042300314 0.10903271 0.1306557 0.006981289 0.05993886 -0.06933287 0.0035990488
00000000: b6d2 dd3d 38fe 603d cc38 1f3d ca13 003b
00000010: e0f1 b73c 0100 b03d 36b0 9e3d 263c a03d
00000020: 2a6b ad3b 4849 1d3b 4b45 b03c 1299 9f3c
00000030: dcc5 e03d 8d3f cd3c c2e4 cf3d c99f 523d
00000040: a62e 183d e225 053d 959f bc3d f187 e33d
00000050: c29f 113e 328a 33bc 2d24 31bc b7b3 993d
00000060: 1fc4 e33d 8987 803d 038d 9cbd 638a 8c3d
00000070: c0e3 e63d fca5 9d3d e56e 393e 6d9e 913c
00000080: ef94 873c 97f7 c2bc 804d 7c3e 0d74 9d3d
00000090: 1ed4 493b 387b b13c 6b53 d83c 6a30 d43d
000000a0: ec80 da3d 81a9 173c 63aa 493d 110b 453c
000000b0: af3c 0e3d 09ea b93d 592c db3c e179 0e3e
000000c0: edf0 553b dc87 d43c 802c 4f3c 1381 f03d
000000d0: f3a0 303d 1b61 80bd 2ae3 0f3d 9d66 1c3e
000000e0: 94e5 e93b 9eeb 223e 4046 8f3c b454 0b3e
000000f0: 93d4 72bc 678d b73d 0188 ca3d db6d 003e
00000100: 8328 463d 6baa 293e 9fd8 e43d 2a49 953c
00000110: e9c0 db3d 2841 09ba 997c 693b 0a8a 383e
00000120: 814b e8ba 7c45 233d 72a1 443e 0a96 a43d
00000130: af65 0ebd c34d 983d 6b32 f13d 7cf8 a63b
00000140: 5b28 c23d 28f0 61bd f797 f93d 3370 cb3d
00000150: 4e6c 083e aafb 753c 24b9 0e3d ef71 063e
00000160: 9c72 ec3c 865e ee3d f7d2 6e3d eaf9 b13c
00000170: 30ab f9bc 5442 173e b5f1 953d ff7b 193d
00000180: 8aa3 9a3d 1248 143e 4c1e eb3d 9cd0 843d
00000190: 6b5f e23c 7865 af3d d1d1 2a3d bfd5 3d3e
000001a0: 99e0 f43d f682 073c a06f 5b3e 3c85 873d
000001b0: 8a24 9f3c 404e 41bc a32d 7c3b 97a5 183e
000001c0: cf5b 353e 35bb e53c 01ee b63d 61e6 40bd
000001d0: 83d9 d93d 4079 443d 0a42 ad3d 248b 443d
000001e0: 4611 063d 6cf4 dc3c 1f1d 603d 3afc f23b
000001f0: 793c 163d 0b9c 203e f1d5 f63d 1011 103e
00000200: 08e5 733e 1268 e23d 3034 c23d c72d 373e
00000210: f5e6 ab3d 9727 c43d ee6c 223d 04ed bf3c
00000220: e7ce bc3d 0896 02bc df59 113e 2b24 363d
00000230: cdad c53d 6f7f 1a3e 6fbe 1a3d 1520 0d3e
00000240: 71f5 233d 2b80 9f3c 872d 673d b555 3e3d
00000250: 3c64 693e 06af a43c 0f67 ff3d f22e 393d
00000260: 6a90 c73c fab6 a03d 31fb 073e e8e2 f33c
00000270: be9e cd3d b0cb 903c c350 8e3d 15ce e23c
00000280: a470 f63d 5afa 0c3e ffdf 123e 593b ab3c
00000290: 8adb 3e3d 5341 b13e 0a84 30bd 297e 3e3c
000002a0: f5ed fa3d a558 22bd 44ea 793d 7890 4d3d
000002b0: 071a 913d e638 853d 3724 393e d7ac c43d
000002c0: 32a2 ae3d 8e2b 0c3e c17b b43d 9f02 97bd
000002d0: 929b 1f3e 17e8 f53d cf69 733d 2b1f 3bbd
000002e0: 427c 2d3d 9568 cd3c 7b24 05bd 77e4 633d
000002f0: 75ed 1a3e 4dca 933e 41fa 5c3d f6e6 023d
00000300: afc4 4dbd 86d4 4e3e 17b2 833b 4793 3a3d
00000310: 0de0 063d 757b 26bc a8f0 293c 79c7 563e
00000320: f286 0ebd 37d2 cb3d 6950 40bc b47d 763d
00000330: 1ca6 953d b554 ea3b 795b 2a3d 2198 883d
00000340: a5e4 9a3d 88f8 863c 8e33 1a3d 134a 493c
00000350: d879 b03d 57c1 1a3e 6884 c13d e105 b43d
00000360: d964 383d 34f0 8e3d 207e 063e b35f 0a3e
00000370: a356 5c3d 854f b13d 4b16 813d c9a7 a8bc
00000380: 85a2 4c3d 761e 0c3e 5aca 143d e7da 3d3e
00000390: 9d77 c13d 34cf 113e 799e b738 25e6 013e
000003a0: c7d0 643d 2d55 283d 1a7e 3d3c cded e53c
000003b0: 4767 1d3e 1cb2 94bd c152 9e3d 37f7 563c
000003c0: 488a 61bc 3872 533d 04cc df3d 2b73 153e
000003d0: c38d 053c 22a9 b73d 184b 39bc 12a3 803d
000003e0: 4ea6 1cbd 1843 2d3d 8b4c df3d 9cca 053e
000003f0: 4cc3 e43b 7382 753d 64fe 8dbd 05de 6b3b

lins.0.bias f4 [256]
0.13651974 0.0070157996 -0.06484685 -0.028267873 -0.019237258 0.17145608 -0.0051314356 -0.06740708
0.1764525 0.1872471 0.16104971 0.06260701 0.14634852 -0.036189176 -0.05903041 0.21317202
0.20946828 -0.13314445 -0.051868103 0.25184432 0.21899837 -0.062568 -0.020235943 0.0392042
0.23085465 -0.07199149 0.24076848 0.0038589202 -0.02064805 0.22760423 0.16240452 0.19891477
-0.17231074 -0.16420782 -0.15823455 -0.08031966 -0.06873137 -0.015327401 -0.09150502 0.008567281
0.04195706 0.16192548 0.047045343 0.024285646 -0.061443947 0.13213257 0.22929513 0.04574597
-0.042800795 -0.15447886 -0.16085728 0.037477802 -0.016135842 0.1439538 -0.06441029 0.056232043
0.18006122 0.19249588 -0.0021418473 -0.059159726 0.06603498 -0.10067513 0.04476505 -0.105976604
0.2281145 -0.0388942 0.18868004 0.0383032 -0.054112826 -0.094545506 0.1543938 -0.2030095
-0.04731674 0.029444665 -0.18678348 -0.0012971608 0.21121946 0.016397467 -0.026966657 0.06544384
0.03810072 -0.049887467 -0.03237969 0.23277333 -0.12235107 -0.02746097 -0.034675483 -0.1228471
-0.045930274 -0.008320197 -0.048342466 0.22507682 0.17452097 0.25382745 -0.16475828 0.04564399
0.029058227 -0.025880232 -0.046011884 -0.022437315 0.19618076 0.23275492 0.18888514 -0.033679597
0.25199756 -0.08286824 0.21287929 -0.05943501 -0.05540271 0.20446932 -0.03699058 0.20014712
0.21771921 0.047833234 -0.028759012 0.026243024 0.21110733 0.23371771 0.21315338 0.055626016
0.07514985 0.01692473 0.037436593 0.0029978526 -0.05577399 0.008168278 -0.18596673 0.22058211
0.0067352783 -0.044793047 -0.034248084 -0.06780546 0.208724 -0.023836108 -0.12147126 -0.14639363
0.20975013 0.2382458 -0.20182794 0.21512528 -0.036228415 -0.031719137 0.19677511 0.1383566
-0.057378065 0.22429533 0.17720388 -0.01850482 0.034752443 0.044997603 0.25281426 -0.061204214
-0.041336566 0.19122106 -0.051365174 -0.17625013 0.19539662 0.17469843 0.06751338 0.13354081
0.026081748 -0.06521397 -0.024879048 0.20508309 -0.03084063 -0.09732722 0.047281865 -0.12873358
0.07021595 -0.076414794 0.23556879 0.20864138 0.2418886 0.20722125 -0.05831133 0.21231468
0.03754245 0.21776953 -0.13753755 0.007904779 -0.16477288 -0.12961024 -0.09750868 0.06239017
0.029976377 0.22382133 0.2271315 -0.14625028 0.029659545 -0.0836305 0.2217012 -0.013095586
0.040352754 -0.06970421 -0.062455878 0.22232035 -0.06842893 -0.046480928 0.058922853 -0.014187667
0.24373099 0.035729352 0.031162344 -0.12811188 -0.02984188 0.029368356 0.06459783 -0.20658699
0.010062252 -0.01593555 0.025990974 -0.1804555 -0.04789524 0.13686366 0.17995223 0.24228378
0.027330147 -0.07303026 -0.11195125 0.21415547 0.05348619 0.013372824 -0.03088181 -0.11249322
-0.05829976 -0.058782823 0.24091543 -0.011339328 -0.031037332 -0.16088526 0.22670642 -0.091581635
0.23796412 0.12760937 0.22909345 -0.027161257 0.066852845 -0.063341916 0.13375175 0.0630885
0.036803525 -0.02017397 0.17873687 0.14471307 0.04911191 -0.029696329 0.041445173 -0.08975311
-0.12703711 0.03446651 -0.18659966 -0.039706502 0.2061633 -0.09418199 -0.19949807 -0.060155544
00000000: d5cb 0b3e cbe4 e53b 6dce 84bd 0792 e7bc
00000010: 7497 9dbc 2f92 2f3e 9a25 a8bb b90c 8abd
00000020: f7af 343e b4bd 3f3e 37ea 243e 1b38 803d
00000030: 63dc 153e 1a3b 14bd dfc9 71bd c449 5a3e
00000040: da7e 563e 0557 08be a673 54bd bdf1 803e
00000050: 1c41 603e a723 80bd d9c5 a5bc 9594 203d
00000060: 2965 6c3e 4670 93bd 038c 763e f0e5 7c3b
00000070: 1926 a9bc 1511 693e 5f4d 263e 50b0 4b3e
00000080: 3a72 30be 1826 28be 3d08 22be a27e a4bd
00000090: 08c3 8cbd c81f 7bbc fc66 bbbd c85d 0c3c
000000a0: 2bdb 2b3d cbcf 253e 9eb2 403d b1f2 c63c
000000b0: a6ac 7bbd c34d 073e 58cc 6a3e 2060 3b3d
000000c0: e34f 2fbd b52f 1ebe c5b7 24be 5382 193d
000000d0: 502f 84bc a068 133e 8be9 83bd 9253 663d
000000e0: f861 383e a41d 453e 3c5e 0cbb 7851 72bd
000000f0: 593d 873d c32e cebd 8f5b 373d 430a d9bd
00000100: d996 693e 864f 1fbd 5735 413e d1e3 1c3d
00000110: 69a5 5dbd 13a1 c1bd 6919 1e3e b9e1 4fbe
00000120: 33cf 41bd f035 f13c 2b44 3fbe 7e05 aaba
00000130: ea49 583e fb53 863c 2ee9 dcbc 6c07 863d
00000140: 800f 1c3d cd56 4cbd 91a0 04bd 225c 6e3e
00000150: 3393 fabd d4f5 e0bc e107 0ebd 4397 fbbd
00000160: 6221 3cbd 7051 08bc c002 46bd 8a7a 663e
00000170: a0b5 323e acf5 813e 65b6 28be 31f5 3a3d
00000180: 850b ee3c c802 d4bc f576 3cbd 76ce b7bc
00000190: 9ce3 483e 4e57 6e3e 1b6b 413e 9ef3 09bd
000001a0: d305 813e d3b6 a9bd 07fd 593e 2072 73bd
000001b0: f4ed 62bd 6860 513e 6f83 17bd 5ef3 4c3e
000001c0: c9f1 5e3e c8ec 433d 0598 ebbc 9cfb d63c
000001d0: 852c 583e b253 6f3e e144 5a3e 1bd8 633d
000001e0: 2ae8 993d bba5 8a3c 1d57 193d 9f77 443b
000001f0: 4473 64bd 3ed4 053c 106e 3ebe 47e0 613e
00000200: 9cb3 dc3b ea78 37bd b847 0cbd 97dd 8abd
00000210: bfbb 553e f143 c3bc edc5 f8bd 36e8 15be
00000220: bdc8 563e b5f6 733e fcab 4ebe cd49 5c3e
00000230: 3f64 14bd edeb 01bd 6a7f 493e 5aad 0d3e
00000240: 4305 6bbd adad 653e ef74 353e 6c97 97bc
00000250: 9458 0e3d 684f 383d df70 813e 45b1 7abd
00000260: 8850 29bd 74cf 433e 4a64 52bd ea7a 34be
00000270: 0d16 483e 25e4 323e 7444 8a3d ecbe 083e
00000280: 64a9 d53c e78e 85bd 25cf cbbc 4d01 523e
00000290: 7da5 fcbc 7e53 c7bd a1aa 413d bcd2 03be
000002a0: 61cd 8f3d 5c7f 9cbd f238 713e 16a6 553e
000002b0: a5b1 773e cf31 543e dcd7 6ebd 0569 593e
000002c0: 1dc6 193d fafe 5e3e a5d6 0cbe 0c83 013c
000002d0: 39ba 28be 8cb8 04be a1b2 c7bd d68c 7f3d
000002e0: 0591 f53c 6b31 653e 2995 683e a2c2 15be
000002f0: 93f8 f23c 7846 abbd a405 633e de8e 56bc
00000300: ee48 253d 15c1 8ebd bcd1 7fbd f2a7 633e
00000310: 7824 8cbd c962 3ebd 1759 713d 6373 68bc
00000320: 9e94 793e f158 123d 2c48 ff3c c32f 03be
00000330: f576 f4bc e895 f03c de4b 843d 8a8b 53be
00000340: 25dc 243c 458b 82bc 06eb d43c 54c9 38be
00000350: cd2d 44bd fd25 0c3e 6645 383e 3d19 783e
00000360: 79e3 df3c e490 95bd b246 e5bd 924b 5b3e
00000370: 5614 5b3d b019 5b3c d9fb fcbc d862 e6bd
00000380: bbcb 6ebd 42c6 70bd 89b2 763e 97c8 39bc
00000390: 0142 febc 1bbf 24be ba25 683e 278f bbbd
000003a0: deac 733e 08ac 023e 7997 6a3e 4981 debc
000003b0: 25ea 883d 68b9 81bd 38f6 083e 8b34 813d
000003c0: 4bbf 163d e243 a5bc cc06 373e aa2f 143e
000003d0: 9229 493d b745 f3bc 6ac2 293d 7bd0 b7bd
000003e0: 0416 02be c12c 0d3d fb13 3fbe 49a3 22bd
000003f0: 791c 533e 7de2 c0bd 3949 4cbe a965 76bd

lins.1.weight f4 [1, 256]
0.13121973 -0.41891676 -0.034735065 -0.33693692 -0.33122548 0.115435116 -0.003086374 0.01400379
0.09941973 0.13456343 0.091059506 -0.055631917 0.13532026 0.044674713 -0.005437188 0.12988362
0.099996775 -0.16697419 -0.28509045 0.122100614 0.13761914 -0.26296428 -0.34724334 -0.53314555
0.1429082 -0.33078477 0.107324116 -0.4063205 -0.35182467 0.08701548 0.12084785 0.12499139
-0.19200145 -0.17468742 -0.19269387 -0.25777784 -0.3073098 -0.47851646 -0.23759474 -0.46806902
-0.6310263 0.07210298 -0.55271494 -0.61473817 0.0516361 0.14720258 0.080386445 -0.64590937
-0.022763254 -0.2966808 -0.1830934 -0.55531836 -0.29737538 0.13795137 -0.0043521575 -0.5259816
0.11717678 0.1337419 -0.4331643 -0.04448353 -0.049846053 -0.20391262 -0.4375635 -0.24304536
0.14762627 -0.43555856 0.102756195 -0.60610497 0.012275727 -0.2698501 0.1027509 -0.17859857
0.033978846 -0.34253857 -0.16675934 -0.47876596 0.131712 -0.3991298 0.04292434 -0.5276487
-0.46002752 0.022316895 0.004163579 0.098341204 -0.21210276 0.027764633 0.0434242 -0.1795919
-0.00031320527 -0.3889866 -0.0003047331 0.09723719 0.07623905 0.11943259 -0.19582978 -0.03969854
-0.5439736 -0.3351212 0.007511093 -0.2888602 0.085304804 0.11540112 0.12462195 -0.23875515
0.09183958 -0.31559712 0.08587978 -0.0027468055 -0.2911031 0.09520267 -0.30700335 0.09475292
0.1362477 -0.6781126 0.021897145 -0.41016126 0.11995494 0.13104165 0.13230671 -0.062461685
-0.7347928 -0.3499273 -0.71818274 -0.33019128 -0.029092785 0.3264642 -0.17388946 0.11670613
-0.23275453 -0.26621684 -0.039194398 -0.041872628 0.102883965 -0.43413356 -0.1986699 -0.18119603
0.07980082 0.11910562 -0.21733873 0.13005523 0.31379578 -0.03615703 0.117384255 0.06834021
0.010944971 0.14088443 0.0774874 -0.0017474472 -0.42359322 -0.34034786 0.1114465 0.037302747
-0.0044188695 0.124593295 0.026927322 -0.21599409 0.063898645 0.10619555 0.40857914 0.09525688
-0.49396437 -0.029787105 -0.3591913 0.14182848 0.038700186 -0.25477836 -0.60169244 -0.2628475
-0.044816513 0.045174368 0.077174574 0.10706363 0.15265654 0.10595116 0.04009817 0.08352935
-0.55446595 0.106453754 -0.16531008 -0.3845117 -0.17503437 -0.25250158 -0.16544764 -0.047853734
-0.559756 0.12680906 0.09785418 -0.1947834 -0.46433955 -0.29665476 0.12659593 -0.31730565
-0.6287964 -0.27672574 -0.3328326 0.16547903 -0.009931153 0.007832763 -0.094916575 -0.36412203
0.14226957 -0.4045264 -0.5363733 -0.2574908 0.03563751 -0.5591074 -0.048773177 -0.17991965
-0.5392859 -0.34531158 -0.048263993 -0.18612057 -0.041918475 0.10852369 0.1371392 0.105568714
-0.46991873 0.026018169 -0.31782508 0.11853583 -0.580371 -0.7415535 0.0068271654 -0.27741358
0.0113687655 0.0009998009 0.121628806 0.602027 0.041632272 -0.22771052 0.10487625 -0.27435198
0.105090894 0.14180928 0.09598574 -0.41831526 -0.7142063 -0.26074558 0.14006999 -0.03692845
-0.5840861 -0.33054566 0.087152734 0.13581032 -0.5968496 0.020562727 -0.48341745 -0.22866608
-0.21635221 -0.37944427 -0.18464297 -0.24849881 0.11113949 -0.19331567 -0.19029056 -0.25505528
00000000: 775e 063e 427c d6be 5b46 0ebd ff82 acbe
00000010: 6396 a9be 3f69 ec3d c344 4abb 2770 653c
00000020: 929c cb3d ffca 093e 687d ba3d 4bde 63bd
00000030: 6591 0a3e d5fc 363d 702a b2bb 3600 053e
00000040: 1ccb cc3d 48fb 2abe 60f7 91be e30f fa3d
00000050: 08ec 0c3e 41a3 86be e1c9 b1be 3a7c 08bf
00000060: 8756 123e 9f5c a9be bfcc db3d 3e09 d0be
00000070: 5d22 b4be 2c35 b23d 147f f73d 7cfb ff3d
00000080: 079c 44be 42e1 32be 8b51 45be 75fb 83be
00000090: b657 9dbe 1c00 f5be 094c 73be bea6 efbe
000000a0: f18a 21bf baaa 933d ba7e 0dbf 7b5f 1dbf
000000b0: 6080 533d 46bc 163e a6a1 a43d 515a 25bf
000000c0: 017a babc 8ce6 97be d67c 3bbe 5829 0ebf
000000d0: 9641 98be 2043 0d3e 8b9c 8ebb bba6 06bf
000000e0: 61fa ef3d a3f3 083e b6c7 ddbe 5d34 36bd
000000f0: 602b 4cbd 78ce 50be 5308 e0be e2e0 78be
00000100: 572b 173e 8801 dfbe d771 d23d b229 1bbf
00000110: 2120 493c cb29 8abe 106f d23d 8be2 36be
00000120: 672d 0b3d 3761 afbe f6c2 2abe d020 f5be
00000130: 83df 063e be5a ccbe 6fd1 2f3d fc13 07bf
00000140: ba88 ebbe ecd1 b63c a26e 883b 1d67 c93d
00000150: 7731 59be a872 e33c 93dd 313d f0e6 37be
00000160: b335 a4b9 4029 c7be 96c4 9fb9 4b24 c73d
00000170: 3823 9c3d 1399 f43d 9a87 48be f09a 22bd
00000180: db41 0bbf 0295 abbe 9d1f f63b 7ce5 93be
00000190: 49b4 ae3d 6c57 ec3d cb39 ff3d 3b7c 74be
000001a0: 6416 bc3d f295 a1be bde1 af3d c003 34bb
000001b0: 770b 95be 9ef9 c23d 8b2f 9dbe d20d c23d
000001c0: 8484 0b3e ca98 2dbf a461 b33c a800 d2be
000001d0: f0aa f53d c82f 063e 697b 073e d3d7 7fbd
000001e0: 621b 3cbf ac29 b3be d3da 37bf d50e a9be
000001f0: fe53 eebc 5126 a73e 1410 32be a003 ef3d
00000200: 3457 6ebe 934d 88be 4e8a 20bd a282 2bbd
00000210: d4b4 d23d c146 debe 1f70 4bbe 748b 39be
00000220: 9d6e a33d a6ed f33d 0b8e 5ebe 332d 053e
00000230: d7a9 a03e 6519 14bd 2867 f03d f4f5 8b3d
00000240: 8952 333c 0244 103e b7b1 9e3d 990a e5ba
00000250: 36e1 d8be 1342 aebe 103e e43d c4ca 183d
00000260: 2acc 90bb c52a ff3d b096 dc3c 8e2d 5dbe
00000270: 4bdd 823d 0d7d d93d 4931 d13e 0a16 c33d
00000280: e6e8 fcbe 1604 f4bc ece7 b7be 7c3b 113e
00000290: 1684 1e3d 4f72 82be 8408 1abf f393 86be
000002a0: 8591 37bd c208 393d b40d 9e3d 2d44 db3d
000002b0: ff51 1c3e ecfc d83d fb3d 243d 7011 ab3d
000002c0: 7bf1 0dbf 6d04 da3d 0c47 29be b8de c4be
000002d0: 363c 33be e347 81be 1b6b 29be 4702 44bd
000002e0: 2b4c 0fbf 3cda 013e c667 c83d 4d75 47be
000002f0: eabd edbe 22e3 97be 5da2 013e e375 a2be
00000300: cdf8 20bf ffae 8dbe 0969 aabe 5673 293e
00000310: 46b6 22bc fd54 003c 9f63 c2bd 346e babe
00000320: 1daf 113e 161e cfbe c34f 09bf d6d5 83be
00000330: a3f8 113d aa21 0fbf 62c6 47bd db3c 38be
00000340: a40e 0abf aecc b0be 77b0 45bd 6496 3ebe
00000350: b5b2 2bbd ab41 de3d 386e 0c3e 6934 d83d
00000360: 3099 f0be 0e24 d53c f8b9 a2be eac2 f23d
00000370: 3293 14bf 73d6 3dbf 6ab6 df3b 2709 8ebe
00000380: 0f44 3a3c c00b 833a 8618 f93d 711e 1a3f
00000390: 9a86 2a3d f22c 69be 5cc9 d63d dd77 8cbe
000003a0: e539 d73d 7436 113e 2c94 c43d 6b2d d6be
000003b0: 39d6 36bf 7280 85be 826e 0f3e 4942 17bd
000003c0: ab86 15bf 483d a9be 227d b23d dc11 0b3e
000003d0: 23cb 18bf 2a73 a83c 7e82 f7be 7127 6abe
000003e0: 6f8b 5dbe 8546 c2be 0c13 3dbe 7976 7ebe
000003f0: 1a9d e33d 8bf4 45be 87db 42be 9b96 82be
