CF/Citeseer_CF/MLP_encoder.pt (torch, 659608 bytes, 4 tensors)

lins.0.weight f4 [256, 384]
00000000: d887 883d 1c97 283e 006b 9d3d 8a73 10be
00000010: 4699 79bd 163f 723d 1030 2abd ed5d 0f3d
00000020: 59bb 7f3e 3d35 1a3e c841 d3bc 3210 88bd
00000030: 9030 6fbb 54af 32be ae51 54bd 3799 a0bd
00000040: e5a4 c5bd 4563 453c f82d ea3c 4da2 fd3c
00000050: c1f9 f43c 03df 1a3e 9500 5c3d 1a69 b3bd
00000060: e7cf 463e 17fc fabd 6b02 89bc 2cfc af3d
00000070: ec50 90bd be81 2c3e 0c47 01bd 1c96 aa3d
00000080: 7fff 903d f6a7 f5bc e88e 41bd 8656 4a3d
00000090: 6a55 8d3d 3cbc 44be d0f8 a7bc fe95 3cbe
000000a0: 8c20 d6bd 6843 883d 2a0a 413c 0255 acbd
000000b0: 553b 5dbe 46af e4bd c010 1c3d d981 9b3d
000000c0: 0a24 dfbd 4cee 6b3d f6bd 34bc a7e5 41bd
000000d0: b1b2 a2bd 377f 80bd 2643 033e 7459 19bd
000000e0: de70 b43d 751d f03d ca10 0f3e b8c7 0b3e
000000f0: aba5 433d 6052 083e 03fc 42be b1ac 083e
00000100: 7e3e 503e cb5d 033d d64a 13bd e2cd 59be
00000110: 2859 0a3e ac90 73bd c70e 65bb f6b0 a63d
00000120: e6ba 183e 2c37 07bd d105 0bbe d806 a2bd
00000130: a95e 05be bf20 10be 3a67 aebd 881b 37bd
00000140: 2fba ef3c 256c 9c3d 0f1f 643d f0e5 2bbc
00000150: e4db 0a3e 18d7 3fbd a112 7ebc 3e32 80bd
00000160: eb18 babd daa5 02be cee0 dfbb f7d9 9dbd
00000170: daa1 183d 7e02 5ebd bb75 a1bd f95a 32bd
00000180: 434c 4f3c 7a4f cb3d 617d 11bd 146e b1bd
00000190: 5120 d03d 8675 953d 3759 8a3d 62d7 99bd
000001a0: a6b4 c3bb aff7 a93d ddd2 523c b8c8 25be
000001b0: a83a c9bc 0d07 013d fe37 c6bc 3b58 1cbd
000001c0: f30c b4bd ecf9 913b 8546 48bd b112 633d
000001d0: 32c3 bd3c e0c6 db3d c27a 01bd f9c5 92bd
000001e0: 8c17 c73d 30d4 4abc ce47 7a3e 681e 9bbc
000001f0: 4b2b 1c3d a361 a13d 53c5 313e b3f1 1eba
00000200: 2acb 59bd 40bb e4bd 8c53 95be bad0 bfbb
00000210: 7fa2 edbd 6919 24be 271f b03d 3c1a 74ba
00000220: 4418 2fbd f484 23bd befa 2fbd e1c3 723d
00000230: d440 223e d34c 4b3c 14c9 853d 6c4d 83bd
00000240: 8d6a f13d f6e0 893d a37f 1e3d 0e0c 2e3e
00000250: d05d 2abc 3f0f df3c e7a2 263e b268 c3bd
00000260: 78eb 2d3e f154 b1bd 4c64 60bd 3a0d 44bd
00000270: d209 fc3c ba6c babd f122 583d 86b3 75bd
00000280: 283d 233e 390d 01be 19f5 193d be12 45bc
00000290: 22b6 323d d8a6 8bbd 64a5 10bd 943c 40be
000002a0: 5413 bf3d c55c 4abe c68f 95bc da3c 61bd
000002b0: 9bbd b83d bfe8 cebd 7b4a 53bd a60d 5e3d
000002c0: c3b7 b33c f4fe 43bd 3282 3c3d 5b21 a33d
000002d0: bcbf 9fbc 88e3 17be 449b 913d 36ca f9bd
000002e0: bdc5 983d b159 073e 21ce 203e cebe 043e
000002f0: f600 46bb fd2b 11be 78d0 09bd f25a d93c
00000300: 2db4 e0bc 7470 02be 735b c23c de22 30be
00000310: 70b7 99ba 3814 9d3d 1238 0ebc 89b9 d03c
00000320: 8262 2abe ef97 533e b093 1a3d 3b57 3bbc
00000330: 4245 66be 755f 593d 387c 18bd 55ca 65be
00000340: 1e61 45bd 69c6 c4bd 6ff5 c23d eb92 493d
00000350: c212 1c3e 0de6 b7bd 2f81 0ebd afec 7f3d
00000360: ea93 f8bd 4f4c 2f3e 55ca a13d 391c 6a3e
00000370: 5c47 66bd 565b 803d bec4 c23d eba7 f6bc
00000380: 3df7 00bd 39f1 21ba 9be0 233d 07a0 16be
00000390: c3b0 68bd 4059 1bbc 4831 cfbd f1ed 853d
000003a0: c1da 8fbd e5ce 25bd c5ac 49bd c266 a03d
000003b0: d66e b43d 8bc0 66be 6562 473d 85ad 05bb
000003c0: 6735 7a3d 0594 18bd c516 42bd 5b80 36bd
000003d0: 6832 a03d a086 60bd 39d0 153e cb52 263e
000003e0: f5c1 f83d 8406 32be 0c34 173e f410 14be
000003f0: 1f31 80bc 0fb6 7fbd 037a b6bd dbec 04be
0.06666535 0.16463894 0.07686424 -0.14106575 -0.06093719 0.059142195 -0.041549742 0.035001684
0.24973811 0.15059371 -0.025788203 -0.06643714 -0.0036497451 -0.17449695 -0.05183571 -0.078417234
-0.09650592 0.0120475935 0.028586373 0.03096118 0.029904248 0.15124135 0.053711493 -0.08760281
0.19415246 -0.122551136 -0.016724786 0.0859302 -0.070466846 0.16846368 -0.031561896 0.08329412
0.07079982 -0.029987317 -0.047255427 0.04939892 0.06901057 -0.1921243 -0.020504385 -0.18416592
-0.104554266 0.06653482 0.011782208 -0.084146515 -0.21604665 -0.11166243 0.03810191 0.07593126
-0.10895546 0.057600304 -0.011031618 -0.047338154 -0.07944239 -0.06274264 0.12818584 -0.037438825
0.0881059 0.117243685 0.13971248 0.13650405 0.047765415 0.13312674 -0.19041447 0.13347127
0.20336339 0.03207187 -0.03596004 -0.21269944 0.13510573 -0.05946414 -0.0034951435 0.08139221
0.14915046 -0.0330116 -0.13576438 -0.079114616 -0.13024391 -0.14074992 -0.08515783 -0.04470399
0.029263584 0.076378144 0.055693682 -0.010491833 0.13560444 -0.04683599 -0.015507371 -0.06259583
-0.09086784 -0.1275858 -0.0068322187 -0.07707589 0.03726373 -0.054201595 -0.078837834 -0.04354379
0.01265246 0.09927268 -0.03551996 -0.08663574 0.10162414 0.072978064 0.06755298 -0.07511784
-0.0059724627 0.08299195 0.012867657 -0.1618985 -0.024564102 0.031500865 -0.024196621 -0.03817008
-0.08791532 0.004454842 -0.048895378 0.055437747 0.023164365 0.10731292 -0.03161121 -0.071666665
0.09721288 -0.012379691 0.24441454 -0.018935397 0.038127225 0.07879951 0.1736043 -0.00060632377
-0.053172268 -0.111685276 -0.29165304 -0.0058537396 -0.11603259 -0.16025318 0.08599692 -0.00093117706
-0.04274775 -0.039921716 -0.042963736 0.059268836 0.15845042 0.012408453 0.06532493 -0.064112514
0.11787901 0.06732361 0.038695943 0.16996786 -0.010398343 0.02722895 0.1627308 -0.095414534
0.16984355 -0.086587794 -0.05478315 -0.047864176 0.030766401 -0.09102769 0.052767698 -0.05998566
0.15941298 -0.126027 0.03758726 -0.012028394 0.043630727 -0.06818932 -0.03531398 -0.18773109
0.093298584 -0.19761951 -0.018257033 -0.054989673 0.090205394 -0.101029865 -0.051584702 0.054212235
0.02193821 -0.047850564 0.0460226 0.079653464 -0.019500606 -0.1483289 0.07109693 -0.12196772
0.074595906 0.13217808 0.15703632 0.12963411 -0.0030212975 -0.14176936 -0.033646077 0.026532624
-0.027429665 -0.1273821 0.023725247 -0.17200801 -0.0011727642 0.07669872 -0.00868036 0.025479095
-0.1663914 0.20663427 0.037738502 -0.011434372 -0.22487357 0.05306955 -0.03722784 -0.22440465
-0.04818832 -0.09608156 0.09519469 0.049212378 0.1524153 -0.089794256 -0.034791168 0.06248158
-0.12137587 0.17118953 0.0789992 0.22862329 -0.056220397 0.06267421 0.09510182 -0.030109366
-0.031485785 -0.00061776076 0.040009122 -0.14709483 -0.056809198 -0.009481728 -0.101168215 0.06539524
-0.07024146 -0.040480513 -0.04923703 0.078320995 0.08810203 -0.22534387 0.04867782 -0.0020397615
0.061086085 -0.037250537 -0.047384996 -0.044556003 0.07822114 -0.05481589 0.14630212 0.1624252
0.12146369 -0.17385298 0.14765948 -0.14459592 -0.015648423 -0.062429484 -0.08909991 -0.12980978

lins.0.bias f4 [256]
00000000: ccc8 24bc fd15 323c 25d5 5bbd b758 3e3d
00000010: 8f5b 363c 5619 52bc 3fdc 6abd 0f71 863c
00000020: 3f79 aabb 0a84 9a3b ee55 6fbd 6d94 5c3d
00000030: 7d39 68bd d8a3 6bbd 6c4b d4bc 2eb6 e4bc
00000040: a2dd 833d 85a1 c9bc aa10 253c 42aa 00bd
00000050: f244 f33a 65ed acbb 5ee6 13bd c9ad 71bc
00000060: ed8e cbbc 98bd 3abd 4e20 86bc e016 a9bb
00000070: a449 c93c 7ea0 7c3c b1a1 cd3c c6a5 45bd
00000080: 7c6b 9e3b 272b 10bb 3ad8 c73c 1dbd 01bd
00000090: 0036 f8bc 6a23 eabb 27b4 203a 72b8 a03b
000000a0: 9e45 f6bb e798 de3c d87b 87bb 1a05 663c
000000b0: 349a 86bc 71fb 953a d075 75bd a43b df3a
000000c0: 7491 b2bc 50cb 3fbc caff 4e3c 1b40 9839
000000d0: 47d8 73bc cacb 9b3c 53d9 61bd 7ef9 91bc
000000e0: 1753 143c 4e60 4f3c cf9b ecbb b5a5 5ebd
000000f0: 1905 333d cbb3 a13c cbdf d0bc dd94 ea3c
00000100: aa70 c33b 91d2 09bd ae01 1bbd e15d 2cbd
00000110: 9e4a 5b3c cf2e 72bd ce89 4b3c 6d8d d3bc
00000120: 2583 143c 0915 083c 7676 5b3b ce43 9939
00000130: ea88 c8bc fa56 fc3b 9a6e 5dbc 3e7b 14bd
00000140: f857 a43c fd5c 69bc 500b 10bc c5ce d7bc
00000150: f657 75bd c031 41bd 725f 62bc 0d4a 76bd
00000160: 778c f43c 2ad2 bdbb fa83 edbb ab48 aebc
00000170: 5663 943b dd0b 0d3d b4e6 4c3c c5f4 12bc
00000180: 800b cc3c 5178 4cbc 36a1 983c 288c 2abd
00000190: 035f 39bc 4887 38bd d017 03bc 94e9 073d
000001a0: d973 9d3c 918b 77bc 765b cbbc d1ff 033c
000001b0: c944 473d fb4b ae3c c81c 8b3a 508c c4ba
000001c0: 9044 0b3b 4ee8 223a e80c c3bc 9c72 753c
000001d0: ce75 07bd 5785 dabc 393c e83c 849f be3c
000001e0: 8fa8 1abd cc7c 7abc ec1e a2bb a266 ff3c
000001f0: 5f7c f5bb db4e 58bd 00da 133b 9441 4cbd
00000200: 0f8c 713c adef a03c f9e5 03bc 155e 253d
00000210: e449 5cbc 1e41 143c 058c 96bc 7ff9 71bd
00000220: 1e48 b6bc 21ce 563d 069d 1ebd 236d b9bc
00000230: 92c6 e0bc 2d97 8b3c fa8b 09bc 73e5 aebc
00000240: 55d1 24bc c1f7 eebc 7499 943b fa4f 663c
00000250: e3a7 fcbc b27e 0c3c 74c0 a7bc 68c9 d63c
00000260: 590a a7ba 8640 6fbc 560e c7ba 9118 babc
00000270: 7982 96bc 362f 65bd 14a7 48bc 4a13 9a3b
00000280: 39eb 62bc 9089 123d 0c1d d4bc 0e84 feb9
00000290: ba8e 3abc 4bee b33a d6f0 7fbc 8658 3ebc
000002a0: 34d3 003c 310a 053d 02db 393d 8228 0b3c
000002b0: 3582 fdba bf5a 8a38 b25e a33b 8d70 52b9
000002c0: 67b8 65bc cd3c 7fbb 90cd 6ebc f8e9 28bd
000002d0: d708 b23b 704c ec3c dae2 213d dc43 da3b
000002e0: c592 10bd e759 25bc 63fd 16bc 3877 303c
000002f0: 2a5c 0c3c a022 6bbd 7b14 353c 12e4 e8bc
00000300: 04b6 40bd d643 0e3d 766b 4d3c 67a8 493d
00000310: b8c4 1e3d 56fc 653a 6afc 10bd 389b 8a3c
00000320: 852a 8abd af92 dcbb 1bff 8dbc c617 283d
00000330: dbb7 a0bc a3eb 2b3d ade7 723b 5c86 90bc
00000340: 9149 e9bc c6f7 e0bc 2c78 703d e4b7 17bb
00000350: c5fe 91bd 5b0a 62bb 8331 993d 0424 f2ba
00000360: 860f 113d 202f 693b 9c2d 1cbd 7868 793c
00000370: 370c 15bd e9c1 9d3c e640 973c a9f2 a43a
00000380: f0cb 2a3c 45d0 cebc f7d7 74bc ee13 293d
00000390: 99ca f5b9 dd68 033d 3b75 20bd e9d2 073d
000003a0: ede5 62bd 0e6e a5bc d4ac 713c 184f 553b
000003b0: 5c59 00bd 3cac d4bb 6c65 1e3c 2ceb e7bc
000003c0: 1451 60bd c80b 44bc e482 593c 5fc2 98bb
000003d0: c686 1abc 170e f5bc 5d43 733c 69ac 4abc
000003e0: 6509 613c 8545 fabc 74e5 b1bc 0d73 46bd
000003f0: d31d 8ebc b42a 2c3d 0287 8dbc e511 983c
-0.010057639 0.0108695 -0.053670067 0.046471324 0.011130228 -0.012823423 -0.05733895 0.016411332
-0.005202442 0.0047154473 -0.05843156 0.053852487 -0.05669545 -0.0575293 -0.02591487 -0.027918901
0.064387575 -0.024613151 0.010074774 -0.03141237 0.0018559976 -0.005277323 -0.036108367 -0.014750906
-0.024848426 -0.045590967 -0.016372826 -0.0051601976 0.024571247 0.015419124 0.025101515 -0.048253797
0.0048345905 -0.0021998377 0.024395097 -0.031674493 -0.030299187 -0.007145335 0.00061303604 0.0049048
-0.0075156232 0.027172519 -0.0041346364 0.014039302 -0.016430952 0.0011442733 -0.059926808 0.0017031324
-0.021797873 -0.011706188 0.012634227 0.00029039462 -0.0148831075 0.019018073 -0.055138897 -0.017819162
0.009053013 0.012657238 -0.0072207223 -0.05435725 0.043706033 0.019739052 -0.025497338 0.028635437
0.0059643583 -0.033648077 -0.0378434 -0.042081717 0.013384489 -0.05912667 0.012422992 -0.025824273
0.00906447 0.008305796 0.0033487356 0.00029232953 -0.024479348 0.007700798 -0.013515139 -0.036250345
0.020061478 -0.014243362 -0.00879176 -0.026343713 -0.05989834 -0.047166586 -0.013816701 -0.060129214
0.029852135 -0.005792876 -0.007248399 -0.021274885 0.0045284433 0.03443514 0.012506176 -0.00896949
0.024907827 -0.012479858 0.018631559 -0.04163757 -0.011314156 -0.04505089 -0.008001283 0.03318174
0.01922028 -0.015108959 -0.024823885 0.008056597 0.048649583 0.021276465 0.0010613436 -0.001499543
0.0021250583 0.00062144257 -0.023809865 0.014980938 -0.03307133 -0.02667491 0.028349029 0.023269422
-0.037758406 -0.015288543 -0.004947534 0.031176869 -0.007491633 -0.052809577 0.0022560358 -0.049867228
0.014742865 0.019645536 -0.008050435 0.040372927 -0.013445351 0.009048728 -0.018377313 -0.05907583
-0.022251185 0.052442674 -0.038723968 -0.022635048 -0.027438436 0.01703986 -0.008395189 -0.021349644
-0.010059674 -0.029170873 0.0045348946 0.014057154 -0.030841773 0.008575128 -0.020477511 0.026219085
-0.0012744173 -0.014602786 -0.0015186768 -0.022716792 -0.018372761 -0.055953227 -0.012246866 0.0047020065
-0.013850027 0.03577572 -0.025892757 -0.00048545044 -0.011386568 0.0013727633 -0.015621385 -0.011617785
0.007862855 0.032480422 0.045374878 0.0084935445 -0.0019341173 6.5972556e-05 0.004985654 -0.00020069089
-0.014021016 -0.0038946152 -0.014575377 -0.041238755 0.0054331827 0.028845042 0.039522983 0.0066609215
-0.03529622 -0.010092235 -0.009215686 0.010770611 0.0085668955 -0.057406068 0.011052246 -0.028429065
-0.047048584 0.034732662 0.012537828 0.049232867 0.038761824 0.0008773258 -0.03539697 0.016919717
-0.06746391 -0.0067313532 -0.017333558 0.041038297 -0.01961892 0.041972768 0.003706436 -0.017642193
-0.028477462 -0.027461898 0.058708355 -0.002315038 -0.071286716 -0.0034491036 0.07480147 -0.0018473868
0.035415195 0.0035581067 -0.038129434 0.015222661 -0.036388602 0.019257503 0.018463563 0.0012584525
0.010424599 -0.025245795 -0.014944068 0.041278772 -0.00046880989 0.032082427 -0.0391743 0.033160124
-0.055395056 -0.02019408 0.014750678 0.0032548364 -0.03133522 -0.0064902585 0.009667736 -0.02831038
-0.054764822 -0.0119656995 0.013275836 -0.0046618427 -0.009431547 -0.029913945 0.014847604 -0.012370207
0.01373515 -0.030550728 -0.021715857 -0.048449565 -0.017348206 0.042032912 -0.01727629 0.01856322

lins.1.weight f4 [256, 256]
00000000: 1512 e4bd 6b59 34bd 520e a93d f3d4 d13d
00000010: 2289 f83c ca4f 85bd d034 11be 92cd 8f3c
00000020: 19ca 7c3c ace5 13bc 9a7e 88bd a46b 64bd
00000030: f3af d03b 8190 67ba 3240 423e 9a14 1dbe
00000040: a6d3 bc3d 0896 b1bc 9e25 a7bd e579 24bc
00000050: 3564 123e ce75 b1bd 5e94 f03d 2fc2 b7bd
00000060: 1970 873d 01dc 053d 8251 e63d 6d6a d9bd
00000070: 7be7 2f3c 34ee 603d 9692 c7bd be09 1d3e
00000080: 2fd0 8f3d a79e bdbd 4dc0 343d 1d49 b73d
00000090: ed7f 89bd 312e 973d 1c20 d4bd ec0a 363c
000000a0: 8a51 ab3d 39ed 54bd cbb9 98bd 4ecb 8ebb
000000b0: f280 c53d df49 bfbd 81e1 433d e534 8bbd
000000c0: f084 3cbd 9099 87bc 426a adbc a4de 7dbd
000000d0: 3b5c 09be fe37 2e3d f7f1 953d a3ee 15bd
000000e0: 3722 cd3c 8be9 973d f624 aebd 8804 193c
000000f0: 871e 49bc bc1d 583e de83 1b3d 922a a6bc
00000100: 22c4 08be a391 083e 7ca8 983d 9174 4bbd
00000110: 866f df3b 8a2f 93bd a689 3f3c e8f8 dc3d
00000120: e5fe 3a3e 2e23 0cbc 6765 1b3e 2c27 093e
00000130: 8df3 4abd 1a83 fc3b 03a6 6d3d 4f90 663d
00000140: ba64 5b3d d206 f13c bb82 b03d 9ca2 e53d
00000150: 4e47 7a3d 1d55 fdbc d155 92bc e375 42bb
00000160: f51a 8dbd 6b27 71bd f49e 5dbd 15e2 ebbb
00000170: f78f f73c fe57 943c a0c8 8dbd b7d2 d63d
00000180: 595a 583d 2720 193e 1079 173d e58d 353d
00000190: af64 943b b054 c8bc f0fc 163c 2173 783c
000001a0: 6dc3 fb3d 85a6 a7bd fa0f d03b 6c7a e4bd
000001b0: dba6 213e 85e5 a73d 8bf7 88bd a827 f0bd
000001c0: 7815 4ebd 6b9a 00bd 8761 123e f747 a03d
000001d0: b710 26bc 1d6a 013d 02b0 bf3d bf5d d03d
000001e0: 0e57 603d b696 96bd 1485 b23c 85e5 e33d
000001f0: f3f5 8d3d 49dd e33d 5f6a 0fbc 62bb 833d
00000200: 33d8 f93c 6997 d33d 405c 9e3d af2a 05bd
00000210: df3f cbbc cb61 b6bd ff74 e0bb 3c90 923c
00000220: 6252 293d 3025 9cbd a453 833d e2a7 8dbe
00000230: 5f61 1f3d 0342 d63d 4abc 043c b9b3 fd3c
00000240: 5451 50bd 350f a0bc 76ce 293e 7855 5abd
00000250: 0770 253d 6bb3 cd3c fc57 f83c 1f74 053e
00000260: 2805 b4bd 5c37 00be ba38 2dbd a88c 17bc
00000270: d58a 80bd 3951 83bd a74c 61bd 79ec fdbc
00000280: 8df0 4dbd d308 8f3c 08f8 c7bd b7a4 a7bd
00000290: edce f9bb bbc1 d7bd 720e 69bc 264a c33d
000002a0: c3cd 043e ed47 ce3d cfff a13d a969 2d3e
000002b0: f615 073e bc03 ecbd 1a28 c5bd 6bcc 983d
000002c0: 23a9 bdbc 7c94 12bd 9978 4b3c 41a8 b63c
000002d0: 718a f23d d304 2c3e fbc0 1d3d 3c12 afbd
000002e0: 2fe6 d33d e76a 673c d2a0 3d3d f7f3 7ebd
000002f0: 2d82 df3c fa95 ee3c ba8c c2bd 23e1 0fbd
00000300: 43d0 023d 7ef2 f63c d9d7 97bc fcbe 3dbd
00000310: 7b72 493d b16d 73bd c914 edbd 67f8 333e
00000320: 9e88 c5bc 4080 653c 6831 053e 6181 e0bd
00000330: b6c0 78bd 6619 0fbd 877d 0a3d bc2c 73bd
00000340: d7d0 313e 7e23 993c bd69 50bd 8f53 7bbd
00000350: fa72 0a3c 2c10 debd a3e4 883d fc97 7a3d
00000360: f9a0 58bd c701 40bc 0760 aa3d a025 a7bd
00000370: 8703 e6bc 341d a13d 18cb b5bd 53d7 ebbc
00000380: 941c bb3c 32ff db3b 1606 debd 55d1 0e3d
00000390: be34 a6bd 6bab 08bd 174e 023d 6af9 e93c
000003a0: 3bb9 b83d 3494 bcbc 4e08 ea3d a0bd 453e
000003b0: d75c 8b3c f862 ac3d 7b1a 5e3d e0c8 cdbc
000003c0: 1648 ea3c c1da 383e d38e febc 5ac7 87bc
000003d0: 760d b53c e9b7 f33c 8749 a83d 6378 cbbd
000003e0: 4fc4 50bd 5d7c e03d aa13 9e3c 0f05 143d
000003f0: d806 5b3d 090e 453e e8b5 bcbb 8d3a 97bd
-0.111362614 -0.044030588 0.082546845 0.10245695 0.030338828 -0.06509359 -0.14180303 0.017554078
0.015429043 -0.009026926 -0.06664772 -0.055766717 0.006368631 -0.00088334834 0.18969801 -0.1533989
0.09220056 -0.021677986 -0.08161472 -0.010038828 0.14296038 -0.086650476 0.11747049 -0.089725845
0.06613178 0.032680515 0.11246015 -0.10616002 0.010736342 0.05491467 -0.09744756 0.15335748
0.0702213 -0.09258776 0.044128705 0.08949492 -0.06713853 0.07381857 -0.10357687 0.011111002
0.08365162 -0.051984046 -0.07457312 -0.004357732 0.09643735 -0.09340262 0.04782248 -0.06797198
-0.046025217 -0.016552716 -0.021168832 -0.061979905 -0.1341409 0.042533867 0.07321542 -0.036604535
0.025040729 0.07417592 -0.085031435 0.009339459 -0.012275345 0.21105093 0.037967555 -0.020283971
-0.13356069 0.13336806 0.07454011 -0.049671713 0.0068187146 -0.07186802 0.011690533 0.107896626
0.18261297 -0.008553309 0.151754 0.13393849 -0.049548674 0.007706058 0.05801965 0.056289967
0.053562857 0.029422197 0.08618685 0.11212656 0.061103158 -0.030924374 -0.017863186 -0.0029672317
-0.06889907 -0.058875483 -0.054106668 -0.007198582 0.030220015 0.018108364 -0.06923032 0.104894094
0.052820537 0.14953671 0.03698069 0.044324774 0.004528604 -0.024454445 0.009215578 0.015164168
0.12293134 -0.08186058 0.006349561 -0.111561626 0.15786307 0.08198074 -0.0668784 -0.11726314
-0.050313443 -0.031397264 0.14295016 0.07826226 -0.010135821 0.031595338 0.09359743 0.10174131
0.05477052 -0.073529646 0.021791972 0.11127762 0.06931677 0.11126191 -0.008753388 0.06432225
0.0304986 0.103316136 0.07732439 -0.03251141 -0.02481073 -0.08905371 -0.0068498845 0.017891042
0.041338332 -0.076242805 0.064124376 -0.27667147 0.03891122 0.104618095 0.008101532 0.030969488
-0.05085881 -0.019538501 0.16582665 -0.053304166 0.04039004 0.025109967 0.030315392 0.13032578
-0.08790046 -0.12521118 -0.042290427 -0.009249844 -0.0627648 -0.06411976 -0.055004742 -0.030996548
-0.050278235 0.017460262 -0.09764105 -0.08185714 -0.0076235444 -0.10534998 -0.014224635 0.09535627
0.12969117 0.100723125 0.0791012 0.16934837 0.13191971 -0.1152415 -0.096267894 0.07460865
-0.02315194 -0.035786137 0.012418889 0.022297027 0.11842812 0.16798715 0.03851412 -0.085484
0.103466384 0.014124609 0.04629595 -0.06224438 0.027283752 0.029124249 -0.09499498 -0.035126816
0.031936895 0.030144926 -0.018535541 -0.046324715 0.049181443 -0.05943078 -0.1157623 0.17575227
-0.024112996 0.014007628 0.13007128 -0.10962177 -0.06073066 -0.03493633 0.03381112 -0.059368834
0.17364822 0.018693682 -0.05088209 -0.061358985 0.008450264 -0.10842928 0.06684234 0.0611801
-0.05288789 -0.011719174 0.08319097 -0.08161473 -0.028077854 0.07866898 -0.08876628 -0.028789198
0.022840776 0.0067137713 -0.108410046 0.034867603 -0.081155285 -0.033366602 0.031812754 0.028561313
0.09019705 -0.023019888 0.11427365 0.19310617 0.017012043 0.08417314 0.054224472 -0.025120199
0.028598826 0.18052198 -0.031073963 -0.01657455 0.022101145 0.029750781 0.08217149 -0.09935071
-0.050968464 0.109612204 0.019296486 0.036137637 0.053473324 0.19243635 -0.0057589896 -0.073842146

lins.1.bias f4 [256]
00000000: a399 c4bd 6d78 15bc c6b8 a5bd 6be8 1e3d
00000010: d994 51bd 4741 d73d 3d5a 80bb 792c 88bd
00000020: 8502 cdbc a680 1cbd fe3f 8b3d b13d d53c
00000030: d049 7a3d 9b28 513d 4295 3bbd 67ac 8d3d
00000040: c3f2 773d 373a a73c c139 12bd e7d5 0a3b
00000050: e1e4 8a3d 795a 853c 947e 3b3d 1aee 453d
00000060: 0376 a7bc f2f9 e2bd b025 3c3d bb4a 9dbd
00000070: fa03 923d 7ef4 063c 82a8 c83d 2ed9 88bc
00000080: 9553 ddb8 b447 40bd fd39 29bd 5043 3e3d
00000090: 6451 96bd 6750 493b fd3a 853d 1e63 8a3d
000000a0: c623 ae3c c4f4 40bc 0804 063d 34b4 5ebc
000000b0: b97e febc 404a 9dbc a646 16bc 60d6 a2bd
000000c0: d365 56bd df36 acbc 0b19 6c3c e939 db3d
000000d0: d70a 8e3d 1728 5b3d d946 cc3d 1fdf 503d
000000e0: 93c9 49bd 7c24 16be b4fc 703b f303 213d
000000f0: e00a d3bc d555 2b3d 85aa 31bd a34b 223d
00000100: a33f 773d 5365 62bb 671e 8abc 610a 4abd
00000110: 5530 8ebd 5a95 5abc 424b 6e3c e202 7ebd
00000120: 41f5 543d 4e87 943c 93b1 88bc 3315 783c
00000130: a15d 003d a721 8f3d 2b36 80bd 54aa 633d
00000140: ad11 2bbd d31f 30bd 4997 4cbd 4612 143d
00000150: d9a4 97bd af0d 8bbd 0650 afbd eb1e 613d
00000160: 6a68 823c 6ae1 2d3c db68 d8bb 4aea 81bd
00000170: e7b2 803d 1723 e1bc 0786 b53c 766f bb3c
00000180: 4033 3d3c 593f ae3e 4c3d ba3d 3dd1 e23d
00000190: 40a4 6c3d 29df 4cbd a15e 10bc b76c f83d
000001a0: 8e9d 153d d769 1ebd f161 423d 5ca7 aebd
000001b0: 78a1 98bd fc9c f8bc 58e8 4fbd c7be cf3d
000001c0: cd6a 1fbd c8ea 373d 363e c5bd db90 44bd
000001d0: da3e 153d f25e ba3b 1629 433d 3fb9 ea3c
000001e0: 857a a83c a4b7 813b de22 4d3d 3788 54bc
000001f0: c051 4e3d ff2d 9ebd cc55 7cbd 0e7c 153d
00000200: f870 5dbc 66be bbbd 94f1 a53d 88b3 14be
00000210: 1e56 85bd fca5 9dbd 4a72 033d ca5a d63b
00000220: fa78 e03d 2903 4abd 9bbe af3d b55d 08bc
00000230: 0dec 80bd a1e0 c03d 4376 99bd 0440 0c3e
00000240: 6473 313d ca21 de3c 4db4 323d 50d0 b5bd
00000250: 5087 ac3d 5aeb ccbd 6ff8 7fbd 9405 f0bc
00000260: 4537 92bc b66c 873d bbc1 c0bd 0731 033d
00000270: f9b9 393d cbff a63d 56e0 b3bd 7efd 11bd
00000280: bc8d a33d fc71 143d 1351 8bbd 8e77 1f3d
00000290: af70 573d de3f 04be 68d8 933d 1930 d7bb
000002a0: d597 04be d55e 68bd a3f6 95bc c953 f43c
000002b0: 33e3 c339 cba9 14bd 5c47 b2bd 5c11 953d
000002c0: 9a00 2c3c 20d3 a73a e74c 85bd bca5 9ebd
000002d0: 1a61 fc3d 11cc 053d 68a7 51bd 6c78 75bd
000002e0: 055f 3ebc 0fdb 023d 6807 6abd 81ab e9bd
000002f0: a000 d23b 8d04 6dbd 0be8 c4bc 11a9 1d3d
00000300: 388f 403d a46c 193e d7c9 893d b85c 36bd
00000310: bd36 ce3d 71bd 6bbd 6604 86bd 075c f3bd
00000320: f2c7 7abd a8f7 b9bc 0f70 87bd c5cd 88bd
00000330: de25 cf3c b874 f63a 94eb 233c 7d03 81bd
00000340: cdb8 f7bd a024 603d af9f 603d a08d 9ebc
00000350: 6316 143e 3456 c03d d71c f13c aabe 6dbc
00000360: 93ea 6dbc 67db 8d3a 681a e8bd aba2 55bd
00000370: 2204 953d ed5e 00bd 03c2 26bc 0fa4 603d
00000380: df6a 1fbd ef9d 9f3d 8e8e 6b3c c7c8 39be
00000390: 9cab 97bc d587 8ebc f7e2 4d3d c0e5 923d
000003a0: c3df 013d 142c 14bd 811d a1bd 9051 803d
000003b0: 2736 75bd 2db8 87bd cd69 1d3d 7241 66bd
000003c0: 9952 063c 2921 db3d 0f24 7fbd 7f1f cf3c
000003d0: 1992 523d f0fe 903d cfe1 323d 9685 aebd
000003e0: bcb9 4a3d 2fac 313d 460a 2c3d ec7f 20bd
000003f0: e5ae 7e3d a9a7 dfbd 22be b03b bc4d 5c3d
-0.095996164 -0.00912295 -0.08091883 0.03879587 -0.051167343 0.105104975 -0.0039170072 -0.066491075
-0.025025615 -0.038208626 0.06799315 0.026030393 0.06110555 0.051064115 -0.04579664 0.06917649
0.06053425 0.020413501 -0.03569961 0.0021184625 0.067819364 0.016278492 0.04577501 0.048322774
-0.020442015 -0.110828295 0.04593438 -0.07680269 0.07129665 0.008237002 0.09797765 -0.016705122
-0.000105536696 -0.04694338 -0.041315068 0.046450913 -0.07339743 0.003071809 0.06505392 0.06757186
0.021257292 -0.011777107 0.03271869 -0.013592768 -0.031066285 -0.019200444 -0.009172117 -0.07951045
-0.0523432 -0.021022258 0.014410268 0.10704405 0.06935661 0.05350503 0.099744506 0.050994035
-0.0492645 -0.14662355 0.0036771717 0.039310407 -0.025762022 0.041829903 -0.04337551 0.039622914
0.060363423 -0.0034545257 -0.0168602 -0.049326304 -0.06942812 -0.013341272 0.01454431 -0.062014468
0.051991705 0.018130925 -0.016686236 0.015141773 0.03133929 0.069888406 -0.06260332 0.05558236
-0.041764904 -0.0429991 -0.049948964 0.03615024 -0.07404489 -0.06789719 -0.08560185 0.054961126
0.01591893 0.010612825 -0.0066042966 -0.06343515 0.06284123 -0.027482552 0.022158636 0.022880297
0.0115478635 0.34032705 0.09093723 0.11075065 0.05777383 -0.05001751 -0.008811624 0.12130111
0.03652721 -0.038675155 0.047456685 -0.08528015 -0.07452673 -0.030348293 -0.05075869 0.1014381
-0.038920213 0.04490164 -0.096310064 -0.047989707 0.036436893 0.005687588 0.047646604 0.028652785
0.020566234 0.0039586592 0.05008208 -0.012971929 0.05037093 -0.07723617 -0.06160526 0.03649526
-0.013515703 -0.09167175 0.08102718 -0.1452161 -0.06510566 -0.07697675 0.032091416 0.0065415846
0.109605744 -0.04931942 0.08581277 -0.008323123 -0.06295023 0.094178446 -0.0749326 0.13696295
0.043322936 0.027115721 0.04362898 -0.08877623 0.08424246 -0.10005827 -0.062492784 -0.029299535
-0.01784862 0.06612532 -0.09411951 0.032029178 0.045343373 0.081542574 -0.08783023 -0.03564214
0.07986018 0.036241516 -0.06802573 0.038932376 0.052597698 -0.12914988 0.072190106 -0.006567013
-0.12948544 -0.056731064 -0.018306082 0.029825108 0.00037362575 -0.03629474 -0.08705017 0.07278702
0.01049819 0.0012804009 -0.065088086 -0.07746455 0.12323208 0.032665316 -0.05118504 -0.059929296
-0.011619334 0.03194719 -0.05713597 -0.11409665 0.006408766 -0.057865668 -0.024036428 0.038491312
0.047011584 0.1498285 0.06727951 -0.044522017 0.10069034 -0.057553712 -0.06543808 -0.11882787
-0.06122584 -0.0227011 -0.0661317 -0.066798724 0.025286611 0.0018803095 0.010004897 -0.062994935
-0.12095795 0.05472243 0.054839786 -0.019354641 0.14461665 0.09391442 0.029432697 -0.01451079
-0.014521259 0.0010822833 -0.113331616 -0.052157085 0.07276179 -0.03134053 -0.010178092 0.05484396
-0.03892028 0.07793795 0.014377249 -0.18142997 -0.018514447 -0.017398754 0.05026528 0.071727276
0.031707536 -0.03617485 -0.078669555 0.06265557 -0.059866097 -0.066269256 0.038430978 -0.056214757
0.008198404 0.10699684 -0.062290248 0.025283573 0.05140886 0.070798755 0.04367238 -0.08521573
0.049493536 0.043377098 0.042001985 -0.039184496 0.06217851 -0.109206505 0.0053937593 0.05378507
