CF/Child_CF/MLP_encoder.pt (torch, 659608 bytes, 4 tensors)

lins.0.weight f4 [256, 384]
0	0x3e1793dc	0.14802498
1	0x3eac34a4	0.33633912
2	0x3f05314c	0.52028346
3	0x3eb817b6	0.3595559
4	0xbe3e9d65	-0.18614729
5	0x3f1c6c2e	0.6110257
6	0x3fa6efe1	1.3041955
7	0x3ea855c4	0.32877934
8	0x3ed3d2b4	0.4137169
9	0x3f8542ec	1.0411048
10	0x3edede2c	0.4352888
11	0x3d4b9959	0.04970679
12	0x3f14f87d	0.58191663
13	0x3f001386	0.5002979
14	0xbf11807f	-0.56836694
15	0x3f800831	1.00025
16	0x3ecf4017	0.40478584
17	0x3f16a5a4	0.588465
18	0x3e953bc8	0.29147172
19	0xbf040278	-0.51566267
20	0x3e8f243e	0.27957338
21	0x3f4ea2e7	0.8071732
22	0xbf31e97e	-0.69496906
23	0x3f34b403	0.70587176
24	0x3f2536a6	0.6453651
25	0x3f0eaea4	0.5573523
26	0x3eb07db2	0.34470898
27	0x3f67a0eb	0.90479916
28	0x3f60127e	0.87528217
29	0xbff86a5c	-1.9407458
30	0xbeb5aa75	-0.3548161
31	0xbf9473a3	-1.159779
32	0xbf58bbf3	-0.8466179
33	0xbf8e23b7	-1.1104649
34	0x3f219063	0.6311094
35	0xbea0ed39	-0.31430987
36	0xbe8dcd2b	-0.27695593
37	0x3ebcb8c0	0.36859703
38	0x3e810d08	0.25205255
39	0x3f127eb4	0.57224584
40	0xbf8ef8c5	-1.1169668
41	0x3f6146d6	0.8799871
42	0xbf02eb68	-0.5114045
43	0xbfba618e	-1.4561021
44	0x3edf900b	0.43664584
45	0x3f4119de	0.75430095
46	0x3f0e7f46	0.55662954
47	0x3ed8e841	0.42364696
48	0xbf84d5aa	-1.0377705
49	0x3f40649d	0.75153524
50	0xbfc2a455	-1.52064
51	0xbeec9d2e	-0.4621367
52	0x3f021f6d	0.508292
53	0xbe9411cb	-0.28919825
54	0x3f4367eb	0.7633044
55	0xbf01041e	-0.5039691
56	0x3eba718f	0.36414763
57	0xbecf9d94	-0.4054991
58	0xbed89e47	-0.42308256
59	0x3f8bfc21	1.0936319
60	0xbf09f2c1	-0.5388604
61	0x3e95c955	0.29255167
62	0x3fae835c	1.3633838
63	0xbe28a119	-0.16467704
64	0xbef46c47	-0.4773886
65	0x3fce0a15	1.6096827
66	0x3db34bce	0.08754693
67	0xbfbc913c	-1.4731822
68	0x3d48e004	0.049041763
69	0xbfae2b07	-1.3606881
70	0x3e19304f	0.14959835
71	0x3e311f20	0.1729703
72	0x3d737bd3	0.05944426
73	0x3ea1c932	0.31598812
74	0xbfab7515	-1.3395106
75	0xbf24b877	-0.6434397
76	0xbf874936	-1.0569217
77	0x3e85ae94	0.26109755
78	0xbee990b1	-0.45618203
79	0xbf1754b6	-0.59113634
80	0xbf5610e2	-0.8361951
81	0x3db8741b	0.0900652
82	0x3d899064	0.067169935
83	0x3f24ac5c	0.643255
84	0xbf5705cb	-0.83993214
85	0x3ec3cfbb	0.38244423
86	0x3ec16f8d	0.3778042
87	0x3f5b8897	0.85755295
88	0xbf732087	-0.9497151
89	0xbf2e3e09	-0.6806341
90	0x3de4a492	0.11164202
91	0xbedc1788	-0.42986703
92	0xbf6795a7	-0.90462726
93	0xbf401fa6	-0.7504829
94	0xbfc65a8a	-1.549638
95	0xbf9022e2	-1.1260645
96	0x3e367f98	0.1782211
97	0xbf0562af	-0.52103704
98	0xbe5d86af	-0.21633409
99	0x3ec05f89	0.37572888
100	0xbfd2dc57	-1.6473492
101	0x3e5481c0	0.2075262
102	0xbefafbfe	-0.4902038
103	0x3fadaa1a	1.3567536
104	0xbf959f81	-1.1689302
105	0x3e003291	0.1251929
106	0x3dc09b2e	0.09404598
107	0xbf4fff57	-0.8124899
108	0x3f36ec7d	0.714546
109	0xbf56bdb0	-0.8388319
110	0x3f169468	0.588202
111	0x3f10661d	0.5640581
112	0x3ec8565a	0.3912838
113	0xbf8be3aa	-1.0928853
114	0x3f53bc6d	0.8270939
115	0x3eabb841	0.33539012
116	0x3dc349dc	0.09535572
117	0xbefa3848	-0.48871064
118	0xbe74c089	-0.23901571
119	0x3fdbbf65	1.7167784
120	0x3d54ec48	0.051983148
121	0x3f917405	1.1363531
122	0xbe263d14	-0.16234237
123	0xbfadec59	-1.3587753
124	0xbe5807ff	-0.210968
125	0xbe51963e	-0.20467469
126	0x3ec1d7c2	0.37859923
127	0x3d050eb8	0.03248474
128	0x3f45c9ad	0.7726086
129	0xbe835e25	-0.25657764
130	0x3ec50d55	0.38486734
131	0xbf0350f3	-0.51295394
132	0x3e09becc	0.1345169
133	0xbd935e90	-0.07195771
134	0x3f06a030	0.52588177
135	0xbf917fcc	-1.1367126
136	0xbf106d7b	-0.56417054
137	0x3e554af2	0.2082937
138	0xbdd4f79d	-0.10398791
139	0x3e4baf40	0.19891071
140	0x3d278385	0.04089691
141	0x3e4d04d0	0.20021367
142	0xbe870bcf	-0.26376197
143	0x3f84453f	1.0333632
144	0xbe748520	-0.23878908
145	0xbf02c07f	-0.51074976
146	0x3f268f30	0.65062237
147	0x3f42505a	0.75903857
148	0xbda842dd	-0.08215878
149	0xbf6fd49c	-0.9368379
150	0x3e8cb3ce	0.2748093
151	0x3f56c4a6	0.8389381
152	0xbdab97db	-0.083785735
153	0x3e90b7ee	0.28265327
154	0xbe0b436d	-0.1359994
155	0xbe7d6185	-0.24744232
156	0xbf36d6f9	-0.7142177
157	0xbf72fcae	-0.9491681
158	0xbf0e0db8	-0.55489683
159	0xbf2e3c92	-0.6806117
160	0xbe7591ab	-0.23981349
161	0xbf59f3bc	-0.85137534
162	0xbfa05aba	-1.2527688
163	0xbe86589f	-0.26239488
164	0xbf5473f1	-0.8298941
165	0xbf2cb84a	-0.674687
166	0x3fd33226	1.6499679
167	0xbe80edcc	-0.25181425
168	0xbf3747ab	-0.7159373
169	0xbf8c9a09	-1.0984508
170	0x3fadbbc3	1.3572925
171	0xbf25377b	-0.6453778
172	0xbefb5da8	-0.49094892
173	0xbbd11123	-0.0063802167
174	0xbf26b26e	-0.6511601
175	0xbf8e6ffc	-1.1127925
176	0x3f26e214	0.6518872
177	0xbe04e73d	-0.12978835
178	0xbf56fc41	-0.8397866
179	0xbe13a92a	-0.1442
180	0x3f3509e3	0.7071821
181	0xbea41498	-0.32046962
182	0x3fa1a1d5	1.2627512
183	0xbfc2cd8d	-1.5218979
184	0xbf53c2fe	-0.8271941
185	0x3f84efef	1.0385722
186	0x3e5f018c	0.21777934
187	0xbecb9d24	-0.39768326
188	0x3f1d1db0	0.61373425
189	0xbeb02850	-0.34405756
190	0xbd1695c3	-0.036763918
191	0x3e82a755	0.2551829
192	0x3e0e53a2	0.13899091
193	0xbf839ad6	-1.0281627
194	0x3f307618	0.68930197
195	0xbf2c54d3	-0.6731693
196	0xbf7a4ebf	-0.97776407
197	0x3e6bd363	0.23029856
198	0x3f5bb029	0.85815674
199	0xbe1b5db6	-0.15172467
200	0xbe68df60	-0.22741461
201	0xbfac0981	-1.34404
202	0xbe35ff74	-0.17773229
203	0xbee6e929	-0.45099762
204	0xbf1bc132	-0.6084167
205	0x3f3daab4	0.740886
206	0x3c62b5bd	0.013837275
207	0xbeea5023	-0.45764264
208	0xbe28aa24	-0.16471153
209	0xbf87d359	-1.0611373
210	0xbee5534d	-0.44790116
211	0x3c792b73	0.015208113
212	0x3e5374c8	0.20650017
213	0x3f3c95c2	0.7366601
214	0xbf592c55	-0.8483327
215	0xbf33f2bf	-0.70292276
216	0xbf62dbcf	-0.8861665
217	0x3ed3722e	0.4129805
218	0x3f051337	0.51982445
219	0x3f64ae4a	0.89328444
220	0xbf2bb6b5	-0.67075664
221	0xbf43e42c	-0.7652004
222	0x3e9eca6b	0.31013808
223	0x3cd58103	0.026062494
224	0xbf018567	-0.5059418
225	0xbfdba9f1	-1.7161237
226	0xbf83ae05	-1.0287482
227	0xbfb92611	-1.4464742
228	0x3ee4edb9	0.44712618
229	0x3e7bda06	0.24594888
230	0xbe88fb26	-0.2675411
231	0xbf43a3bd	-0.7642172
232	0x3cb33a35	0.021878341
233	0xbf22083a	-0.632938
234	0x3c288429	0.010285416
235	0xbdd198fe	-0.10234259
236	0x3f10b2b8	0.56522703
237	0xc00e0ea3	-2.2196434
238	0xbff6c3b5	-1.9278475
239	0x3f0b5628	0.5442834
240	0xbf99c666	-1.2013671
241	0x3ef06131	0.4694915
242	0xbf003786	-0.5008472
243	0xbeb8386a	-0.3598054
244	0xbec00077	-0.37500355
245	0xbfad4c02	-1.3538821
246	0x3fb0bce1	1.3807641
247	0x3fa19e62	1.262646
248	0xbe809644	-0.25114644
249	0xbf1e4138	-0.61818266
250	0x3e4c58b0	0.19955707
251	0x3ef67fb2	0.481443
252	0xbf79808c	-0.9746177
253	0x3dab6162	0.08368184
254	0xbe4a7d91	-0.19774462
255	0xbf5c1253	-0.8596546

lins.0.bias f4 [256]
0	0xbf160929	-0.5860773
1	0xbdd28fd7	-0.102813415
2	0x3ddb4b10	0.107076764
3	0xbed14fa6	-0.4088108
4	0xbe75f44e	-0.24018976
5	0xbf2cc3ab	-0.67486066
6	0x3e08270c	0.13296145
7	0xbebd4fa5	-0.36974826
8	0xbebd98b1	-0.37030557
9	0x3b21af93	0.00246713
10	0xbeb42ffa	-0.35192853
11	0xbea3d17e	-0.31995767
12	0xbe8135a9	-0.25236252
13	0xbe6d9636	-0.23201832
14	0xbeb8d7e1	-0.36102203
15	0xbb717155	-0.0036841233
16	0x3ddee73f	0.108839504
17	0xbdf92783	-0.121657394
18	0xbee69c54	-0.45041144
19	0xbdb43e9b	-0.088010035
20	0xbdc77c05	-0.09740452
21	0x3d14ff7f	0.036376473
22	0xbe14f8b9	-0.14548005
23	0x3dbc7223	0.09201457
24	0xbf085d11	-0.5326701
25	0xbf0c71d1	-0.5486117
26	0xbeaf3952	-0.3422342
27	0xbe77cd9c	-0.24199528
28	0xbde83f5a	-0.11340208
29	0xbda041b5	-0.078250326
30	0xbf1a1e1a	-0.6020218
31	0xbe38828d	-0.18018551
32	0xbd889bd5	-0.066703476
33	0xbb084f9b	-0.0020799402
34	0xbea52c60	-0.32260418
35	0xbebd5621	-0.36979774
36	0xbe618333	-0.22022705
37	0xbdd7eb42	-0.10542919
38	0x3da1110e	0.07864581
39	0xbe5ec4cb	-0.21754758
40	0xbdb947ce	-0.09046899
41	0xbf0401a2	-0.5156499
42	0x3e7edb23	0.24888282
43	0xbd405a62	-0.046961196
44	0xbeb1fb60	-0.34762096
45	0x3e88cd0e	0.26718944
46	0xbeaf4942	-0.3423558
47	0xbcd515e9	-0.026011424
48	0xbdbceb92	-0.09224619
49	0xbe04af37	-0.12957464
50	0xbeb154df	-0.34635064
51	0xbe8df66e	-0.27727073
52	0xbe8fce7c	-0.28087223
53	0x3e44414d	0.19165535
54	0x3e4ac6a0	0.19802332
55	0xbec28faf	-0.38000247
56	0x3acb90e8	0.0015530856
57	0xbdfa3127	-0.12216406
58	0xbeb5c594	-0.35502303
59	0xbded0263	-0.11572721
60	0x3e226ab0	0.1586101
61	0xbea39ac7	-0.31954023
62	0xbe328242	-0.17432502
63	0xbe763604	-0.24044043
64	0x3da52958	0.08064526
65	0xbe128f08	-0.14312375
66	0x3e64a3c8	0.22328103
67	0xbdab5fdf	-0.08367895
68	0x3cb044da	0.021517206
69	0xbe4064d4	-0.18788463
70	0xbe53b327	-0.2067381
71	0xbe0eb2cb	-0.13935392
72	0xbe87e608	-0.26542687
73	0x3e58b7a7	0.21163808
74	0xbe890c05	-0.26766983
75	0x3be5cb0a	0.0070127295
76	0x3da6068b	0.08106717
77	0xbd9d509b	-0.0768139
78	0xbddfa3d2	-0.10919918
79	0xbe45daf7	-0.1932181
80	0xbe24c8d9	-0.16092242
81	0xbd00ddc7	-0.031461503
82	0xbeae183a	-0.34002858
83	0xbe4ac63c	-0.19802183
84	0xbd9ae825	-0.07563809
85	0xbd90ed28	-0.07076484
86	0xbe178768	-0.14797747
87	0xbe9bc8c1	-0.304266
88	0xbd88e461	-0.06684185
89	0xbe888888	-0.26666665
90	0xbe15217d	-0.14563556
91	0xbed6f8fa	-0.4198683
92	0x3e145f14	0.14489394
93	0xbe22a411	-0.15882899
94	0xbedfe946	-0.4373266
95	0xbe51d7c7	-0.20492469
96	0xbc3bde44	-0.0114665665
97	0xbe8e4e7e	-0.2779426
98	0xbe44689a	-0.19180527
99	0xbd9a27e5	-0.075271405
100	0xbef1fdc4	-0.4726392
101	0x3d849737	0.064741544
102	0xbd2ff94c	-0.042962357
103	0xbd042849	-0.03226498
104	0xbeda0194	-0.4257933
105	0xbd1528ed	-0.036415983
106	0xbe99dab2	-0.30049664
107	0x3e813738	0.2523744
108	0xbe330ad8	-0.17484605
109	0xbe2af053	-0.16693239
110	0xbee25e3b	-0.44212517
111	0xbf19b51e	-0.6004199
112	0x3dc51458	0.09623021
113	0xbe21ac72	-0.15788439
114	0xbecda094	-0.40161574
115	0xbe531df2	-0.20616892
116	0xbe8b201f	-0.27172944
117	0x3d8a59d6	0.06755416
118	0xbf024b16	-0.5089582
119	0xbe8958ce	-0.26825565
120	0xbea90d2c	-0.33017862
121	0xbeff688e	-0.49884456
122	0xbe61eb15	-0.22062333
123	0x3db16bdc	0.08663151
124	0xbe61d378	-0.22053325
125	0xbe3e0a08	-0.18558514
126	0xbe273c90	-0.16331697
127	0x3e03ed2a	0.1288344
128	0xbe87ff37	-0.265619
129	0xbe2762ad	-0.16346236
130	0xbef0523b	-0.46937737
131	0xbd0a771e	-0.033805005
132	0xbe8e6d38	-0.27817702
133	0xbe3919ae	-0.18076202
134	0x3d07a562	0.033116706
135	0xbed40b39	-0.41414812
136	0xbdbd9af5	-0.09258071
137	0xbe343933	-0.17599945
138	0xbed0fbf9	-0.4081724
139	0xbea4c480	-0.32181168
140	0xbe6ca380	-0.23109245
141	0xbdefb9db	-0.11705371
142	0xbde23465	-0.1104515
143	0xbcd8b4c0	-0.026453376
144	0xbe0fdce6	-0.1404911
145	0xbea57a4e	-0.32319874
146	0xbdead1e9	-0.114658184
147	0x3e23540e	0.15950033
148	0x3d202054	0.03909333
149	0xbe890e5c	-0.26768768
150	0xbcbe3c5b	-0.02322214
151	0x3a17f3d9	0.0005796529
152	0xbe5fcf02	-0.21856311
153	0xbde9fea3	-0.11425521
154	0xbd8f41bf	-0.06994962
155	0xbed7dbcd	-0.42159882
156	0x3d724abc	0.059153304
157	0xbdec4589	-0.115367
158	0xbc4390bc	-0.011936363
159	0x3e014cb5	0.12626918
160	0xbe51e9a5	-0.20499285
161	0xbe948201	-0.29005435
162	0x3d6e6272	0.058199354
163	0xbdecf1a2	-0.11569525
164	0xbe14f5f2	-0.14546946
165	0xbf0e9002	-0.5568849
166	0xbd200547	-0.039067533
167	0xbe040235	-0.12891467
168	0x3e514727	0.20437299
169	0xbd7f237c	-0.0622897
170	0xbdc14cb3	-0.09438457
171	0x3eaad796	0.33367604
172	0xbe8b70dd	-0.27234545
173	0x3d257d30	0.04040259
174	0xbe13aa44	-0.1442042
175	0x3e0f7871	0.14010789
176	0xbe02f6f5	-0.12789519
177	0x3c10c4c2	0.008835973
178	0x3e16320c	0.14667529
179	0xbdde2255	-0.10846392
180	0x3e0afda8	0.13573325
181	0xbe6b4530	-0.22975612
182	0xbec49493	-0.38394603
183	0xbe049e49	-0.12951006
184	0xbe6b44a1	-0.22975399
185	0xbeca5920	-0.39521122
186	0x3e89fa5d	0.26948825
187	0xbc501825	-0.012701069
188	0x3e0721fe	0.1319656
189	0xbe86adea	-0.2630456
190	0xbec3a879	-0.38214472
191	0xbe8d4e59	-0.27598837
192	0x3c96d7d0	0.018413454
193	0xbe7c1cae	-0.24620315
194	0xbdb1d8c5	-0.08683924
195	0xbe424399	-0.18971099
196	0xbe0822b5	-0.1329449
197	0xbe8a5a9a	-0.27022249
198	0x3da6ea65	0.08150176
199	0x3e9b828d	0.3037304
200	0xbe9f7e1c	-0.311509
201	0xbeb701fa	-0.35743695
202	0xbcf825f6	-0.030291539
203	0xbd4cd57e	-0.05000829
204	0xbcb736d2	-0.022365008
205	0x3d672f25	0.056441445
206	0x3cbc105e	0.022957023
207	0x3e32621e	0.17420241
208	0xbdc9f9ff	-0.09862136
209	0xbcd83f98	-0.026397511
210	0xbe0cb38b	-0.13740365
211	0xbeabb19f	-0.33533952
212	0x3e11698b	0.14200418
213	0xbe4c467d	-0.19948764
214	0xbdba9b2d	-0.09111629
215	0xbe557df9	-0.20848836
216	0xbedcea7d	-0.4314765
217	0x3d531d5f	0.051541682
218	0x3d6880fb	0.05676363
219	0xbe8d46a4	-0.27592957
220	0xbe0d88c4	-0.13821703
221	0xbecee906	-0.40412158
222	0xbe762f1c	-0.24041408
223	0xbc740003	-0.014892581
224	0xbf1b7b72	-0.6073524
225	0xbeee3653	-0.4652582
226	0xbe77cad3	-0.24198465
227	0xbee70b91	-0.45126012
228	0xbebd2c26	-0.36947745
229	0xbf4d61cb	-0.80227345
230	0xbdbf4cb0	-0.09340799
231	0x3d7b20b3	0.06131048
232	0xbe3a971f	-0.1822171
233	0x3c873188	0.01650311
234	0xbc9deac9	-0.019276993
235	0xbe395845	-0.18100078
236	0xbe9c04dc	-0.30472457
237	0xbeb7dbee	-0.3590998
238	0xbd37e977	-0.044900384
239	0xbe9db79d	-0.30804148
240	0xbe5d78d1	-0.21628119
241	0xbe813b84	-0.2524072
242	0xbe43d3f9	-0.1912383
243	0xbe7c4a10	-0.24637628
244	0xbcc6452a	-0.024202902
245	0xbb526e41	-0.0032109173
246	0xbe7cca91	-0.24686648
247	0xbee7b6eb	-0.45256743
248	0xbea80dbe	-0.32822984
249	0xbd151966	-0.036401175
250	0x3e6c54a8	0.23079169
251	0xbe924e54	-0.28575385
252	0xbccc46e5	-0.024936149
253	0xbd040ed5	-0.032240707
254	0xbdb7d438	-0.089760244
255	0xbe962ba3	-0.29330167

lins.1.weight f4 [256, 256]
0	0x3e88b24b	0.26698527
1	0xbdf2038f	-0.11817085
2	0x3ed023b1	0.4065223
3	0xbe8d98c3	-0.2765561
4	0xbeb9f638	-0.36320662
5	0x3f364803	0.7120363
6	0x3ed5c7f2	0.4175411
7	0xbe273d5d	-0.16332002
8	0xbee8b2f9	-0.45449045
9	0x3f2948d0	0.6612673
10	0x3d448f69	0.04798833
11	0xbc0cc995	-0.008592983
12	0xbe86e634	-0.26347506
13	0xbf8fe8f4	-1.1242967
14	0xbe47901b	-0.19488566
15	0x3e31e5ba	0.1737279
16	0x3dd7812d	0.10522685
17	0x3ea1bb61	0.3158827
18	0x3cae347b	0.021265259
19	0x3ef49652	0.47770935
20	0x3de477d6	0.111556694
21	0xbeb22c44	-0.34799397
22	0xbebb36f0	-0.3656535
23	0x3d5dcad7	0.05414852
24	0xbef0abc0	-0.47006035
25	0xbc854cf9	-0.016272055
26	0x3eb52e88	0.35387063
27	0x3e870815	0.26373354
28	0x3f4280de	0.75977886
29	0xbe98802e	-0.29785293
30	0xbe60c7fd	-0.2195129
31	0xbea347d5	-0.3189074
32	0xbed25f8f	-0.4108853
33	0x3f3d17b7	0.7386431
34	0x3f5bbb85	0.8583301
35	0xbf07e20d	-0.530793
36	0x3efa9205	0.4893953
37	0xbf2d2031	-0.67627245
38	0xbfaa248b	-1.3292402
39	0xbede8892	-0.4346357
40	0x3f38849e	0.7207736
41	0x3e3acae7	0.18241464
42	0x3f5dad80	0.86592865
43	0x3d6c7b58	0.057734817
44	0x3faacbb3	1.3343414
45	0x3daf29a5	0.08552865
46	0x3eb610fa	0.35559827
47	0x3f422b5c	0.7584741
48	0xbf89a7b1	-1.07543
49	0xbee811c1	-0.45326045
50	0x3f0ce877	0.55042213
51	0x3f1bc5cd	0.60848695
52	0xbde93d52	-0.11388649
53	0xbf0ba0f6	-0.5454248
54	0x3ef838f0	0.4848094
55	0x3ee58f53	0.4483591
56	0x3d901a3c	0.07036254
57	0xbe9694e4	-0.2941047
58	0xbe471bea	-0.19444242
59	0x3e9ed650	0.31022882
60	0x3e2b2790	0.1671431
61	0x3f110492	0.566476
62	0xbdc70651	-0.09718002
63	0x3d8bb61e	0.068218455
64	0xbc2946bb	-0.010331805
65	0xbf85218f	-1.0400866
66	0x3f09c63a	0.53818095
67	0xbef28535	-0.47367254
68	0xbf522ba9	-0.8209787
69	0xbe694766	-0.22781143
70	0x3f481663	0.7815916
71	0xbe0abf26	-0.1354948
72	0x3ef3a00a	0.47583038
73	0x3e807135	0.2508637
74	0xbe9d3f7c	-0.30712497
75	0x3ed39ea8	0.41331983
76	0x3eda87bc	0.42681682
77	0xbf3d74a2	-0.7400609
78	0x3ef8d3d0	0.485991
79	0x3e6c7152	0.23090103
80	0x3eb45875	0.35223737
81	0xbee943da	-0.4555958
82	0xbf823c9f	-1.017475
83	0xbf059cae	-0.521922
84	0x3f18033e	0.5937995
85	0xbf277d2d	-0.6542538
86	0xbf6ec9fd	-0.9327696
87	0x3e313ce7	0.17308389
88	0xbf578ed1	-0.84202296
89	0x3e431d3e	0.19054124
90	0x3f64bf4f	0.89354414
91	0xbeba1ddb	-0.36350903
92	0xbf39ff40	-0.72655106
93	0xbeb139ad	-0.34614316
94	0xbe5315e5	-0.20613821
95	0x3e8c212b	0.27369055
96	0xbdbd896b	-0.09254726
97	0xbec4f4d4	-0.3846804
98	0xbe10308f	-0.14081024
99	0x3fd68f42	1.6762469
100	0x3d3515a0	0.044210076
101	0xbf0b37da	-0.543821
102	0xbdf5427c	-0.119755715
103	0x3ec7dfa2	0.39037806
104	0xbf0bf73c	-0.54674125
105	0x3f3aa84b	0.72913045
106	0x3e5c5dd1	0.21520163
107	0xbd5d82e3	-0.0540799
108	0xbfb0d1cd	-1.3814026
109	0xbebd225c	-0.36940277
110	0xbefa4657	-0.4888179
111	0x3bdf8ee1	0.0068224524
112	0x3ece4347	0.40285704
113	0x3f78c715	0.97178775
114	0xbf2637fd	-0.6492918
115	0xbf708285	-0.93949157
116	0xbec88b8c	-0.39168966
117	0xbe6fc8ec	-0.2341649
118	0xbf9e2787	-1.2355813
119	0xbed3a6e8	-0.41338277
120	0x3f2529c1	0.64516836
121	0x3f427a1f	0.7596759
122	0x3e613343	0.21992211
123	0xbf00004e	-0.50000465
124	0xbf87db4e	-1.0613801
125	0x3f836d06	1.0267646
126	0xbf55407d	-0.83301526
127	0xbd88d45e	-0.06681131
128	0xbe4891fe	-0.19586942
129	0xbe5993fa	-0.21247855
130	0xbf5f2711	-0.87168986
131	0xbf1518e4	-0.58241105
132	0xbe3f6e6f	-0.18694471
133	0xbf2ca574	-0.6743996
134	0x3e689f61	0.22717048
135	0xbee94f9b	-0.45568547
136	0x3f1385aa	0.5762583
137	0xbebd3f4d	-0.36962357
138	0xbf8c56b3	-1.0963959
139	0x3dc15c40	0.094414234
140	0x3ebe3c77	0.37155506
141	0x3f5ffd08	0.8749547
142	0x3e70f865	0.23532255
143	0xbf5af181	-0.85524756
144	0x3ed0b208	0.40760827
145	0x3db0b880	0.086289406
146	0xbee90f60	-0.45519543
147	0xbf53f4be	-0.8279532
148	0xbe46f44d	-0.19429131
149	0xbeded963	-0.43525228
150	0xbfa8a616	-1.3175685
151	0xbf2c7b96	-0.6737608
152	0xbdf442cd	-0.11926804
153	0x3d279d10	0.04092127
154	0xbe389846	-0.18026838
155	0xbf74bf63	-0.9560453
156	0x3e170662	0.14748529
157	0xbfd25136	-1.6431034
158	0x3e4adad1	0.19810034
159	0xbe47d5b8	-0.19515121
160	0x3f864bbd	1.0491863
161	0x3ca7c932	0.02048168
162	0x3e8a66b4	0.2703148
163	0x3d4df8ba	0.050286032
164	0xbeade717	-0.3396537
165	0xbe3bc5f9	-0.1833724
166	0x3f7bc7cf	0.9835176
167	0xbe574af7	-0.2102469
168	0x3edbf6b8	0.4296167
169	0x3d90fe6f	0.07079779
170	0x3f39754d	0.7244461
171	0x3efd142e	0.49429458
172	0xbe0a4533	-0.1350296
173	0x3f96ce27	1.1781663
174	0xbe75fa2a	-0.24021211
175	0x3d93f62d	0.07224689
176	0xbe719477	-0.23591791
177	0xbfc476c5	-1.5348746
178	0xbed59a54	-0.41719306
179	0x3ebdd727	0.3707821
180	0x3f6913fd	0.91046125
181	0xbd559622	-0.05214513
182	0x3da9bca6	0.08287935
183	0x3f021a43	0.5082132
184	0x3d80d1ea	0.06290038
185	0x3e4ab856	0.19796881
186	0x3da2f195	0.07956234
187	0xbf007caa	-0.5019022
188	0x3e556892	0.20840672
189	0xbf55c31e	-0.8350085
190	0xbf405a2e	-0.75137603
191	0xbda100f4	-0.0786151
192	0xbf4c3b5d	-0.7977808
193	0xbf5ec85f	-0.8702449
194	0xbe569d5d	-0.20958467
195	0xbf1d0768	-0.61339426
196	0xbecbecde	-0.39829153
197	0x3e8a2e57	0.2698848
198	0xbec2601f	-0.3796396
199	0xbef4b003	-0.47790536
200	0x3e84195f	0.25800607
201	0xbea3ccd6	-0.31992215
202	0x3ccdc335	0.025117496
203	0x3f1bcd86	0.6086048
204	0x3b9c700c	0.004774099
205	0x3eb27219	0.34852675
206	0x3f74156d	0.95345193
207	0x3d84cc3e	0.064842686
208	0x3ee4e14c	0.44703138
209	0xbfe07475	-1.753554
210	0xbe9468f1	-0.28986314
211	0x3f4155b2	0.75521386
212	0x3edb91d0	0.42884684
213	0xbee23e5e	-0.44188207
214	0xbf361cbb	-0.7113759
215	0x3e647605	0.22310646
216	0xbf0edd60	-0.5580654
217	0xbf490d9c	-0.7853639
218	0xbf3e3c0d	-0.7431038
219	0x3e692167	0.22766648
220	0x3f6f221a	0.9341141
221	0xbe2cfdb8	-0.16893661
222	0x3edfbe57	0.43699905
223	0x3f021766	0.50816953
224	0xbf991abc	-1.1961284
225	0x3cf30f25	0.029670307
226	0xbf0e4ccf	-0.5558595
227	0xbe87259f	-0.2639589
228	0x3d8cbb6b	0.06871685
229	0x3dc25d0e	0.09490405
230	0x3c74f583	0.014951113
231	0x3e9f5702	0.3112107
232	0xbf6d1945	-0.92616683
233	0xbce451f0	-0.027871102
234	0x3f6525e3	0.89510936
235	0x3e8a4496	0.27005452
236	0xbdbb2b9c	-0.09139177
237	0xbe9174cb	-0.28409418
238	0x3ef8e649	0.48613194
239	0xbebed08e	-0.3726849
240	0x3e6c7236	0.23090443
241	0xbc0ea497	-0.008706233
242	0x3dc92e05	0.09823231
243	0x3eab3f99	0.3344696
244	0x3f1d6a7d	0.61490613
245	0xbf47861e	-0.7793902
246	0x3f6afcb3	0.9179184
247	0x3f5e0395	0.86724216
248	0x3e04f0a7	0.12982427
249	0x3e276bc3	0.16349702
250	0xbf9bd990	-1.217577
251	0x3f8bb9b8	1.0916052
252	0x3f28c908	0.6593175
253	0xbe9c4636	-0.30522317
254	0x3f027a2a	0.5096766
255	0x3d23ab8f	0.039958533

lins.1.bias f4 [256]
0	0x401f7ec4	2.4921122
1	0xbec1035c	-0.37697875
2	0xbf7afc18	-0.98040915
3	0x3e8cce7f	0.27501294
4	0xbe78ec8c	-0.24308985
5	0xbf1ecf78	-0.6203532
6	0xc021ffb1	-2.5312312
7	0x3fac1cc0	1.3446274
8	0xbd29a5b2	-0.041417785
9	0xbf71bad0	-0.9442568
10	0xbf1b395d	-0.60634404
11	0x3d6089b4	0.054818824
12	0x3db6ae76	0.089199945
13	0xbfc44ed8	-1.5336561
14	0xbe4a7446	-0.19770917
15	0xbf83c82a	-1.029546
16	0xbe51eabc	-0.204997
17	0x3e96d893	0.29462108
18	0xbd473f4a	-0.04864434
19	0xbf93831f	-1.152439
20	0xbf6eda27	-0.93301624
21	0xbf371ae3	-0.715254
22	0xc00ec9c2	-2.2310643
23	0x3fd0557c	1.6276088
24	0xbe822385	-0.25417724
25	0xbf97a353	-1.1846718
26	0x3f2623d6	0.6489843
27	0xbf74bc1e	-0.95599544
28	0xbf22e2e5	-0.63627464
29	0x3dd3461c	0.10316107
30	0x3e79b626	0.2438589
31	0x3f910c65	1.1331908
32	0xbf5ab335	-0.854297
33	0x3f612868	0.8795228
34	0x3f13823f	0.57620615
35	0x4003071e	2.0473094
36	0xbe31bdc2	-0.17357543
37	0x3ee67fb4	0.45019305
38	0x3df7a6b7	0.12092345
39	0xbde86f1e	-0.11349319
40	0xbcb95600	-0.022624016
41	0xbee2f888	-0.4433024
42	0x3e78b2a1	0.24286892
43	0x3f0dc7ac	0.553828
44	0x3d4cbe88	0.049986392
45	0x3d5a09d6	0.053232037
46	0x3e51f25c	0.20502609
47	0xbefd19d0	-0.49433756
48	0xbccc24d5	-0.024919907
49	0x3f4ac46e	0.7920598
50	0xbdeb0285	-0.1147509
51	0x3fc09e01	1.5048219
52	0x3e71200e	0.23547384
53	0xbf26dd89	-0.65181786
54	0x4015f3cd	2.3430054
55	0x3f335f08	0.7006688
56	0x3ebe617c	0.3718375
57	0xbe8192c8	-0.25307298
58	0x3eaf5fd7	0.34252807
59	0xbf1dad7e	-0.61592853
60	0x3dbc9e5b	0.092098914
61	0xbeede894	-0.46466506
62	0xbf1b3673	-0.6062996
63	0x3f83a622	1.0285075
64	0xbf43b33f	-0.7644538
65	0x3f4aafc8	0.7917447
66	0x3fd823f1	1.6885968
67	0xbe461da1	-0.1934724
68	0xbf6a9cd4	-0.9164555
69	0xbf26cc59	-0.6515556
70	0x3f2c42aa	0.6728922
71	0xbeac160a	-0.33610564
72	0x3e7c2413	0.24623136
73	0x3b08fc39	0.002090229
74	0x3f35d918	0.71034384
75	0xbf97acd9	-1.1849624
76	0x3ecbcbdc	0.3980397
77	0xbf8dafbb	-1.1069254
78	0x3e6fc389	0.23414434
79	0x3cd5f89c	0.026119523
80	0x3ea91cdc	0.3302983
81	0x3e6fa2af	0.23401903
82	0xbf2746c2	-0.6534234
83	0x3e49995e	0.19687411
84	0xbe564f5d	-0.20928712
85	0x3f87539e	1.0572393
86	0x3f10ae85	0.56516296
87	0xbfb36c29	-1.4017383
88	0x401b6569	2.4280646
89	0x3f2f620d	0.6850899
90	0x3f3099c2	0.68984616
91	0x3f9a5038	1.2055731
92	0x3e8d40a0	0.27588367
93	0xbef6740f	-0.4813542
94	0xbf63d87d	-0.8900221
95	0xbd4fd9b8	-0.050744742
96	0xbf624931	-0.8839293
97	0xbfe80a6f	-1.8128184
98	0x3e95a4cc	0.29227293
99	0x3f93dc99	1.1551696
100	0x3fab9ac3	1.3406605
101	0xbe984bba	-0.29745275
102	0xbf9fec54	-1.2493997
103	0x3f41df41	0.75731283
104	0xbf8d3c10	-1.1033955
105	0xbf0409b5	-0.5157731
106	0xbea25b56	-0.3171031
107	0x3fccce82	1.6000521
108	0x3f45406b	0.7705142
109	0x3f159617	0.58432144
110	0x3e4f64fb	0.20253365
111	0x3e500ba5	0.20316942
112	0x3eb169c9	0.3465102
113	0xbc17e4a5	-0.009270822
114	0xbe3ff28b	-0.18744867
115	0x3f872876	1.0559223
116	0xbdab40c1	-0.0836196
117	0xbf8d132a	-1.1021473
118	0x3e3d11c8	0.18463814
119	0xbf91ac3a	-1.1380684
120	0xbfadc436	-1.3575504
121	0x3e109344	0.14118677
122	0xbf67c0c6	-0.90528524
123	0xbe1c3e0b	-0.15258043
124	0xbf827ebf	-1.019493
125	0x3d2c46a9	0.042059574
126	0xbe9e5188	-0.30921578
127	0x3fc3daad	1.530111
128	0xbf7ec9f3	-0.995269
129	0x3f3cfb3c	0.73820853
130	0x3f0237b5	0.5086625
131	0xbf3f429f	-0.7471103
132	0x3fd00e7d	1.6254421
133	0x3eb2bc0e	0.349091
134	0x3dd9a078	0.1062631
135	0xbf13f7cc	-0.57799983
136	0xbe47b772	-0.19503573
137	0xbc1efad4	-0.009703357
138	0xbe278086	-0.16357622
139	0x3f74a26a	0.95560324
140	0x3fc3537d	1.5259854
141	0x3f795fe5	0.9741195
142	0x3ee92cb3	0.45541915
143	0x3e9e59be	0.30927843
144	0xbee7664e	-0.4519524
145	0xbe4fe48b	-0.20302026
146	0x3cde5b7f	0.027143238
147	0x3e096465	0.13417204
148	0xbe1f812d	-0.1557662
149	0x3f317fed	0.69335824
150	0x3f81b943	1.0134662
151	0x3f4ad54d	0.7923172
152	0xbf4420a0	-0.7661228
153	0xbe681c4d	-0.22667046
154	0x3fa38a73	1.2776626
155	0xbd88148b	-0.06644543
156	0xbf8d7929	-1.10526
157	0xbe7ca695	-0.24672921
158	0xbf7e987e	-0.99451435
159	0x3faf5733	1.3698486
160	0xbfeebd36	-1.8651493
161	0x3da8897b	0.08229347
162	0x3f5865eb	0.84530514
163	0x3ec26888	0.37970376
164	0xbf39b007	-0.7253422
165	0x3e7d5fc0	0.24743557
166	0x3fb57400	1.4176025
167	0x3edbaf5b	0.42907223
168	0xbf6007c9	-0.8751188
169	0xbfab228e	-1.336992
170	0xbc551fa3	-0.013008031
171	0xbdce934b	-0.10086688
172	0xbf6b3b3b	-0.91887254
173	0xbe0505cb	-0.12990491
174	0x3ce08407	0.027406706
175	0x3e95e4f5	0.29276243
176	0xbef6a664	-0.4817382
177	0x3ed472ae	0.41493744
178	0x3cfe48f5	0.031040648
179	0xbf47059a	-0.7774292
180	0xbdbe1ac7	-0.09282451
181	0xbe993548	-0.29923463
182	0xbf16c0cf	-0.5888795
183	0xbfa8b846	-1.3181236
184	0xbf1d1994	-0.61367154
185	0x3e9cbe06	0.30613726
186	0x3f804ded	1.0023781
187	0xbfda089e	-1.703388
188	0x3ee641b6	0.44972008
189	0x3f63bf1c	0.88963485
190	0xbe8b4917	-0.272042
191	0xbf8a0ffd	-1.0786129
192	0x3dffcf8b	0.124907576
193	0x3f8a68be	1.0813215
194	0xbd975f31	-0.07391203
195	0xbf4aa17a	-0.79152644
196	0xbf836fd0	-1.0268497
197	0x3ec2471e	0.37944883
198	0xbf89228c	-1.0713668
199	0x3f36b8e8	0.71375895
200	0xbe87a475	-0.26492658
201	0xbe91be65	-0.28465572
202	0x3e83a7aa	0.25713855
203	0x3e1229c6	0.14273748
204	0xbf1899a2	-0.59609425
205	0xbf0c612a	-0.5483576
206	0xbfa3ace5	-1.2787138
207	0x3e927428	0.28604245
208	0x3ead1674	0.33806193
209	0x3e79de0c	0.2440111
210	0xbd30ed4b	-0.04319505
211	0x3f6dc988	0.9288564
212	0x3e269b18	0.16270101
213	0xbf0f81ea	-0.5605761
214	0xbf305c79	-0.688911
215	0xbf21e645	-0.6324199
216	0x3f349b8c	0.70549846
217	0xbc769793	-0.015050787
218	0xbf8078dd	-1.0036885
219	0x3f905f66	1.1279113
220	0xbe20b6ab	-0.15694682
221	0x3f7fee24	0.9997275
222	0x3f0e5af3	0.5560753
223	0x3e743bcf	0.2385094
224	0x3e4ee46a	0.2020432
225	0xbe8fc42c	-0.28079355
226	0x3f11bf9f	0.56933016
227	0xbeda3017	-0.42614815
228	0x3ff67b32	1.9256346
229	0x3f8c351e	1.095371
230	0xbef17880	-0.47162247
231	0xbf845159	-1.0337325
232	0x3e5ec891	0.21756198
233	0x3f074712	0.5284282
234	0x3fd13b01	1.6346132
235	0x3d23c911	0.039986674
236	0x3f2516b3	0.6448776
237	0x3f04d35a	0.51884997
238	0x3edb86e3	0.42876348
239	0x3eea1d4c	0.45725477
240	0x3fc79ec0	1.5595322
241	0x3db108cb	0.08644255
242	0xbf8087ae	-1.0041406
243	0x3db4e90d	0.088335134
244	0xbd4743b8	-0.048648566
245	0xbf52ad43	-0.82295626
246	0xbfd74b32	-1.6819823
247	0x3eb285d7	0.34867737
248	0x3ed9a00b	0.42504916
249	0xbf0e7d19	-0.55659634
250	0xbe236b38	-0.1595887
251	0xbe071c39	-0.1319436
252	0x3f364c54	0.7121022
253	0xbf1a313b	-0.6023137
254	0x3f92dcd5	1.1473643
255	0xbe735186	-0.23761567
