CF/Child_CF/MLP_predictor.pt (torch, 266408 bytes, 3 tensors)

lins.0.weight f4 [256, 256]
00000000: 32ce 3dbf a623 0e3f e58f 53bd 2ca4 d7bd
00000010: 9dfe 30be d598 a0be f683 303f 781b 49be
00000020: 9e81 abbf 79d1 4bbe b7db 06bf e61e 38bf
00000030: 66ff dd3e 80c0 42bf 91e4 5cbf a509 843f
00000040: 2dd1 a1be 7641 983e 0fa9 b7bd 4110 e83e
00000050: 5169 a0bf 6863 84bf bc51 cfbe 7efd 44c0
00000060: 506f 6abf 28a1 2bbf 7f6e ab3e a2f0 9ec0
00000070: 3d78 34bf 7618 99bf 0faa ad3e 87ea 90bf
00000080: edda 833f 6004 3bbd e356 57bf 4cb2 9cbf
00000090: 2018 86bf 665a 8d3f 7dc6 6dbf 7a4c 73be
000000a0: 71fa 1a3f a777 b9bf 7bb5 2e3f 9a23 ab3e
000000b0: 0fce fbbe db95 5dbf 6691 4cbf 6bd5 0d3e
000000c0: 2191 0fbf 3156 563f 6546 91be cff0 e1be
000000d0: f0cf a9bf b871 7c3f 3f17 3ebf 4641 e3be
000000e0: 4e2f dfbd 79aa 53bf c60a b33e d500 06bf
000000f0: da04 7bbe 0ad4 d6be 31fc 643e cebc c9be
00000100: 7d55 0f3f e8a3 403f b370 babe 2200 9f3c
00000110: 9dd2 75be 4e38 dbbd 2a6a bcbe fc9c 7ebf
00000120: f293 a9bd 775d b3be e9af adbe ae7d ca3e
00000130: 6f84 933f 99ae afbe 2443 0d3f f587 abbe
00000140: 9de2 91bf 3f75 54be 2792 2dbf 089c 6a3e
00000150: 298e 55bd 7839 5fbf 3c79 853f f64b 6f3f
00000160: 4646 2fbe ef94 a13f 429e 0e3f 558d 703f
00000170: 5ad1 15bf 1cd6 01c0 d5d0 703e dd57 df3d
00000180: 6d77 bc3e 694f 0cbe 4260 a2be 2a41 993c
00000190: 3ee2 f3be c851 c43d 0ca9 d9bf 546a d33e
000001a0: 0dde b5bf 2138 54bf 9719 613f 7672 023e
000001b0: e7af 6d3e f0ec dbbf 229d b03e b549 93bf
000001c0: 65c7 f63e 049c babf 0c15 553f 9c71 40bf
000001d0: ae65 38bf f74e 553f f8db e83e bf57 f2bf
000001e0: 85bf 393f cbef 2ebf 68d3 103e 4f6c 89bf
000001f0: 727e 13c0 ee5d 583e 5f6c 94bf 55f2 a6bf
00000200: 74ce 08bf ad06 cebd 617b f53e bcbb 0c3f
00000210: 4941 a2be bad5 03bf 1945 f3be dee7 1b3e
00000220: 58ba d4be 69b1 b13e 6d6e 46bf 57f4 aa3f
00000230: c904 84be 25f6 1fbf 9c8d cabc 07c7 ccbe
00000240: f5c9 85be 7558 a43d 53d1 8fbe 95e7 49bf
00000250: ff2a 8b3e 8bff a63d eebf b83e a27d 88bd
00000260: 8df9 a0bf 3294 4b3f c102 ab3e ab29 563e
00000270: f605 a2be 23b7 253f c96d 3cbf b997 d7bc
00000280: c8ac 7c3d 59d6 0cc0 3cfa 9ebe 27a1 f9be
00000290: fae7 423f 2b2a 63bd 848f 82bf 0ba9 c0bf
000002a0: d71a 7bbf 2b3d e9bf b042 b7be 2c09 0a3f
000002b0: c266 33be dba7 acbe c5e4 90be 450a 173f
000002c0: 8c0b 26c0 9fce ecbc 9684 993f 463a 9f3e
000002d0: c5e6 48be b452 a13f 163b 0e3f 9fcc 5cbf
000002e0: cef7 21bf 50ba a4bf b6eb 313f 5582 59be
000002f0: 48b6 3b3d 7377 2f3e 4561 2d3e dfd8 1a3f
00000300: edcc 9dbe f8d9 48bd 7ede 683f fbec 9cbe
00000310: e797 aebf d982 4bbf 5ccb e83d e528 103f
00000320: 4303 5abf 45da cfbe 41ba 43bf 0a2c c3bd
00000330: 4940 5abf 0ded 94bd 990d 86be f433 1b3f
00000340: a36f 19bf 3363 6bbf 003c fe3e 9ea4 63bf
00000350: 1201 2a3f d43f dbbe b835 513e 6c28 ebbd
00000360: aca5 993f c90b 2f3e cabc 78bf 65af c6be
00000370: 619d 98be 82c4 3a3d 60f9 a9be c7c2 293e
00000380: c098 a83c 6b44 033f 4193 81bf 1229 b4bf
00000390: ba87 1a3e 499d b63e b668 9dbe c455 b2bf
000003a0: 99a5 47bd 0dd4 ed3e bf42 83bf 53cb 753e
000003b0: 8fb0 8c3e ac32 9c3f cc3b 713e e961 e5bf
000003c0: fac3 5bbf e6a0 89be 60c3 8dbd 8ab3 4d3f
000003d0: 6388 6c3e f0bd b8bd 9912 2abd 95ef 2bbe
000003e0: ac7a c6be d903 c3be e118 5dbd adbf 1abf
000003f0: 15db fb3e 8ffa 5a3f 5fe9 03bf 45a4 97bf
-0.74142754 0.55523145 -0.0516509 -0.1052936 -0.17284627 -0.31366602 0.68951356 -0.19639385
-1.3398931 -0.19904126 -0.5267901 -0.7192215 0.43358916 -0.7607498 -0.86286265 1.0315443
-0.316049 0.29737443 -0.08967792 0.453249 -1.253214 -1.0342836 -0.40492046 -3.077972
-0.915761 -0.6704278 0.3348274 -4.966874 -0.7049597 -1.196059 0.33918807 -1.1321572
1.0301186 -0.04565847 -0.84116954 -1.2241912 -1.0476112 1.1043212 -0.92880994 -0.23759642
0.60538393 -1.448964 0.6824567 0.334256 -0.49180648 -0.86556786 -0.7990936 0.13850944
-0.56080824 0.8372527 -0.2837402 -0.44129035 -1.3266582 0.9861102 -0.7425422 -0.44385737
-0.108976945 -0.82681996 0.34969157 -0.5234502 -0.2451357 -0.41958648 0.22361828 -0.3940186
0.5598982 0.752501 -0.36414108 0.019409243 -0.24006124 -0.10704099 -0.36799747 -0.9945829
-0.082801715 -0.35032246 -0.3392327 0.3954901 1.152479 -0.34312895 0.55180573 -0.33502164
-1.1397282 -0.20747851 -0.67801136 0.22911084 -0.052137528 -0.87197065 1.0427623 0.9347528
-0.17116651 1.2623576 0.5571023 0.93965656 -0.5852257 -2.0286932 0.23517163 0.109054305
0.36809865 -0.13702168 -0.31714064 0.01870783 -0.47633547 0.09585911 -1.7004714 0.4129206
-1.420839 -0.82898146 0.8792967 0.12738976 0.23211633 -1.7181683 0.34494883 -1.1506869
0.48199 -1.4578862 0.8323524 -0.75173354 -0.7203015 0.83323616 0.45480323 -1.8933028
0.7255786 -0.68334645 0.14143145 -1.0736178 -2.3045926 0.21129581 -1.1595572 -1.3042704
-0.5344002 -0.10059867 0.47945693 0.5497396 -0.31690434 -0.51497996 -0.47513655 0.15225169
-0.4154842 0.34705666 -0.77512246 1.3355817 -0.257849 -0.6248496 -0.024725728 -0.39995596
-0.26130643 0.08024684 -0.2808939 -0.7886899 0.2718124 0.0815421 0.3608393 -0.066645876
-1.2576157 0.79523003 0.3340054 0.20914333 -0.31645173 0.6473257 -0.7360502 -0.026317464
0.061688215 -2.2005827 -0.3105029 -0.48755762 0.7613522 -0.055460136 -1.0200047 -1.5051588
-0.9808783 -1.8221792 -0.35793066 0.53920245 -0.17519668 -0.33721814 -0.28299537 0.59000045
-2.5944548 -0.028907118 1.1993587 0.31099147 -0.19619282 1.2603364 0.5555891 -0.86249727
-0.63268745 -1.2869358 0.6950029 -0.21241124 0.045828134 0.1713541 0.16931637 0.6048717
-0.30820408 -0.049035996 0.90964496 -0.30649552 -1.3640107 -0.7949653 0.11366913 0.563124
-0.85161227 -0.40596214 -0.76456076 -0.09529884 -0.8525434 -0.07271776 -0.2618225 0.6062615
-0.5993597 -0.9194824 0.4965515 -0.8892306 0.66407883 -0.42822134 0.20430648 -0.11482319
1.2003684 0.1709434 -0.9716307 -0.3880569 -0.2980757 0.04559756 -0.3319807 0.16578208
0.02058065 0.5127627 -1.0123063 -1.4075034 0.15090838 0.35666874 -0.3074395 -1.3932424
-0.04874191 0.46450844 -1.0254744 0.24003343 0.27478454 1.2202964 0.23557967 -1.7920505
-0.8584591 -0.26880568 -0.069220304 0.8035208 0.23098902 -0.09020603 -0.041521642 -0.16790612
-0.38765466 -0.38088873 -0.053978804 -0.60448724 0.49190584 0.8553857 -0.5152797 -1.1847006

lins.0.bias f4 [256]
00000000: a550 52c0 14ee 72c0 dbed 95c0 c3f5 13bf
00000010: 3548 3dc0 f75a 823f 6161 2bc0 b0d0 e9bf
00000020: e53f 93c0 6495 cebe 9006 5bc0 49e3 3740
00000030: b4cf 0ac0 6f27 403f 39e8 7f3f 70e7 89be
00000040: 2e9f 943f 302b fbbe ed9e 97c0 5f60 0940
00000050: f1f3 e6bf 7370 56c0 28b6 37c0 4c65 cc40
00000060: df02 ad40 5edb cd3f ac6e bd3f d7dd 513f
00000070: 729d 493f c08c 8f3d e8d5 91bf 3350 333f
00000080: 1fe4 85c0 c921 cc3f 5e27 6fc0 8649 bf3b
00000090: de30 873f aefe 5c40 d184 573f 6476 8a40
000000a0: 16e5 4540 7b25 2dc1 8473 7840 efdd 9dbe
000000b0: b944 c43e 059c 0f40 ab6a bb3e 684c 513f
000000c0: 68ca d6bf e3f1 45bf d413 21c0 a413 1f40
000000d0: 3e2f e53f 1345 ec40 7df4 93bf 2edf bf40
000000e0: 447a b0bf 2b81 e43d 1b4d 893f fdb6 3b3d
000000f0: 3f1c 2d40 f65a 0840 157c 5640 1afd d43e
00000100: e2bb 1d40 7511 f9bf 7a87 44c0 c6cb 4640
00000110: bd1c 6d3f 2a87 85c0 1f04 933f 03fb 7840
00000120: c5f2 dc3e ffd8 9d40 dd3c 08bf abb1 b23f
00000130: 2893 29be f543 8fbf 9871 c73d 949d bd40
00000140: e67e 0940 50b7 d5bf 9558 88c0 aa58 33bf
00000150: 207b 0f40 ac60 de3f b0ae d53f 309c 49bd
00000160: 736a 7fc0 d2ae a1c0 34fc 123e ea7f 3abf
00000170: 6dae afbd ceff 0c3f 0675 173f bd1f 3840
00000180: 6f61 7140 1c62 7bc0 73bb 5840 d5df 4640
00000190: b00d 1bc0 b53a 4e40 8e16 083f f699 b8be
000001a0: a664 b23f c84a e0bb d85f 6b3f 7fc8 193f
000001b0: 3911 bbbf fc21 dfbf 12c3 cdc0 bba4 febc
000001c0: 94a0 a33f 5aac ba40 7f15 b73f 30f3 b93c
000001d0: 8a44 1240 4872 1b40 1282 b63f 68b2 a240
000001e0: e2a7 a83f 3192 0240 34cd 2e40 ad52 4e40
000001f0: 5160 8ec0 8a84 83c0 46dc 74bf af0d c23f
00000200: 0d55 1f40 d372 42bf 7209 ac3f 7c8f c2bf
00000210: 2777 03be 553d b7c0 3d14 923e 6bff b2bf
00000220: a113 51c1 1bd6 3a40 1249 2abf 2c71 013f
00000230: 9865 5ec0 fe43 26c0 d936 963f 8788 a4bf
00000240: 3a7a 18c0 d41e 2740 3abc 47c0 b7fc a2be
00000250: 57ad a440 312c db3f e5d4 a9bf 04be 5940
00000260: e9cc 80c0 1879 16bf 4bba 0e40 e538 4cc0
00000270: 8814 e13f 850c 843e 6467 633f a570 6dbf
00000280: b8ea 0440 e69e 76c0 ac13 97c0 85ef 143f
00000290: 9cbf e73e 11ec 1340 f7a6 8840 42bc c6c0
000002a0: 10bd 8240 041c 30c0 038d b03f 2f93 f23e
000002b0: 0851 bf40 8884 93bf ffa7 9cbd e09f 23c1
000002c0: dc75 1840 a6e8 1040 9b1f 8640 239e c23f
000002d0: a9e9 2140 451b cdbf c0ee ad40 98d1 6b40
000002e0: 9fa7 1b40 dcfb 503f c77b 4640 2335 3240
000002f0: e87f f53f 3477 863f 877c 2540 c861 43c0
00000300: 71db 4a40 6053 8dc0 fd79 6ac0 8e09 2340
00000310: 7eb2 1640 bbd0 823f f0fc 9a40 6220 8ebf
00000320: 2362 a13f a40c 8640 8999 1a40 9dd1 d6c0
00000330: cab8 52c0 c945 973f 0508 4640 35e9 8dc0
00000340: 43f5 94bf 3a7a 8240 2c92 6d40 8c8f 0c3e
00000350: f49e 86c0 e172 8ec0 0904 9fc0 0641 78bf
00000360: 7743 fd3f 3c74 19c0 c03d a7c0 508e 3f40
00000370: fa9d 0d40 c5a1 863f 3320 fc3e 0c86 ed3e
00000380: 12d8 09bf 3ae9 80c0 dee5 ab3e 4594 94bf
00000390: aa1f 18c0 53dd d0be a91e d73f 98a1 ef3e
000003a0: 3d2c b8be 5ecf afbe c464 2440 5060 81bf
000003b0: 7610 1c40 a0eb 173f d09a 6dc0 4b5d 0f40
000003c0: ae18 c040 bcc6 2b40 93e7 03c0 2b04 49c1
000003d0: 0ad3 0cbd ba05 a03e d708 5e40 d555 2ac0
000003e0: 7d57 953f 33d0 68bf 6a0b 46c0 ba2b 1940
000003f0: cc8e 4d3f 5956 f5bf ba48 31c0 8453 913f
-3.2861722 -3.7957811 -4.685285 -0.5779688 -2.9575322 1.018401 -2.6778185 -1.8266811
-4.6015496 -0.4034835 -3.4222755 2.8732474 -2.1689272 0.7506017 0.9996372 -0.26934385
1.1611078 -0.49056387 -4.73815 2.146507 -1.8043195 -3.3506134 -2.870493 6.3873653
5.4066005 1.608257 1.4799399 0.81979126 0.7875587 0.07009268 -1.1393404 0.7004425
-4.184097 1.594781 -3.7367778 0.005837622 1.0561788 3.4530444 0.84187037 4.326952
3.0921073 -10.8216505 3.8820505 -0.30833384 0.3833368 2.2438977 0.3660482 0.8175721
-1.678052 -0.77322215 -2.5168352 2.4855738 1.7905042 7.383432 -1.1558987 5.9959936
-1.3787313 0.11157449 1.0726656 0.045828808 2.704849 2.1305518 3.3513234 0.4159935
2.4645925 -1.9458452 -3.0707688 3.1061873 0.92621976 -4.1727495 1.1485633 3.8903205
0.43153968 4.932739 -0.5321787 1.396047 -0.16560042 -1.1192614 0.09738463 5.9254856
2.1483703 -1.6696568 -4.260813 -0.70057166 2.24189 1.7373252 1.6693935 -0.049221218
-3.9908721 -5.0525904 0.1435402 -0.7285143 -0.08578191 0.55077827 0.5916294 2.8769372
3.7715719 -3.9278631 3.386441 3.1074116 -2.4227104 3.2223332 0.53159416 -0.36054963
1.3936965 -0.006844852 0.9194312 0.6007156 -1.4614631 -1.7432246 -6.4300623 -0.031084409
1.278338 5.833539 1.4303435 0.022698969 2.2854333 2.4288502 1.4258444 5.084278
1.3176234 2.0401728 2.7312746 3.2237961 -4.4492574 -4.109929 -0.9564861 1.5160426
2.489566 -0.7595646 1.3440382 -1.5200038 -0.12838422 -5.726237 0.28531066 -1.3984197
-13.067292 2.919318 -0.66517746 0.5056331 -3.4749508 -2.5979 1.1735488 -1.2854165
-2.38246 2.6112566 -3.1208634 -0.3183343 5.1461596 1.7122861 -1.3268095 3.4022226
-4.0250134 -0.58778524 2.2301204 -3.1909726 1.7584391 0.25790802 0.88829637 -0.92750007
2.076826 -3.8534484 -4.7211514 0.5817798 0.45263374 2.3112833 4.2703815 -6.2104807
4.085579 -2.75171 1.3793033 0.47377917 5.9786415 -1.152482 -0.0764923 -10.226532
2.3821936 2.2641997 4.191358 1.520451 2.5298865 -1.6023947 5.4353943 3.6846676
2.4321058 0.81634307 3.1013048 2.7844932 1.9179659 1.0505128 2.5857255 -3.052843
3.1696436 -4.4164276 -3.6636956 2.5474582 2.3546443 1.021995 4.843376 -1.1103632
1.2608074 4.189043 2.415621 -6.7130876 -3.2925286 1.1818172 3.0942395 -4.4347177
-1.1637348 4.07742 3.7120466 0.13726634 -4.2069035 -4.4515233 -4.9692426 -0.9697422
1.9786214 -2.3977194 -5.226288 2.993061 2.2127671 1.0518118 0.49243316 0.46391332
-0.5384532 -4.02847 0.33573812 -1.1607748 -2.3769326 -0.40793857 1.6806232 0.46802974
-0.3597125 -0.34337896 2.5686502 -1.0107517 2.4385047 0.5934391 -3.712574 2.2400692
6.0030127 2.6840048 -2.0610092 -12.563518 -0.03438095 0.3125437 3.4692895 -2.6614888
1.1667324 -0.90942687 -3.0944467 2.3932939 0.80296016 -1.9166976 -2.7700639 1.1353612

lins.1.weight f4 [1, 256]
00000000: 9bf1 da3d df83 acbd a2b8 d8bd 3f12 83bc
00000010: af1d 8abd 3b2e 053d 5d02 0e3d 02f6 b53c
00000020: 0d01 ddbd 17b5 363d d366 933c f382 11bd
00000030: 7efb d9bd 3e03 543d adfb b33c 4fea ec3c
00000040: 77e0 973c be6e aebc 9c1a fdbd 1bbc a03c
00000050: fe7f 4fbd ad95 83bd b8c3 c93d 3ceb f2bc
00000060: 2dad 423d 0f74 b0bc 6927 763c 1527 78bc
00000070: 3d72 a1bc 4258 d33c 341b 983d fb4a ae3c
00000080: cf21 3fbd fc46 98bc ccc3 eebd 0a33 963d
00000090: 8959 813d bb65 a9bc d456 a4bc 6875 c6bc
000000a0: a3c9 bcbc ae47 26bd 49b9 dcbc f192 90bc
000000b0: e67b a33c ccd6 883d 19d7 933c 4924 cabc
000000c0: 9e48 9cbd 2d44 a83d e6e1 cfbd 6555 a5bc
000000d0: dbe3 b7bc 56a1 713d 5d14 90bd e977 32bd
000000e0: cf89 8c3c 0db6 a43c d0a3 b0bc 7164 3e3d
000000f0: 9042 35bd 5fb2 833d e92e 70bd 3f02 8cbc
00000100: d1dc 2f3d 13c0 6ebc 9059 15bd d42c b2bc
00000110: e48e 8d3c c5df c53d 5605 ce3d 534f d8bc
00000120: 5caf 863c 52df 1fbd d1ce 95bc b6c6 a8bc
00000130: 14d6 8d3c cfef a6bc 6471 7b3d 59d1 f3bc
00000140: bf54 18bd 11fe f93c 8a1c 39be 4888 51bd
00000150: 897b bdbc be83 b03c 1549 d73c b54e 9bbc
00000160: 4697 90bd bcc8 92bd 4a37 583d b137 9b3c
00000170: ee49 aa3c 3aa8 c13c b455 89bc 3143 edbc
00000180: e731 17bd 417a 3fbe 2180 0a3d 0fc9 f0bc
00000190: b8a6 0b3d 9161 e33c 37c1 1c3d bad4 a0bc
000001a0: 3277 9e3c 705e a5bc 8a1d 393d b970 463d
000001b0: 1865 93bc 5088 253d 4138 3bbd 327c bd3c
000001c0: cc7d d83c 1cc0 ddbc 9e88 073d 95dc 92bc
000001d0: cfd3 9c3c 1025 a83c 3022 d93c f903 2dbd
000001e0: 2099 bfbc ae87 b9bc 1d3c bfbc 29a7 d2bc
000001f0: 074f a2bd e981 01be af2f b0bc 96ef 953c
00000200: 820e 0dbd 8f4a 92bc ec43 94bc 6db6 e0bd
00000210: 4ea4 003d baa6 12be b588 49bd 660c d1bd
00000220: e906 77bd 7b01 cc3c 3991 bdbc 8b25 0c3d
00000230: ede6 adbd 32e3 81bd ec75 b73c cc1d 9e3c
00000240: e3e0 1b3d 9aa2 b23c a512 a03c 2eb3 023d
00000250: 01f6 15bd fcfb 1bbd b6b6 15bd 05c2 8f3d
00000260: 01b1 b5bd 2731 013d 3b8c 8c3d c028 2bbe
00000270: d30a 023d 2e67 ce3c d39e b03d 7ca8 db3c
00000280: 0c68 b4bc 50b4 ddbd b2df cdbd 4e6f c63c
00000290: c3d0 563c dd36 b2bc 6137 bbbc ca70 b6bd
000002a0: f70f f0bc 4a7f e2bd 76a7 ea3c 84ba 9e3c
000002b0: 0a35 c93c 5841 b63c 6800 933d ea87 18bd
000002c0: 8729 b6bc ce18 693d 0b95 cbbc 8277 f3bc
000002d0: 5f04 01bd 3e1a 02be 759f bdbc b292 cebc
000002e0: f366 9abc faf4 af3c 3f30 023d d594 c73d
000002f0: e5fe c5bc e7c6 a7bc ffc8 b43c b508 92bd
00000300: 859b cdbc a8ee 14be 28da 25be 3065 8c3c
00000310: c41a 713d 2178 863d 6ced d9bc e785 88bc
00000320: ee0c d53c 9567 c9bc d47d d6bc d2a9 febd
00000330: 0dfd f43d 0a49 aabc 97e5 0cbd 4a70 9b3d
00000340: 699b a9bc cb4e d7bc 3a16 8dbc 60aa 783d
00000350: a36c 05be 050c 11be 47ad d8bd d490 9f3c
00000360: 6d0d a9bc 5434 b2bd 76e5 83bd 75cb 3b3c
00000370: 53d4 93bc bc1d babc 1774 a73c 8fd6 94bc
00000380: c290 ac3d d7de afbd b3b7 b03c 5c98 a23c
00000390: 5d2c a43d 738c b2bc 707e 9a3c aa64 97bc
000003a0: 79d4 8e3c 020a 923d f8a9 543d 4bf3 96bc
000003b0: 9256 b0bc 689e 78bc f519 ecbd f46a b2bc
000003c0: 0b64 febc 3982 953d 5ad1 b03c 17d2 9ebd
000003d0: 5eae babc af43 913d 57cd e1bc 0ef4 4ebd
000003e0: 2ab1 12bd ade6 a0bc 7144 9e3d 526d a4bc
000003f0: ef92 8d3c 2e8b b63d 16e3 e2bc 9af0 d5bc
0.10690614 -0.0842359 -0.10582091 -0.015999911 -0.06743943 0.032514792 0.034670223 0.022212032
-0.10791216 0.044606294 0.017993366 -0.035525274 -0.106436715 0.051760904 0.021970594 0.02892032
0.01853965 -0.02129304 -0.12358591 0.019620946 -0.050659172 -0.06425033 0.098517835 -0.029653184
0.047528435 -0.021539716 0.015024045 -0.015146037 -0.019707793 0.02579892 0.074270636 0.021275988
-0.0466631 -0.018588535 -0.11658439 0.07333954 0.063159056 -0.020678392 -0.020060934 -0.024225906
-0.023045367 -0.040595703 -0.02694382 -0.017648192 0.01995654 0.06681594 0.018046902 -0.024675505
-0.07631038 0.082161285 -0.101505086 -0.02018232 -0.022447517 0.058991753 -0.07035134 -0.043571386
0.017155556 0.02010634 -0.021562487 0.046482507 -0.044252932 0.06430506 -0.058638487 -0.017090915
0.042935196 -0.014572161 -0.036462367 -0.021749891 0.01728005 0.09661821 0.100596115 -0.026405012
0.01644104 -0.039031334 -0.018287094 -0.020602565 0.017313994 -0.020378022 0.061387435 -0.02976291
-0.037190195 0.030516656 -0.18077293 -0.05115536 -0.023130195 0.021547195 0.026279965 -0.018958429
-0.07060103 -0.07167193 0.052787103 0.018947454 0.020787206 0.023639787 -0.0167645 -0.028962703
-0.036912825 -0.1869898 0.0338136 -0.029392747 0.034094542 0.027756484 0.0382702 -0.019632686
0.019343946 -0.020186633 0.045194186 0.048447344 -0.017992541 0.0404132 -0.045707945 0.02313051
0.026427172 -0.027069144 0.033089273 -0.017927447 0.019143967 0.020525485 0.02650556 -0.042240117
-0.023388445 -0.022647705 -0.023344094 -0.025714474 -0.079252295 -0.12647213 -0.021507112 0.01830272
-0.034437664 -0.017857818 -0.018098794 -0.10972295 0.031406693 -0.14321414 -0.04920264 -0.10207443
-0.060309324 0.02490305 -0.023140537 0.03421549 -0.08491311 -0.06342162 0.022395097 0.019301318
0.038056266 0.02180605 0.01954014 0.03190916 -0.03661156 -0.038082108 -0.0365512 0.07019428
-0.088716514 0.031541016 0.06862684 -0.16714764 0.031748604 0.025195684 0.08624043 0.026813738
-0.02202227 -0.108254075 -0.10052432 0.024222996 0.013111296 -0.021754676 -0.022853555 -0.089082316
-0.029304488 -0.11059435 0.028644305 0.019376047 0.024561424 0.022247955 0.07177812 -0.037238993
-0.022236599 0.05690842 -0.024851343 -0.029720072 -0.03149831 -0.12705323 -0.023147324 -0.025216434
-0.018847918 0.021479119 0.031784292 0.09745184 -0.024169395 -0.020480586 0.022068499 -0.07130567
-0.025098572 -0.14544165 -0.16196501 0.017138094 0.058863416 0.065658815 -0.02660247 -0.016665412
0.026007142 -0.024585525 -0.026183046 -0.124347344 0.11962328 -0.02078678 -0.03439864 0.07589777
-0.020703988 -0.026282689 -0.017222513 0.060709357 -0.13029723 -0.14164741 -0.10579925 0.01947824
-0.020636285 -0.08701387 -0.064402506 0.011462082 -0.01804558 -0.022719257 0.020441098 -0.018168716
0.08426048 -0.08587425 0.02157197 0.019848041 0.08016274 -0.021795487 0.018859118 -0.018480618
0.0174353 0.07130815 0.051919907 -0.018426558 -0.021525655 -0.015174486 -0.115283884 -0.021779515
-0.031053564 0.073002286 0.021584202 -0.07754915 -0.022788223 0.07092988 -0.027563734 -0.050525717
-0.035813488 -0.019641245 0.07727898 -0.02007166 0.017281977 0.08913265 -0.027696174 -0.026115704
