CF/PubMed_CF/MLP_encoder.pt (torch, 659608 bytes, 4 tensors)

lins.0.weight f4 [256, 384]
0.2978667 0.26022497 -0.20957167 0.0682198 0.07652624 0.13031507 -0.085707076 0.36653584
-0.020234182 -0.12548046 -0.12363607 0.3498668 0.10408152 0.32887715 -0.095433 0.13479234
-0.015257468 -0.26358932 -0.0025815454 -0.14757141 0.12903939 0.19122139 -0.04599902 0.017872801
-0.14957419 0.1416732 -0.14897789 -0.021977112 0.022672327 0.1778852 -0.2902765 -0.057717048
-0.2411026 -0.16011019 -0.05508498 0.18447436 -0.27771407 0.3890033 0.21268977 -0.00891284
0.21038389 0.031188827 0.1340878 0.1378792 -0.10053968 0.035180528 -0.15437323 -0.37976852
-0.15769629 0.06132223 0.20952976 0.335815 0.14575236 0.28977716 -0.050534848 -0.04742779
-0.1264022 0.28072283 0.13393402 0.059146617 0.04434991 0.1892243 -0.3449879 0.17635642
-0.020325862 0.200881 0.24970002 0.017762462 -0.27359155 -0.03018222 -0.058537856 -0.079381034
0.23217444 -0.14852709 -0.12678355 0.07047207 0.037471328 -0.06028894 -0.07340489 0.14381436
0.16384049 -0.037498534 -0.11573784 -0.3752496 0.014351451 -0.13052785 -0.07220805 0.08814605
-0.04993763 -0.024487844 -0.009664752 -0.12759651 0.28192177 0.29229 0.066458285 -0.21344383
-0.1596837 0.027517525 0.13571939 -0.3014571 -0.39257556 0.48287556 -0.20347771 0.22456452
-0.21649148 -0.074364826 -0.33468807 0.18622972 0.04283702 0.009671698 -0.34644157 0.22108856
0.119144715 -0.030671857 0.0872548 0.0023170253 -0.2256327 -0.062193487 0.2655327 0.069294356
-0.17231706 -0.037700504 -0.21532442 0.05668168 0.08105282 -0.035258595 0.1100973 0.049628798
0.02825079 -0.20334019 0.026598006 0.008795528 0.25507924 -0.016691022 0.20109197 -0.30050012
0.038543485 -0.06744915 -0.049295723 0.07245186 0.3324419 -0.021266505 0.161947 -0.047850862
0.08585121 -0.24267212 0.023455987 -0.041256808 0.050881952 0.035374038 0.14205042 -0.17312932
0.094539225 0.33835745 0.1628036 -0.033749312 0.15384758 -0.096922785 -0.26680446 -0.26097468
-0.09251117 0.07450762 0.60841435 -0.16045384 0.0772299 0.23248024 0.33705655 0.34444463
-0.2000095 0.07707893 0.31204626 -0.12067936 -0.15058687 0.08883176 -0.054125853 0.12103355
-0.08440187 0.0452849 0.04316331 -0.07077285 -0.054089647 0.044543233 -0.025352294 0.14571963
-0.32942468 -0.019543804 0.009096747 -0.1305092 0.13181184 0.12341075 0.15339294 0.10962929
0.059433177 -0.17326845 0.06155371 -0.1765438 0.013091985 0.27037895 -0.08771107 0.09254061
0.039838865 -0.044731896 -0.007492197 -0.097473964 -0.023803648 -0.11826027 -0.3466773 -0.16529855
-0.03315395 -0.54039115 0.31837368 0.0028508354 0.1561772 -0.30983564 -0.30501413 0.13099912
-0.11937795 0.104175575 0.22743036 0.054012086 -0.010656517 0.18072526 0.15388319 -0.043006137
0.1539091 -0.37539995 0.07889572 -0.043607745 -0.21599543 -0.029711682 0.30343905 -0.21349642
-0.18655859 0.0587247 -0.09974411 0.21715373 0.06439318 -0.40017703 -0.38402137 0.0034132046
-0.012961441 0.27161834 0.28296196 -0.16947329 0.010017808 -0.14594236 0.13254958 -0.13610916
-0.026550168 0.36848515 -0.5210883 0.13148007 -0.14767045 -0.3058303 0.17834413 0.14163476
00000000: fc81 983e 353c 853e f599 56be d3b6 8b3d
00000010: cab9 9c3d 5071 053e 3187 afbd 96aa bb3e
00000020: 28c2 a5bc f37d 00be e834 fdbd be21 b33e
00000030: b128 d53d 9662 a83e 6072 c3bd 0107 0a3e
00000040: 76fa 79bc 2ef5 86be 252f 29bb f61c 17be
00000050: e722 043e 8acf 433e 7869 3cbd fb69 923c
00000060: fa29 19be c812 113e a98d 18be 5809 b4bc
00000070: 51bb b93c 8a27 363e 1f9f 94be b668 6cbd
00000080: 9ae3 76be edf3 23be caa0 61bd d9e6 3c3e
00000090: 8a30 8ebe 712b c73e 59cb 593e 2907 12bc
000000a0: e06e 573e b67f ff3c 504e 093e 3430 0d3e
000000b0: bfe7 cdbd 7519 103d 0414 1ebe 0571 c2be
000000c0: 237b 21be 052d 7b3d f88e 563e f2ef ab3e
000000d0: 1b40 153e ac5d 943e a1fd 4ebd a443 42bd
000000e0: 946f 01be e7ba 8f3e 0026 093e b943 723d
000000f0: 40a8 353d 04c4 413e 41a2 b0be c796 343e
00000100: 6c82 a6bc c0b3 4d3e 5db1 7f3e 9582 913c
00000110: 3114 8cbe b440 f7bc 64c5 6fbd 8692 a2bd
00000120: 23bf 6d3e 7c17 18be 8cd3 01be a953 903d
00000130: 897b 193d 89f1 76bd 4e55 96bd 1244 133e
00000140: cdc5 273e 1098 19bd f607 edbd b720 c0be
00000150: 5922 6b3c 18a9 05be d0e1 93bd eb85 b43d
00000160: 668b 4cbd bb9a c8bc e858 1ebc a9a8 02be
00000170: 0d58 903e 09a7 953e 481b 883d 0591 5abe
00000180: 2084 23be 6f6c e13c 06fa 0a3e 9658 9abe
00000190: aaff c8be 773b f73e 765c 50be 3ef4 653e
000001a0: f1af 5dbe 964c 98bd 3c5c abbe 01b3 3e3e
000001b0: df75 2f3d 0b76 1e3c ca60 b1be 0a65 623e
000001c0: 2502 f43d 8c43 fbbc a5b2 b23d 3cd9 173b
000001d0: 420c 67be 99be 7ebd e7f3 873e 33ea 8d3d
000001e0: e273 30be d86b 1abd 017e 5cbe 0d2b 683d
000001f0: 05ff a53d 516b 10bd b17a e13d 9147 4b3d
00000200: 336e e73c 6938 50be 10e4 d93c 1e1b 103c
00000210: bf99 823e 9cbb 88bc 0eeb 4d3e 27db 99be
00000220: c6df 1d3d c822 8abd 50ea 49bd a461 943d
00000230: d335 aa3e 1837 aebc 6fd5 253e 44ff 43bd
00000240: c2d2 af3d 0a7f 78be c526 c03c e6fc 28bd
00000250: 9869 503d 5ee4 103d aa75 113e d048 31be
00000260: c89d c13d 303d ad3e fdb5 263e b83c 0abd
00000270: 388a 1d3e 747f c6bd 989a 88be 799e 85be
00000280: 7f76 bdbd 7397 983d 0bc1 1b3f 034e 24be
00000290: b62a 9e3d 4d0f 6e3e ad92 ac3e 0c5b b03e
000002a0: 4acf 4cbe 8fdb 9d3d 87c4 9f3e be26 f7bd
000002b0: 7233 1abe 6ded b53d 12b3 5dbd 70e0 f73d
000002c0: e3da acbd a97c 393d 03cc 303d 5bf1 90bd
000002d0: 1b8d 5dbd f772 363d 9daf cfbc 8737 153e
000002e0: 5aaa a8be 541a a0bc 860a 153c 34a4 05be
000002f0: aff9 063e c6be fc3d 0a13 1d3e 5285 e03d
00000300: 3470 733d 496d 31be be1f 7c3d e6c7 34be
00000310: c47f 563c 1c6f 8a3e dda1 b3bd ee85 bd3d
00000320: 142e 233d cb38 37bd 1b81 f5bb 6ea0 c7bd
00000330: deff c2bc 7132 f2bd b07f b1be 0644 29be
00000340: 70cc 07bd 1357 0abf e001 a33e 15d5 3a3b
00000350: eaec 1f3e c7a2 9ebe d02a 9cbe a224 063e
00000360: 6d7c f4bd 015a d53d 81e3 683e c73b 5d3d
00000370: ac98 2ebc 0b10 393e 8e93 1d3e 3427 30bd
00000380: 599a 1d3e 6c34 c0be 1494 a13d 099e 32bd
00000390: e82d 5dbe ea65 f3bc 5d5c 9b3e ce9e 5abe
000003a0: 3709 3fbe 5089 703d a446 ccbd 8c5d 5e3e
000003b0: 92e0 833d 01e4 ccbe 739e c4be 12b0 5f3b
000003c0: 395c 54bc 8f11 8b3e 64e0 903e 688a 2dbe
000003d0: bb21 243c ea71 15be 14bb 073e 3360 0bbe
000003e0: bd7f d9bc 16aa bc3e 0b66 05bf b6a2 063e
000003f0: ec36 17be ca95 9cbe d89f 363e b408 113e

lins.0.bias f4 [256]
-0.117286436 0.039832115 -0.16427422 -0.10268332 -0.11120275 -0.12272816 0.04297904 -0.15892941
-0.10900347 -0.06386292 -0.051237535 -0.085464716 -0.041041322 -0.10941584 0.05649609 -0.14051162
-0.13879503 -0.09268799 -0.07254217 0.004907045 -0.083830826 -0.14335528 -0.031147627 -0.039853126
-0.0052825776 0.01609566 -0.014572645 0.024706246 -0.19208984 -0.15787742 -0.068463676 -0.1288257
-0.078477435 -0.110206455 -0.06566027 -0.07520206 -0.13886659 0.041056298 -0.09145286 0.08397512
-0.08291034 -0.12862961 -0.06050514 -0.111160584 -0.15200797 -0.0338887 -0.057324003 -0.09235577
-0.06234028 -0.0068290536 -0.043431647 -0.037364606 -0.1606107 -0.006385536 -0.09830699 -0.084013045
-0.08419888 -0.011943504 0.028641472 -0.025605911 0.05557794 -0.18447748 0.004526783 0.03938833
-0.18649773 -0.116133146 -0.086794384 0.0071741156 -0.074277416 -0.045827616 -0.0057231532 -0.047817085
0.021215737 -0.0743162 -0.04244486 0.0096611725 -0.11655545 -0.124659754 -0.05045324 0.06036797
-0.14236012 -0.19183531 -0.056287013 0.03576735 -0.049110167 -0.08175328 -0.15441164 0.048997052
-0.113768436 -0.14460555 -0.081615746 -0.03424282 -0.15090694 -0.030760886 -0.14407407 -0.024582239
-0.047382742 -0.037347604 -0.074042365 -0.05552285 -0.12203963 -0.092024 -0.117367856 -0.026566874
-0.16891852 0.06173013 -0.0872002 -0.076746404 -0.19379713 -0.075570635 -0.12955597 -0.18926562
-0.10838559 -0.13925011 -0.10647137 -0.18824649 0.16734973 -0.12027708 -0.18126169 -0.09342582
0.09231816 -0.04189917 -0.07910575 -0.115888365 -0.11047005 -0.050170317 -0.1319116 -0.12761234
-0.07217115 -0.0793063 -0.1544572 -0.03851689 -0.13920303 -0.058832888 -0.066585936 -0.045232862
-0.0760322 -0.23336682 -0.17189251 -0.10236014 -0.090880506 0.055450514 -0.19274236 -0.08794611
-0.1102924 -0.14143822 0.0556217 -0.15053482 -0.07643358 0.019510638 -0.10554496 -0.087032236
-0.064910255 -0.16838622 -0.04019911 -0.07449684 -0.10870295 -0.13489737 -0.063439004 -0.018810917
-0.1008883 -0.06678293 0.011194338 -0.047836114 -0.120933756 -0.05400393 -0.042445872 -0.058453906
-0.09273894 -0.14388102 -0.08245295 -0.1326474 0.04098047 -0.17136848 -0.16338786 -0.048316326
-0.021406127 0.011093228 -0.08761919 -0.031005122 -0.13347244 -0.04459792 -0.18141864 -0.17357075
-0.17217155 0.0145508405 -0.061710212 0.048232965 -0.14279129 0.080889836 0.00512262 -0.075501725
-0.17490299 -0.05689773 -0.11421715 -0.1238517 -0.14965206 -0.16812071 -0.20813431 0.007670174
-0.081135675 -0.06941133 -0.14202003 -0.0974089 -0.06782054 0.018588582 0.027750133 -0.17366903
-0.1412614 -0.1637425 -0.080717266 -0.09737936 -0.053064745 -0.046468902 -0.05474131 0.13136855
-0.12860008 -0.052573986 -0.015162992 -0.12436269 -0.13662794 -0.06646033 -0.10566079 -0.073347695
-0.10951196 -0.06949488 0.03270366 -0.059432607 -0.06848868 -0.15711664 -0.08646104 -0.15385099
-0.04993222 -0.18327092 0.07704104 -0.02125338 -0.07805619 -0.1707346 -0.024073405 -0.15545237
-0.028434733 -0.03905816 -0.05841589 -0.13765226 0.06539443 -0.081298485 0.13272364 0.055301208
-0.017944073 -0.13577156 -0.19224979 -0.10542563 -0.16217759 -0.063115165 -0.1602188 -0.12427519
00000000: df33 f0bd 0027 233d 8037 28be a24b d2bd
00000010: 44be e3bd e758 fbbd ca0a 303d 64be 22be
00000020: 363d dfbd 90ca 82bd 73de 51bd 2008 afbd
00000030: f21a 28bd 6915 e0bd 7268 673d 47e2 0fbe
00000040: 4920 0ebe 33d3 bdbd fd90 94bd 47cb a03b
00000050: 7faf abbd bacb 12be 4f29 ffbc 083d 23bd
00000060: 7919 adbb 0cdb 833c 1ac2 6ebc c164 ca3c
00000070: 33b3 44be 9eaa 21be af36 8cbd e2ea 03be
00000080: c7b8 a0bd ecb3 e1bd e478 86bd 8a03 9abd
00000090: 0b33 0ebe a62a 283d a34b bbbd 26fb ab3d
000000a0: e5cc a9bd 7bb7 03be 3dd4 77bd 29a8 e3bd
000000b0: faa7 1bbe e1ce 0abd 93cc 6abd 0625 bdbd
000000c0: 8558 7fbd 41c6 dfbb 62e5 31bd a10b 19bd
000000d0: 2277 24be c23d d1bb 2d55 c9bd 080f acbd
000000e0: 7670 acbd b0ae 43bc 85a1 ea3c 7dc3 d1bc
000000f0: b2a5 633d aae7 3cbe 6855 943b a855 213d
00000100: 43f9 3ebe 37d7 edbd 41c1 b1bd d814 eb3b
00000110: c21e 98bd bdb5 3bbd 4a89 bbbb d9db 43bd
00000120: a0cc ad3c 1833 98bd a9da 2dbd e549 1e3c
00000130: a0b4 eebd 9d4d ffbd 0ea8 4ebd 6844 773d
00000140: dac6 11be 7a70 44be 368d 66bd c980 123d
00000150: be27 49bd 436e a7bd 161e 1ebe 22b1 483d
00000160: 6dff e8bd 7a13 14be 2826 a7bd 3342 0cbd
00000170: 5987 1abe 41fe fbbc 2788 13be b160 c9bc
00000180: 6814 42bd cdf9 18bd 86a3 97bd ee6b 63bd
00000190: eaef f9bd 1477 bcbd 8f5e f0bd c6a2 d9bc
000001a0: faf8 2cbe bcd8 7c3d 0596 b2bd 382d 9dbd
000001b0: c172 46be c7c4 9abd 52aa 04be d9ce 41be
000001c0: 44f9 ddbd 9597 0ebe a90d dabd b0c3 40be
000001d0: ba5d 2b3e d453 f6bd aa9c 39be 0956 bfbd
000001e0: 4e11 bd3d 779e 2bbd 3202 a2bd e156 edbd
000001f0: 1f3e e2bd 647f 4dbd d613 07be cfac 02be
00000200: 78ce 93bd 576b a2bd 072a 1ebe e3c3 1dbd
00000210: 3d8b 0ebe c1fa 70bd 355e 88bd 1846 39bd
00000220: c5b6 9bbd b6f7 6ebe 9704 30be 31a2 d1bd
00000230: 8f1f babd 1420 633d 415e 45be 171d b4bd
00000240: fbe0 e1bd 2ed5 10be 94d3 633d cd25 1abe
00000250: 3589 9cbd c6d4 9f3c f527 d8bd f53d b2bd
00000260: abef 84bd 706d 2cbe d2a7 24bd cd91 98bd
00000270: a79f debd 8922 0abe 4fec 81bd 5a19 9abc
00000280: 869e cebd 7dc5 88bd 7568 373c cdef 43bd
00000290: 1eac f7bd 3a33 5dbd b9db 2dbd 5d6d 6fbd
000002a0: eaed bdbd 8c55 13be 18dd a8bd b8d4 07be
000002b0: 23db 273d 387b 2fbe 264f 27be 57e7 45bd
000002c0: e75b afbc 5fc0 353c b171 b3bd 74fe fdbc
000002d0: 00ad 08be 4fac 36bd cfc5 39be 88bc 31be
000002e0: bd4d 30be a666 6e3c d9c3 7cbd ee8f 453d
000002f0: e137 12be 92a9 a53d a7db a73b a6a0 9abd
00000300: c519 33be 980d 69bd aeea e9bd f6a5 fdbd
00000310: 643e 19be d627 2cbe 2921 55be 1556 fb3b
00000320: 762a a6bd 8727 8ebd b36d 11be 517e c7bd
00000330: 7fe5 8abd 1547 983c 3f54 e33c 4bd6 31be
00000340: d4a6 10be 1dac 27be 184f a5bd d46e c7bd
00000350: 6b5a 59bd 2d56 3ebd 6d38 60bd 7a85 063e
00000360: bdaf 03be d257 57bd 336e 78bc deb1 febd
00000370: 32e8 0bbe 5a1c 88bd af64 d8bd 5137 96bd
00000380: ce47 e0bd 5553 8ebd 46f4 053d 9b6f 73bd
00000390: cb43 8cbd 2fe3 20be 7c12 b1bd 1d8b 1dbe
000003a0: ba85 4cbd 5fab 3bbe b1c7 9d3d 921b aebc
000003b0: ecdb 9fbd 0dd5 2ebe 9735 c5bc e82e 1fbe
000003c0: f5ef e8bc 73fb 1fbd 8045 6fbd b7f4 0cbe
000003d0: 84ed 853d d27f a6bd b5e8 073e 8583 623d
000003e0: 73ff 92bc b307 0bbe 21dd 44be 65e9 d7bd
000003f0: e211 26be 8642 81bd 6610 24be fe83 febd

lins.1.weight f4 [256, 256]
0.2886314 -0.09524199 0.03202329 0.13294095 -0.13990828 0.049460422 0.28202775 0.18347669
0.16917464 0.020946957 0.21925923 -0.2654988 0.20297761 -0.235476 -0.025283096 0.11929442
0.23794246 -0.10599468 -0.08419211 0.22775526 0.33264345 -0.046794966 -0.005774315 0.032415617
-0.17025852 0.016968975 0.20831488 0.2518731 -0.09090798 -0.36941922 0.022851875 -0.17049848
-0.030800201 0.31813392 -0.3446305 0.3950929 -0.31270343 0.22418796 0.0133249 0.06428386
0.21068902 -0.123579115 -0.030516094 -0.05530429 0.21551552 0.24515314 -0.038898807 -0.23471549
0.2236113 0.07909283 0.23731266 0.027060883 -0.3172048 -0.14146006 -0.15060893 -0.08510776
0.07106726 -0.20568001 -0.048360284 -0.005454522 0.14011654 0.14380968 -0.009295636 -0.14625232
0.47163674 0.072601035 -0.071390145 0.0732604 0.017113892 0.08466522 0.01544323 0.079450175
0.010028425 0.035979323 0.34685433 -0.29620114 0.012754062 0.18078186 0.076896064 0.04053681
-0.14656812 -0.36919263 0.27520058 -0.26987362 0.055751316 -0.28291887 -0.60673803 0.12203372
0.15946257 -0.08691324 0.182512 0.21234198 -0.0003245401 -0.21442562 -0.039983157 0.029130194
0.1518176 0.2119062 0.4383253 -0.016859103 -0.13236275 0.3122471 0.013183442 0.16699228
-0.2363309 0.17658874 -0.19184683 -0.07987025 -0.11957368 0.15612614 0.36241272 -0.1905795
-0.075434096 0.006921314 0.21230888 -0.08762718 0.15700558 -0.06379706 0.38106972 -0.041360028
-0.030255558 -0.05595496 0.29525042 -0.43250456 0.15718839 0.09616113 -0.24105626 0.010184495
0.21385922 -0.12321598 -0.17709897 0.061631873 0.2574868 -0.09015257 -0.12951118 0.11996791
-0.25702253 0.2356781 -0.04640626 -0.27356145 -0.2046603 -0.011568519 0.21242648 0.26982656
0.33324003 -0.11045764 -0.074759826 0.13449304 0.26481548 -0.3490428 -0.054899596 0.026357822
0.095172286 -0.3950518 0.16811562 -0.10097437 0.0949005 -0.029567534 0.098493844 0.33400795
0.10653195 -0.11171214 -0.0059489836 0.36886132 0.18265235 -0.5950725 0.22993419 -0.09575355
0.03283889 -0.13456546 -0.041145317 0.13500912 0.15575136 -0.08759716 0.07743941 -0.21697286
-0.0082530035 0.40803483 0.35018867 -0.33187184 -0.220999 -0.009626148 0.25886872 -0.05198272
0.29334822 -0.22708945 -0.1419436 0.26132998 0.14586192 -0.106262326 0.06728653 0.31412202
-0.31174248 -0.009525965 -0.11543496 -0.24890776 -0.11437864 -0.022320397 0.2238246 -0.11483505
-0.18856376 -0.16246831 -0.2311289 -0.32968178 0.38671088 0.21258819 0.054145254 0.0878128
-0.17714617 -0.0029385234 -0.66096437 -0.028644862 -0.027777152 0.12619455 0.18859294 0.042139854
-0.0952323 0.32941145 -0.055587508 -0.012311558 0.1688183 -0.13996272 0.032611165 0.038042225
0.06882348 0.28320348 -0.28981537 -0.038943626 0.2916865 -0.15225814 0.15290262 0.39200816
-0.07668597 0.0823432 0.12154648 0.061896395 0.18075474 0.058530338 0.03618568 0.4344587
0.295739 -0.15690863 -0.12866431 -0.14996703 -0.37269282 0.2504401 -0.10220572 -0.009578666
-0.014342908 0.094981514 0.18369448 -0.22707751 0.1878381 0.27134752 0.03899575 -0.0870178
00000000: 7fc7 933e 3c0e c3bd da2a 033d ac21 083e
00000010: 1e44 0fbe 0397 4a3d f165 903e 50e1 3b3e
00000020: 1e3c 2d3e f498 ab3c 7e85 603e 75ef 87be
00000030: 5dd9 4f3e 9f20 71be 7f1e cfbc a250 f43d
00000040: 30a7 733e bd13 d9bd ea6c acbd ad38 693e
00000050: 3e50 aa3e 14ac 3fbd 7736 bdbb 3dc6 043d
00000060: 4058 2ebe 8502 8b3c 7f50 553e 83f5 803e
00000070: f72d babd 8424 bdbe db33 bb3c 2797 2ebe
00000080: b450 fcbc 73e2 a23e 6973 b0be 9e49 ca3e
00000090: aa1a a0be 8791 653e ae50 5a3c 42a7 833d
000000a0: ddbe 573e 0c17 fdbd e3fc f9bc c086 62bd
000000b0: 1ab0 5c3e 6d09 7b3e 5b54 1fbd 4259 70be
000000c0: 5cfa 643e 6cfb a13d 1702 733e c9ae dd3c
000000d0: ab68 a2be e8da 10be 3a39 1abe fa4c aebd
000000e0: b68b 913d c89d 52be 6f15 46bd d9bb b2bb
000000f0: b67a 0f3e d842 133e b94c 18bc 2bc3 15be
00000100: 5f7a f13e daaf 943d ff34 92bd 8c09 963d
00000110: 6f32 8c3c f564 ad3d 9a05 7d3c c6b6 a23d
00000120: 434e 243c 0e5f 133d e496 b13e ada7 97be
00000130: 6af6 503c e11e 393e af7b 9d3d ed09 263d
00000140: f415 16be d106 bdbe 17e7 8c3e e02c 8abe
00000150: 7e5b 643d beda 90be 2f53 1bbf d1ec f93d
00000160: 284a 233e 92ff b1bd 6de4 3a3e 2d70 593e
00000170: 0927 aab9 6492 5bbe 61c5 23bd 72a2 ee3c
00000180: 1376 1b3e f0fd 583e 2c6c e03e 1a1c 8abc
00000190: 1a8a 07be dade 9f3e 5dff 573c 0600 2b3e
000001a0: ba00 72be aed3 343e 7f73 44be 0393 a3bd
000001b0: 0ce3 f4bd 88df 1f3e 298e b93e 4627 43be
000001c0: 317d 9abd 31cc e23b 8067 593e e175 b3bd
000001d0: 12c6 203e 08a8 82bd 921b c33e 2269 29bd
000001e0: 81da f7bc 0731 65bd 102b 973e 3d71 ddbe
000001f0: fef5 203e 20f0 c43d 74d7 76be dedc 263c
00000200: e9fd 5a3e a958 fcbd 6f59 35be b471 7c3d
00000210: 4fd5 833e e9a1 b8bd 949e 04be bcb1 f53d
00000220: 7598 83be 9a55 713e 7e14 3ebd 3f10 8cbe
00000230: 7892 51be e389 3dbc 5486 593e b526 8a3e
00000240: 709e aa3e 9d37 e2bd ae1b 99bd 8bb8 093e
00000250: e595 873e bdb5 b2be 66de 60bd 5cec d73c
00000260: b0e9 c23d 3b44 cabe 8026 2c3e a7cb cebd
00000270: 315b c23d 9d37 f2bc 24b7 c93d 1703 ab3e
00000280: 6c2d da3d 56c9 e4bd b1ef c2bb 64db bc3e
00000290: 3809 3b3e ac56 18bf de73 6b3e 701a c4bd
000002a0: 1282 063d 87cb 09be fe87 28bd d53f 0a3e
000002b0: 497d 1f3e 2466 b3bd 8e98 9e3d 222e 5ebe
000002c0: 9b37 07bc f1e9 d03e ee4b b33e 1beb a9be
000002d0: 904d 62be feb6 1dbc 718a 843e d5eb 54bd
000002e0: bd31 963e 238a 68be aa59 11be 0bcd 853e
000002f0: d45c 153e 10a0 d9bd 85cd 893d 9ad4 a03e
00000300: b69c 9fbe cb12 1cbc 2a69 ecbd ade1 7ebe
00000310: 593f eabd 44d9 b6bc 4732 653e a42e ebbd
00000320: dc16 41be 185e 26be 0ead 6cbe 0dcc a8be
00000330: f8fe c53e b8b0 593e 6ac7 5d3d 33d7 b33d
00000340: ce65 35be 3e94 40bb f634 29bf a1a8 eabc
00000350: e98c e3bc 2539 013e 821e 413e d79a 2c3d
00000360: 2709 c3bd 9ea8 a83e baaf 63bd 6bb6 49bc
00000370: b4de 2c3e 6352 0fbe 4993 053d 2ad2 1b3d
00000380: 53f3 8c3d 0c00 913e ae62 94be 5a83 1fbd
00000390: ef57 953e 8fe9 1bbe 8192 1c3e 4bb5 c83e
000003a0: 890d 9dbd 8da3 a83d 5ced f83d 1387 7d3d
000003b0: c517 393e 82bd 6f3d 7037 143d 5f71 de3e
000003c0: 1a6b 973e a8ac 20be 94c0 03be f590 19be
000003d0: 98d1 bebe af39 803e 3c51 d1bd d6ef 1cbc
000003e0: 84fe 6abc ab85 c23d 681a 3c3e 0287 68be
000003f0: a258 403e 10ee 8a3e 02ba 1f3d 6336 b2bd

lins.1.bias f4 [256]
-0.17118269 0.13176383 0.06712151 -0.17216086 -0.18358243 0.004743304 -0.038368795 -0.01528597
-0.10234151 0.058628898 0.13938276 0.012163364 0.030201476 0.03291277 -0.048348125 0.107776254
-0.07781833 -0.0035243228 0.19430926 -0.06471186 0.11640974 -0.06338647 0.051584218 -0.022057109
-0.08372082 -0.11236082 0.12443478 -0.057757102 -0.036855664 0.052034624 -0.119931124 0.026086243
0.0766266 -0.19899221 0.24581069 -0.028686909 0.088702515 0.06790086 -0.14256352 -0.001861164
0.0988602 0.07597135 -0.1228123 -0.000380372 0.12694183 0.09805443 0.04367877 -0.08762094
-0.042875674 -0.08667666 -0.2695764 -0.12559478 0.049634185 -0.12687257 0.2546663 0.16613221
-0.07977287 -0.027870534 0.11319718 0.1428449 0.019534327 0.041937053 -0.14857759 0.0025323129
0.120611176 0.0817703 0.17746656 -0.123541705 -0.07157668 0.070905656 0.13949063 0.16429923
0.058675855 -0.028378481 -0.017873935 0.045291133 0.103864394 -0.10491825 0.10572028 0.10252287
-0.012215407 0.08523392 -0.120625116 0.031258274 0.02904862 -0.115571074 0.07592671 0.019388098
-0.089279324 -0.17098607 -0.020160181 0.028108845 -0.05688091 -0.08021275 -0.10777748 0.029704802
-0.14551906 0.0054703513 0.08327899 -0.07202092 0.17917034 0.09577456 -0.00034334057 -0.0018015233
0.10545375 0.13322341 0.1420489 0.007052598 0.15076658 0.04542986 -0.11869017 0.05986987
-0.0694758 -0.13420306 -0.110498615 -0.13693213 0.2004691 -0.033138182 0.099864796 0.05811871
-0.13478777 0.1458433 -0.004814664 0.11401095 0.09837737 -0.17181204 -0.013329666 0.11496981
0.30982122 -0.090206005 0.017393284 -0.20903166 0.14470907 0.03489138 -0.07173718 0.105406746
-0.044873286 -0.12942795 0.018354723 0.087213606 -0.058009252 -0.03581646 0.090870485 0.12035479
0.08151399 0.058231235 -0.121645704 0.1666994 0.018361 0.120227106 0.13682544 0.09665983
0.18511176 0.022223331 -0.15782638 0.014894863 -0.06484085 -0.024485191 0.0048907893 0.06711505
-0.015649846 -0.10919843 -0.15214518 0.102401845 0.28585058 -0.0067733596 0.17373484 -0.13060516
0.18885136 0.023217821 0.0692463 -0.00037395238 -0.03160865 0.074282706 0.1657392 -0.019155798
-0.14714698 0.12187511 -0.06683355 -0.10389619 -0.15630607 -0.1046112 -0.072357416 -0.26013628
-0.15284364 0.013117532 -0.1941914 -0.025444405 0.16004753 -0.011545364 -0.012414038 -0.19991502
-0.2635401 0.06932697 -0.030011078 -0.13318074 -0.040734403 0.03580544 0.12218603 0.012508788
0.09816294 0.114640124 0.089894846 0.07505734 -0.04144963 0.02853631 0.034966085 -0.061065488
-0.1328565 -0.13673094 -0.29128605 -0.002471738 0.073082194 -0.09844805 -0.017497402 -0.12255913
-0.14109418 0.09763539 -0.018216386 0.11587488 -0.17421122 -0.0005866707 -0.037735812 0.08279519
-0.123978995 0.00880649 0.09968749 0.19182095 0.09772613 -0.07125909 -0.1231195 -0.21092334
-0.026409807 -0.09140498 0.1866296 -0.03560404 0.049071226 0.1450689 -0.21990748 -0.2051184
0.116930336 0.102567814 -0.017346453 0.088669986 -0.04966076 0.13126197 0.14909923 0.07490276
0.023304068 0.10643893 -0.05745645 -0.25184503 -0.024638932 0.18177415 0.1110823 0.08606684
00000000: 844a 2fbe 19ed 063e 0177 893d f04a 30be
00000010: 08fd 3bbe b86d 9b3b 9928 1dbd 0172 7abc
00000020: 6d98 d1bd db24 703d 5bba 0e3e d948 473c
00000030: 1669 f73c 8acf 063d af08 46bd ccb9 dc3d
00000040: 375f 9fbd 53f8 66bb 02f9 463e a787 84bd
00000050: 3b68 ee3d c4d0 81bd f949 533d 1cb1 b4bc
00000060: d275 abbd 6e1d e6bd a9d7 fe3d b692 6cbd
00000070: f7f5 16bd 4222 553d 739e f5bd d1b2 d53c
00000080: 68ee 9c3d 9dc4 4bbe ccb5 7b3e cf00 ebbc
00000090: aaa9 b53d 9b0f 8b3d 2cfc 11be 4df2 f3ba
000000a0: 3777 ca3d de96 9b3d 0485 fbbd aa6c c7b9
000000b0: 0afd 013e c3d0 c83d 83e8 323d 9b72 b3bd
000000c0: 679e 2fbd 8883 b1bd eb05 8abe eb9b 00be
000000d0: 374d 4b3d e2ea 01be 9f63 823e 901e 2a3e
000000e0: f55f a3bd bf50 e4bc ecd3 e73d ef45 123e
000000f0: 7406 a03c 30c6 2b3d b924 18be 29f5 253b
00000100: fe02 f73d 3077 a73d cbb9 353e 6f03 fdbd
00000110: cb96 92bd fc36 913d a2d6 0e3e 0f3e 283e
00000120: 1856 703d fd79 e8bc 5c6c 92bc 3283 393d
00000130: dbb6 d43d 61df d6bd e083 d83d 83f7 d13d
00000140: 2123 48bc 1f8f ae3d 4d0a f7bd ad08 003d
00000150: 5ff7 ed3c 87b0 ecbd 777f 9b3d cad3 9e3c
00000160: 14d8 b6bd f916 2fbe f726 a5bc 8544 e63c
00000170: f5fb 68bd 9546 a4bd 70ba dcbd 7c57 f33c
00000180: f302 15be a240 b33b 2d8e aa3d b47f 93bd
00000190: 6e78 373e 7425 c43d 6402 b4b9 1721 ecba
000001a0: 23f8 d73d b86b 083e 4475 113e 7b19 e73b
000001b0: 8e62 1a3e a914 3a3d d513 f3bd 1c3a 753d
000001c0: 5449 8ebd 876c 09be 194d e2bd f037 0cbe
000001d0: c647 4d3e e7bb 07bd ea85 cc3d e20d 6e3d
000001e0: ce05 0abe f257 153e 54c4 9dbb 937e e93d
000001f0: 137a c93d 7fef 2fbe ac64 5abc 4b75 eb3d
00000200: e3a0 9e3e edbd b8bd 5c7c 8e3c 650c 56be
00000210: 9d2e 143e 44ea 0e3d f1ea 92bd 7edf d73d
00000220: 0dcd 37bd c388 04be a55c 963c 0c9d b23d
00000230: 1c9b 6dbd 48b4 12bd 4e1a ba3d 927c f63d
00000240: cff0 a63d e083 6e3d 6221 f9bd 3fb3 2a3e
00000250: cf69 963c a139 f63d f81b 0c3e 97f5 c53d
00000260: f08d 3d3e b40d b63c 3d9d 21be 9509 743c
00000270: 48cb 84bd 2b95 c8bc ea42 a03b 9e73 893d
00000280: 1b34 80bc 6da3 dfbd f2cb 1bbe 0fb8 d13d
00000290: 025b 923e 0ff3 ddbb 8ce7 313e 5cbd 05be
000002a0: 4062 413e 4d33 be3c 01d1 8d3d 0a0f c4b9
000002b0: 1278 01bd 8821 983d 89b7 293e 9fec 9cbc
000002c0: b3ad 16be a899 f93d 07e0 88bd 87c7 d4bd
000002d0: b30e 20be 663e d6bd 2030 94bd 9530 85be
000002e0: 0b83 1cbe ebea 563c 1cda 46be c970 d0bc
000002f0: 80e3 233e c428 3dbc 4064 4bbc 86b6 4cbe
00000300: baee 86be 4cfb 8d3d cbd9 f5bc 8860 08be
00000310: 1ed9 26bd baa8 123d ab3c fa3d a9f1 4c3c
00000320: a709 c93d 71c8 ea3d ca1a b83d aab7 993d
00000330: 16c7 29bd fbc4 e93c 9938 0f3d ce1f 7abd
00000340: 890b 08be 3203 0cbe 7223 95be e2fc 21bb
00000350: 1eac 953d 229f c9bd b656 8fbc 4800 fbbd
00000360: fe7a 10be 10f5 c73d 883a 95bc cf4f ed3d
00000370: 6d64 32be ceca 19ba de90 1abd 8690 a93d
00000380: b3e8 fdbd 1949 103c f428 cc3d b66c 443e
00000390: a324 c83d 49f0 91bd 1426 fcbd 4afc 57be
000003a0: 6159 d8bc 8932 bbbd d41b 3f3e 8bd5 11bd
000003b0: e9fe 483d f18c 143e 6d2f 61be 8f0a 52be
000003c0: 2c79 ef3d 130f d23d 261a 8ebc 9c98 b53d
000003d0: 1569 4bbd 8a69 063e 78ad 183e 9e66 993d
000003e0: 2ce8 be3c a7fc d93d 7457 6bbd d5f1 80be
000003f0: 96d7 c9bc 0123 3a3e 1e7f e33d d043 b03d
