CF/PubMed_CF/MLP_predictor.pt (torch, 266408 bytes, 3 tensors)

lins.0.weight f4 [256, 256]
-0.001586159 0.026265718 -0.003558719 -0.09275052 -0.059745006 -0.019837834 0.018371373 -0.0666563
-0.016412564 0.0075505194 0.057723455 -0.034327704 0.12048373 -0.05866396 0.035453644 0.0023620168
0.036317155 -0.024727333 -0.0011150034 0.0626036 -0.0041502584 -0.08579098 -0.021060562 -0.06656246
-0.049405035 -0.09353088 -0.112028174 0.004501677 -0.03290831 0.0853383 -0.03060295 -0.20347232
-0.01844498 -0.07352291 0.046542026 -0.031165859 -0.05013293 -0.10979791 0.017770164 0.02251778
-0.035480868 -0.0963639 -0.11528728 -0.037480164 -0.059058473 0.009442361 -0.00026305416 -0.014615453
-0.015628912 -0.020899352 0.0057690046 -0.024149533 -0.04650172 -0.12040203 -0.12841725 0.008841912
-0.06769692 -0.07909501 -0.071174994 0.066174686 -0.08968193 -0.016452385 0.05067193 0.05317083
0.018563237 -0.030127434 -0.0003229202 -0.065636486 -0.03764264 -0.058406785 -0.105192274 0.0044594347
-0.06257016 -0.028374344 0.011219634 -0.033734825 -0.03832545 0.005120171 0.10454898 -0.042885847
0.030097293 -0.03993541 0.004531773 0.03925333 0.022005808 -0.038498674 -0.08402728 -0.0194994
-0.05522575 0.0059936927 -0.050306596 -0.13806039 -0.10017414 0.086550824 -0.015955001 -0.008007193
0.013533449 -0.010618125 0.05428484 -0.01898682 -0.039541528 0.007835253 -0.10384622 -0.0063444166
-0.07713518 -0.0013663368 -0.0026756157 -0.05876771 -0.008552033 -0.12281753 -0.040053878 0.051312555
-0.09664082 0.032189198 -0.0453559 -0.10374177 -0.031858373 -0.030923469 0.033194877 -0.06369618
-0.087379016 -0.07829514 0.059012227 -0.0232808 -0.043721717 -0.12960899 -0.01530837 -0.06448646
-0.0046720775 0.038829267 -0.010262843 -0.06093081 0.018382045 0.039615892 -0.034023475 -0.04003969
0.006335589 -0.043005716 0.054806933 -0.0007508438 -0.03196623 0.013192872 0.0043999543 -0.08040138
-0.072931126 -0.05197049 -0.04296109 -0.011037394 0.010202494 -0.13080266 0.09791294 -0.11201706
-0.034927446 -0.021733608 -0.04962692 -0.07971792 -0.025776811 -0.04360252 -0.02318892 -0.028563617
0.004896896 -0.025324443 -0.0009991607 -0.03932196 0.006288486 0.009756451 -0.03893063 0.014017795
-0.09373617 -0.08141236 -0.12149435 -0.07555428 -0.02454751 -0.022306792 0.031028891 0.076857254
-0.10382623 0.06934808 0.02673015 -0.02812049 -0.015204288 0.0054004625 -0.061739013 -0.060664468
-0.039085623 -0.08276527 -0.009038505 -0.07554622 0.052405953 -0.10983657 0.035406537 -0.073678024
-0.103207074 -0.04288204 -0.09352075 -0.01245206 -0.15351516 -0.070514284 -0.09058183 0.033719234
-0.079565555 -0.110342965 -0.017641583 -0.09462573 0.0036972025 -0.032935996 -0.029692402 0.010643923
-0.03858845 -0.06233645 0.026717765 -0.07046442 -0.036497742 0.04438744 -0.0011421962 -0.084865846
0.013544608 -0.027741034 0.023824036 -0.0793119 0.006508357 -0.09578931 -0.0052675144 -0.07465452
-0.019481376 -0.010313173 0.01347726 -0.08020096 -0.105939634 0.030813402 -0.05014525 -0.029223008
0.059202164 0.0008678024 -0.07440264 -0.01800826 0.08649741 -0.12752815 -0.053562593 0.018565217
-0.13183722 -0.03938053 0.005960407 0.062685385 -0.032122232 0.030141586 -0.12921804 -0.09597681
-0.050255086 -0.04649456 0.025321487 0.04609529 -0.12201441 0.01757473 -0.105485864 -0.01777678
00000000: aae6 cfba 342b d73c 6639 69bb fcf3 bdbd
00000010: 2eb7 74bd f482 a2bc 907f 963c 1983 88bd
00000020: a473 86bc 596a f73b 6e6f 6c3d 359b 0cbd
00000030: 2dc0 f63d 9f49 70bd d737 113d 11cc 1a3b
00000040: 4cc1 143d fa90 cabc 4e25 92ba 5136 803d
00000050: e4fe 87bb 2eb3 afbd 3387 acbc e651 88bd
00000060: ef5c 4abd 1e8d bfbd 076f e5bd ce82 933b
00000070: ddca 06bd d9c5 ae3d 0ab3 fabc 0c5b 50be
00000080: ed19 97bc 2e93 96bd daa2 3e3d 8b4f ffbc
00000090: 3058 4dbd badd e0bd bc92 913c 3577 b83c
000000a0: 6354 11bd 705a c5bd bd1b ecbd cd84 19bd
000000b0: 4ce7 71bd 22b4 1a3c 88ea 89b9 a775 6fbc
000000c0: 3408 80bc 1e35 abbc eb09 bd3b 3ed5 c5bc
000000d0: 9678 3ebd 5795 f6bd d07f 03be abdd 103c
000000e0: afa4 8abd 91fc a1bd 32c4 91bd 9886 873d
000000f0: 29ab b7bd 27c7 86bc 5f8d 4f3d a8c9 593d
00000100: ee11 983c cfcd f6bc 9e4d a9b9 6c6c 86bd
00000110: 2b2f 1abd f43b 6fbd 0c6f d7bd 7320 923b
00000120: c924 80bd 5071 e8bc 8ed2 373c 872d 0abd
00000130: 26fb 1cbd 1bc7 a73b c71d d63d 12a9 2fbd
00000140: 998e f63c 5093 23bd 447f 943b 1ac8 203d
00000150: 8645 b43c c9b0 1dbd 7f16 acbd 35bd 9fbc
00000160: 6534 62bd bd66 c43b 4a0e 4ebd b45f 0dbe
00000170: 1928 cdbd 8f41 b13d 10b4 82bc 9a30 03bc
00000180: 66bb 5d3c a5f7 2dbc c859 5e3d 3f8a 9bbc
00000190: 4cf6 21bd 6f5f 003c 54ad d4bd d3e4 cfbb
000001a0: 0df9 9dbd a816 b3ba 6259 2fbb 69b6 70bd
000001b0: d41d 0cbc c287 fbbd 890f 24bd 1d2d 523d
000001c0: 9feb c5bd d2d8 033d 1cc7 39bd 9176 d4bd
000001d0: ed7d 02bd 3753 fdbc 5af7 073d 2573 82bd
000001e0: c5f3 b2bd 3459 a0bd ceb6 713d 60b7 bebc
000001f0: 8b15 33bd 38b8 04be f5cf 7abc 7a11 84bd
00000200: 3a18 99bb 700b 1f3d 7c25 28bc 9692 79bd
00000210: f195 963c 4644 223d 335c 0bbd a800 24bd
00000220: c69a cf3b c326 30bd 3c7d 603d 46d4 44ba
00000230: 06ef 02bd ea26 583c 7e2d 903b 7ba9 a4bd
00000240: ea5c 95bd 02df 54bd f8f7 2fbd 30d6 34bc
00000250: 5d28 273c 22f1 05be 9486 c83d 3369 e5bd
00000260: 1510 0fbd ae0a b2bc 9945 4bbd 2643 a3bd
00000270: e429 d3bc 8e98 32bd b1f6 bdbc 3ffe e9bc
00000280: 2476 a03b 3575 cfbc 45f6 82ba 1010 21bd
00000290: a50f ce3b 85d9 1f3c b975 1fbd e5aa 653c
000002a0: c0f8 bfbd 86bb a6bd 08d2 f8bd 34bc 9abd
000002b0: dc17 c9bc bcbc b6bc 4d30 fe3c 5667 9d3d
000002c0: d9a2 d4bd 5e06 8e3d 30f9 da3c f15c e6bc
000002d0: 681b 79bc 5df6 b03b 0ce2 7cbd 4e7b 78bd
000002e0: 3f18 20bd d680 a9bd 3d16 14bc fab7 9abd
000002f0: a0a7 563d fff1 e0bd 7206 113d 81e4 96bd
00000300: 3b5e d3bd 14a5 2fbd cf87 bfbd ba03 4cbc
00000310: 1433 1dbe cb69 90bd f782 b9bd 2e1d 0a3d
00000320: 44f3 a2bd 7efb e1bd 1585 90bc 22cb c1bd
00000330: c44c 723b e5e7 06bd 7b3d f3bc d963 2e3c
00000340: ec0e 1ebd 8154 7fbd 37df da3c a64f 90bd
00000350: a87e 15bd 9bcf 353d bfb5 95ba 25ce adbd
00000360: 34ea 5d3c 2a41 e3bc a02a c33c 476e a2bd
00000370: 0e44 d53b 302d c4bd 1d9b acbb 78e4 98bd
00000380: 6897 9fbc 95f8 28bc bacf 5c3c 6740 a4bd
00000390: e1f6 d8bd 636c fc3c 1b65 4dbd 1765 efbc
000003a0: f87d 723d 3c7d 633a 6960 98bd 0f86 93bc
000003b0: 8e25 b13d bd96 02be 7364 5bbd 1516 983c
000003c0: 5600 07be 7b4d 21bd 854f c33b 3261 803d
000003d0: 9a92 03bd 7deb f63c bc51 04be 7d8f c4bd
000003e0: 47d8 4dbd 1471 3ebd 026f cf3c 6ace 3c3d
000003f0: b1e2 f9bd e1f8 8f3c f908 d8bd 9ca0 91bc

lins.0.bias f4 [256]
-0.09215275 -0.0070095686 -0.065478966 -0.29432157 -0.052380834 -0.037643086 0.21918634 -0.19413562
0.48305893 0.5721186 0.4250944 0.02391457 -0.08954058 0.22115076 -0.08707511 0.575745
0.59317243 -0.0462287 -0.023188734 0.6401098 0.6522044 -0.053355344 -0.06145517 0.13228676
0.6340006 -0.18232615 0.60705686 -0.0504708 -0.20223528 0.5869741 -0.056501232 0.5988098
-0.058515765 -0.09944577 0.11812604 -0.05416189 -0.30768508 -0.017703662 -0.061024167 -0.020653272
-0.26467985 0.19879542 0.10786893 -0.10640722 0.29184067 -0.064960934 0.5981083 -0.23533285
-0.061072074 -0.07705435 -0.105001844 0.036961574 -0.11985167 -0.05991995 -0.04518162 0.0266199
0.38948408 0.60099745 0.012086784 -0.09550566 -0.17878541 0.0022641912 0.031811148 -0.19334854
0.61666095 -0.022989113 0.5786565 0.016367588 -0.13625582 -0.11985666 -0.024585871 0.19515368
-0.07043432 -0.18445465 -0.039277773 0.18652171 0.46181798 -0.20882127 0.49667227 -0.16526118
0.079080515 -0.0631026 0.4081366 0.62834316 -0.23307899 -0.054655153 0.5802922 -0.234682
-0.071115054 -0.05109332 -0.030920738 0.5992269 -0.068946965 0.6351015 -0.085221805 0.011107582
0.025134493 -0.0127920285 0.6120173 -0.16313513 0.41524875 0.6486732 -0.01729195 -0.21833779
0.6427308 0.14012432 0.46689332 -0.069205284 0.015168844 0.32686612 -0.09701757 0.5737712
0.6292408 0.029358873 0.50261396 -0.26490453 0.46239594 0.6367812 0.490397 0.08787479
-0.03895608 -0.018239878 0.05992162 -0.03733119 -0.07409489 -0.076451354 -0.10012703 0.63628256
-0.15410082 -0.06877475 0.09035489 -0.06804508 0.38099873 -0.10323405 0.012442665 -0.061107464
0.49783123 0.66402435 -0.10874742 0.4263465 -0.10128653 -0.06611152 0.49203718 0.42602095
-0.17421405 0.6220846 -0.086732954 0.45155153 0.0330435 -0.090484336 0.65035874 0.58281446
-0.06362809 0.5648739 -0.04292994 -0.20888443 0.45140207 0.08952386 -0.07487746 0.24564277
-0.007940464 -0.08846018 -0.0173439 0.5842473 0.5389558 -0.10722271 0.011872382 -0.06180665
0.032101177 0.44385555 0.58497864 0.58898956 0.6473251 0.664936 -0.077952586 0.45476368
0.014500151 0.59299475 -0.20529115 0.08079377 -0.03502206 -0.047242954 0.06790945 0.010570554
-0.1572508 0.634779 0.6626801 -0.105222546 -0.24360439 -0.17120749 0.6346449 -0.025909243
-0.20030497 -0.01125341 -0.052973676 0.60049963 -0.06784673 -0.0767225 0.039740242 -0.043794703
0.62090045 0.025482759 -0.078058116 -0.2164562 0.5553273 -0.022233834 -0.14426252 -0.12010854
0.09923321 0.102270044 -0.005572524 -0.0546415 -0.048586495 -0.10222629 0.30291784 0.6480108
-0.14160427 -0.06330551 -0.063807495 0.5841296 0.020880932 -0.09555095 0.33297092 -0.10068814
0.308603 -0.10780617 0.59847826 -0.09101401 0.32654077 -0.10977339 0.5709907 -0.057809748
0.61791354 -0.073657915 0.57540005 0.10717178 0.16814727 0.15354906 0.4218353 0.19911873
-0.0031274364 0.088488355 0.43833646 0.522815 0.13943638 -0.042736523 -0.15721631 -0.05984487
0.09730427 0.19673932 -0.11532976 -0.20469153 0.5819902 -0.017782472 -0.19157726 -0.046847355
00000000: 95ba bcbd 86b0 e5bb d619 86bd 51b1 96be
00000010: 498d 56bd a32f 1abd 6272 603e 7dcb 46be
00000020: 8053 f73e 5d76 123f f9a5 d93e 7de8 c33c
00000030: 0d61 b7bd 5875 623e 6f54 b2bd 0664 133f
00000040: 26da 173f 4e5a 3dbd 4df6 bdbc 3cde 233f
00000050: def6 263f 228b 5abd 6bb8 7bbd 2e76 073e
00000060: dd4d 223f b5b3 3abe 1468 1b3f 78ba 4ebd
00000070: c416 4fbe ef43 163f d66d 67bd 994b 193f
00000080: 3aae 6fbd 39aa cbbd 11ec f13d dcd8 5dbd
00000090: e688 9dbe 4507 91bc 7af4 79bd 0d31 a9bc
000000a0: 1e84 87be 0791 4b3e 63ea dc3d 07ec d9bd
000000b0: 246c 953e 3d0a 85bd a01d 193f 18fb 70be
000000c0: b626 7abd acce 9dbd 350b d7bd 0565 173d
000000d0: cb74 f5bd 9f6e 75bd 5d10 39bd fa11 da3c
000000e0: 756a c73e f8da 193f a507 463c 7998 c3bd
000000f0: 8613 37be d362 143b 684c 023d 29fd 45be
00000100: 7edd 1d3f aa53 bcbc d522 143f 5215 863c
00000110: a586 0bbe 6977 f5bd 4f68 c9bc 5ed6 473e
00000120: de3f 90bd aee1 3cbe bbe1 20bd 8cff 3e3e
00000130: 6873 ec3e 3ed5 55be d44b fe3e 3a3a 29be
00000140: f7f4 a13d f03b 81bd 48f7 d03e 19db 203f
00000150: 42ac 6ebe 15de 5fbd 088e 143f 7a50 70be
00000160: c5a4 91bd 3b47 51bd 7d4d fdbc ef66 193f
00000170: 1134 8dbd 0396 223f c588 aebd 93fc 353c
00000180: dae6 cd3c a895 51bc 2aad 1c3f e50c 27be
00000190: 7c9b d43e 720f 263f d9a7 8dbc f193 5fbe
000001a0: 018a 243f c07c 0f3e a40c ef3e 80bb 8dbd
000001b0: be86 783c ff5a a73e 26b1 c6bd abe2 123f
000001c0: ed15 213f 0582 f03c 4fab 003f 91a1 87be
000001d0: 29bf ec3e 1804 233f 5115 fb3e b3f7 b33d
000001e0: 6990 1fbd cc6b 95bc 5f70 753d 97e8 18bd
000001f0: 10bf 97bd 8792 9cbd 660f cdbd 6ae3 223f
00000200: 9bcc 1dbe c7d9 8cbd fc0b b93d 385b 8bbd
00000210: 4412 c33e 606c d3bd 52dc 4b3c d24b 7abd
00000220: bce3 fe3e 80fd 293f f8b6 debd 174a da3e
00000230: 506f cfbd 7a65 87bd 4cec fb3e 6b1f da3e
00000240: 2b65 32be f040 1f3f 0ca1 b1bd c331 e73e
00000250: 9f58 073d da4f b9bd e97d 263f 5433 153f
00000260: 724f 82bd 939b 103f 4ed7 2fbd cde5 55be
00000270: 2c1e e73e 4958 b73d 5b59 99bd c789 7b3e
00000280: b818 02bc 9c2a b5bd cb14 8ebc 3b91 153f
00000290: 02f9 093f 9597 dbbd 6184 423c f828 7dbd
000002a0: 867c 033d 0941 e33e 29c1 153f 05c8 163f
000002b0: 19b7 253f 3f39 2a3f 9ba5 9fbd c9d6 e83e
000002c0: 0b92 6d3c 81ce 173f d837 52be 3477 a53d
000002d0: 4b73 0fbd d481 41bd 1c14 8b3d 1e30 2d3c
000002e0: 5b06 21be e080 223f 67a5 293f eb7e d7bd
000002f0: 6e73 79be 0451 2fbe 1778 223f 9f3f d4bc
00000300: bf1c 4dbe 3960 38bc edfa 58bd 58ba 193f
00000310: 3af3 8abd b020 9dbd aac6 223d 1362 33bd
00000320: 55f3 1e3f 38c1 d03c efdc 9fbd b2a6 5dbe
00000330: ee29 0e3f bb23 b6bc 8eb9 13be 77fb f5bd
00000340: c83a cb3d f572 d13d b899 b6bb c4cf 5fbd
00000350: a202 47bd 045c d1bd 0c18 9b3e 09e4 253f
00000360: b600 11be 52a6 81bd 81ad 82bd 8489 153f
00000370: 7d0e ab3c 37b0 c3bd 2a7b aa3e 9535 cebd
00000380: 3601 9e3e 7bc9 dcbd df35 193f 8e65 babd
00000390: 5a30 a73e dfd0 e0bd 722c 123f eac9 6cbd
000003a0: 952f 1e3f f6d9 96bd 6b4d 133f e17c db3d
000003b0: cc2e 2c3e f73b 1d3e ccfa d73e c8e5 4b3e
000003c0: adf5 4cbb 6239 b53d a36d e03e 34d7 053f
000003d0: 69c8 0e3e 7e0c 2fbd 50fd 20be e51f 75bd
000003e0: 7647 c73d 0876 493e 0232 ecbd a89a 51be
000003f0: 4ffd 143f 8cac 91bc d42c 44be 03e3 3fbd

lins.1.weight f4 [1, 256]
0.024403764 -1.368682 -0.03346917 -0.394981 -0.0023241434 -0.010517019 -2.125656 1.5515679
0.011366467 0.07849449 0.008272721 -0.0059631127 1.6863165 0.0931181 -0.6059375 0.10469562
0.105868414 -0.038386036 0.23794803 0.18335716 0.35515928 -0.031192552 -0.0020354304 -1.4699883
0.11144426 -0.59364647 0.10233371 -0.056730237 -0.63500375 0.04718007 0.029995127 0.11903149
-0.00270344 -0.698335 -1.3015151 -0.013337527 -0.58995783 -0.6767318 -0.89058226 -0.5660354
-0.2983464 -0.34135365 0.41968438 -0.3957987 -0.011360944 0.016476253 0.058438253 -0.6618911
-0.007282887 -1.4141624 0.009494409 -0.06137515 -0.7664893 0.051834006 0.050945055 -1.3334708
0.091444924 0.109502636 -0.020221833 -0.016812205 -0.65858644 -0.556319 -0.85911137 1.6318873
0.106727585 -0.04575543 0.1962121 -0.038209807 1.6150882 -0.66713506 0.03279947 -2.046526
0.012353901 -0.68626165 0.021748183 -2.3453138 0.14485666 -0.85314435 0.06909083 -0.6037064
-1.3379406 -0.006552716 -0.013347041 0.12337554 -0.6623689 -0.007885401 0.13708735 -0.88348407
-0.02318776 -0.5813248 0.2930379 0.06897863 1.6286958 0.12801819 -0.6006855 -0.9746251
-0.045632035 0.0054209125 0.20590638 -0.83774716 0.055440903 0.19824626 0.054228347 -0.96531737
0.1652599 -1.6431714 0.03585945 0.009081889 -1.8727827 0.19822253 -1.2350664 0.107053906
0.1436288 -0.055665158 0.021373056 -0.26081693 0.123659916 0.12663198 0.009547757 -1.5410228
-1.3058633 -0.6622387 -0.94198567 -0.8799368 -0.01597618 0.025769386 -0.8853076 0.11135878
-0.985554 -0.010602812 -1.5833555 -0.048668347 0.01756792 -0.6788316 -1.2671055 -0.68286806
0.017634938 0.12867448 -0.97808385 0.0008807221 0.03194813 -0.034617126 0.026997289 0.052404165
1.555185 0.098821074 0.015222008 -0.009824271 -0.75207376 -0.9425287 0.09727816 0.30879375
-0.012300556 0.090274066 0.0071652867 -0.92757547 -0.011557865 0.41393718 0.04297327 -0.025778452
-0.030395895 0.014594604 -0.041432552 0.08090915 0.10942659 -0.6702923 -0.04266662 -0.00616038
-0.026407689 0.006655187 0.04571002 0.10002865 0.22433129 0.26228663 0.011945616 0.03181906
-0.04140973 0.05529375 -0.77545595 -1.7028717 -0.025278224 -0.011013805 -0.92928165 -0.023694735
-0.5958164 0.11722406 0.24119554 -0.007704927 -0.12300371 -0.54735994 0.11551091 -0.0491071
-0.35175338 0.265833 -0.014841568 0.088547386 -0.027003272 0.28089094 -0.08408115 -0.049463563
0.135901 -0.015055166 -1.0744424 -0.6547332 0.10804107 -1.2466438 -0.95439327 -0.6245886
-1.6402066 -1.4541073 -0.01315507 -0.5840938 -0.04330697 -0.022763865 0.8551348 0.097795695
-0.7475137 0.06876931 -0.022975834 0.07097041 -0.040533654 -0.9440235 0.005997996 -0.9384113
-0.035828006 -0.013108927 0.06852582 0.01098998 -0.012092872 -0.67434776 0.02321568 -0.02736014
0.1198519 0.050919946 0.073789336 -1.1604288 -0.9189415 -1.5228678 0.007906387 -0.25495523
-1.3305702 -0.8625461 -0.0025750415 0.048669267 -1.3889167 -0.004210446 -0.7670336 -0.39852446
-1.3934815 -1.5198689 -0.74241334 -0.46829474 0.059321932 -0.75352824 -0.6349312 -0.023332039
00000000: 67ea c73c f930 afbf f816 09bd f33a cabe
00000010: a850 18bb 934f 2cbc bf0a 08c0 c799 c63f
00000020: 6b3a 3a3c b8c1 a03d 4f8a 073c 3766 c3bb
00000030: 38d9 d73f b4b4 be3d b81e 1bbf a86a d63d
00000040: 8ad1 d83d ad3a 1dbd a6a8 733e fbc1 3b3e
00000050: 70d7 b53e 8687 ffbc db64 05bb 9428 bcbf
00000060: e33c e43d 37f9 17bf 5694 d13d f75d 68bd
00000070: 9b8f 22bf e43f 413d 57b8 f53c c8c6 f33d
00000080: 322c 31bb 15c6 32bf 0c98 a6bf a585 5abc
00000090: 7a07 17bf 4c3e 2dbf 33fd 63bf b2e7 10bf
000000a0: dcc0 98be e8c5 aebe dfe0 d63e 21a6 cabe
000000b0: 4123 3abc 35f9 863c f35c 6f3d b271 29bf
000000c0: 49a5 eebb 4603 b5bf 708e 1b3c 8264 7bbd
000000d0: a538 44bf e54f 543d c3ab 503d 2caf aabf
000000e0: 7a47 bb3d eb42 e03d 42a8 a5bc c0b9 89bc
000000f0: 1f99 28bf ec6a 0ebf b9ee 5bbf afe1 d03f
00000100: fe93 da3d 0c6a 3bbd d3eb 483e e381 1cbd
00000110: 36bb ce3f 5dc9 2abf bd58 063d 48fa 02c0
00000120: 0468 4a3c d8ae 2fbf 3f29 b23c 9f19 16c0
00000130: 4e55 143e ab67 5abf 7e7f 8d3d 818c 1abf
00000140: a341 abbf 2ab8 d6bb 8cad 5abc 51ac fc3d
00000150: 0291 29bf c531 01bc a060 0c3e 032c 62bf
00000160: 42f4 bdbc b4d1 14bf 1009 963e ab44 8d3d
00000170: 1b79 d03f 3317 033e 86c6 19bf 0881 79bf
00000180: a8e8 3abd e9a1 b13b 1fd9 523e 9976 56bf
00000190: 0016 633d 1101 4b3e 8b1e 5e3d 0a1f 77bf
000001a0: e439 293e 7153 d2bf 5ce1 123d 34cc 143c
000001b0: 58b7 efbf d9fa 4a3e a816 9ebf 143f db3d
000001c0: 6e13 133e 2601 64bd 8c16 af3c cc89 85be
000001d0: 6941 fd3d d0ab 013e 326e 1c3c 3c40 c5bf
000001e0: 8726 a7bf 7a88 29bf f925 71bf 8a43 61bf
000001f0: 7ae0 82bc 521a d33c 85a3 62bf 1210 e43d
00000200: 444d 7cbf 6bb7 2dbc 65ab cabf 7658 47bd
00000210: 99ea 8f3c e8c7 2dbf 8330 a2bf 71d0 2ebf
00000220: 2577 903c 3ec3 033e b463 7abf 42e0 663a
00000230: 0bdc 023d b0ca 0dbd 6b29 dd3c c0a5 563d
00000240: 4d10 c73f b462 ca3d bb65 793c fbf5 20bc
00000250: e887 40bf 9049 71bf c639 c73d 371a 9e3e
00000260: 4588 49bc 9ce1 b83d c8ca ea3b 9675 6dbf
00000270: 335d 3dbc 93ef d33e bd04 303d 552d d3bc
00000280: d000 f9bc 351e 6f3c 2eb5 29bd b2b3 a53d
00000290: 0c1b e03d 4798 2bbf 32c3 2ebd 03dd c9bb
000002a0: f054 d8bc c113 da3b 6e3a 3b3d d2db cc3d
000002b0: 1ab7 653e 6f4a 863e 8cb7 433c b454 023d
000002c0: 409d 29bd b37b 623d 4884 46bf b3f7 d9bf
000002d0: 4714 cfbc 3f73 34bc 67e5 6dbf 761b c2bc
000002e0: 6c87 18bf 2b13 f03d f7fb 763e 9d79 fcbb
000002f0: 5ee9 fbbd c81f 0cbf fc90 ec3d 8724 49bd
00000300: 0519 b4be 431b 883e 0c2a 73bc 5558 b53d
00000310: f735 ddbc f0d0 8f3e bd32 acbd 4e9a 4abd
00000320: a229 0b3e f1a9 76bc 5487 89bf 989c 27bf
00000330: a344 dd3d 0692 9fbf 1e53 74bf 0ae5 1fbf
00000340: 4af2 d1bf 3020 babf 5d88 57bc 2c87 15bf
00000350: a662 31bd 497b babc 1dea 5a3f 1c49 c83d
00000360: 0f5d 3fbf edd6 8c3d d137 bcbc ef58 913d
00000370: 9e06 26bd 86ab 71bf d68a c43b b93b 70bf
00000380: 63c0 12bd d3c6 56bc 4457 8c3d 510f 343c
00000390: 2e21 46bc 0ea2 2cbf cf2e be3c 5f22 e0bc
000003a0: ea74 f53d 6f91 503d dd1e 973d ee88 94bf
000003b0: c03f 6bbf 55ed c2bf ca89 013c 7e89 82be
000003c0: 2050 aabf d2cf 5cbf 07c2 28bb 6d59 473d
000003d0: 06c8 b1bf c8f7 89bb 505c 44bf 660b ccbe
000003e0: 9a5d b2bf 108b c2bf cd0e 3ebf 54c4 efbe
000003f0: 8efb 723d 3ae7 40bf da8a 22bf d522 bfbc
